female_model.pkl (torch, 246719 bytes, 56 tensors)

weight f4 [10]
000000 57 d6 58 3f f8 ea 48 3f 95 ee 51 3f e0 84 54 3f
       0.84702057 0.78483534 0.8200467 0.8301525
000010 da fb 4d 3f b8 44 51 3f 97 11 4b 3f 32 aa 4e 3f
       0.8046242 0.8174548 0.79323715 0.8072845
000020 6f 3a 4f 3f fe 75 4d 3f
       0.8094854 0.80258167

bias f4 [10]
000000 1a 47 08 be 4b 45 1c be 9a 47 1b be 4b 81 f8 bd
       -0.13308373 -0.15260808 -0.15164033 -0.12134036
000010 97 e6 17 be ce 9e 11 be 12 64 25 be d3 87 12 be
       -0.14834057 -0.14220735 -0.16151455 -0.14309625
000020 8c 89 35 be ee 61 13 be
       -0.17728251 -0.14392826

running_mean f4 [10]
000000 cd 55 8f bb bc 92 b2 bb ff 99 84 bc 3f 3d 86 bc
       -0.004374242 -0.005449621 -0.016186712 -0.016386626
000010 04 f0 7d bd d6 34 5c bd f0 9f 79 bd ce de b6 3c
       -0.061996475 -0.053761326 -0.060943544 0.022323038
000020 84 5e 52 3d ce ef 19 bd
       0.05135967 -0.03758221

running_var f4 [10]
000000 47 af 8e 3f d2 e9 89 3f 3d 2e 7a 3f 7a fe 77 3f
       1.114724 1.0774481 0.97726804 0.96872675
000010 17 5b 5d 3f f1 eb 6b 3f 10 ca 5f 3f b7 b3 84 3f
       0.8646712 0.92156893 0.874177 1.0367345
000020 75 31 a8 3f 82 3e 61 3f
       1.3140093 0.87986004

weight f4 [200, 10]
000000 a1 7b b9 bd c5 a0 9d bc b5 17 a5 3e cc 20 8a 3e
       -0.090567835 -0.0192417 0.3224465 0.26978147
000010 37 07 e2 3d fe 87 81 3c c6 10 fe 3d 8b 39 97 be
       0.11036532 0.015811916 0.12405543 -0.2953609
000020 49 11 67 bd bb 31 2e 3e 1f 86 46 be 07 88 52 3e
       -0.05641297 0.17011158 -0.193871 0.20559703
000030 b0 69 f7 bd 09 37 2f bd a1 c7 52 be 6d 7d 84 3e
       -0.12080705 -0.042777095 -0.20583965 0.25876942
000040 b5 e9 bc 3d a5 65 06 be e1 a3 5e be 78 70 35 3e
       0.092242636 -0.13124712 -0.21742202 0.17718685
000050 1c 49 c1 3d 3f ce e2 3c 5e 4d 23 be 03 87 96 be
       0.09437773 0.027686236 -0.15947482 -0.2939988
000060 2d 32 a8 bd 8c 89 80 be da 25 28 be 33 73 30 3d
       -0.08212695 -0.2510494 -0.16420689 0.043078613
000070 56 ff 90 3e 47 d0 39 3e d8 6d d2 3d 19 08 24 be
       0.28319806 0.18145858 0.10274857 -0.16018714
000080 a2 d4 8f be d9 12 d0 3d 45 bd 07 be 57 92 0c 3e
       -0.28091913 0.10159845 -0.13255794 0.13727699
000090 55 76 48 3e fa 82 1a 3e 2e 53 f9 bd 7e 70 85 3c
       0.1957639 0.15089026 -0.121740684 0.016288992
0000a0 e7 00 43 3e 51 0c bb bd af ca 0b bd 62 9a 8b 3e
       0.19043313 -0.091332085 -0.03412884 0.27266222
0000b0 53 35 d6 bd 44 e4 6e be ca 0f 53 3d f0 67 89 3e
       -0.104593895 -0.23329264 0.05152873 0.2683711
0000c0 66 bd 27 be 38 10 7d 3e e8 4f 16 3d 49 a2 78 3d
       -0.16380844 0.24713218 0.0366973 0.060701642
0000d0 d7 c2 76 3e 79 02 31 bb 85 b6 6a 3e 0c 4c 97 be
       0.24097763 -0.002700953 0.22921188 -0.29550207
0000e0 83 10 89 be f0 51 87 bd 8b fb 52 3d a2 f2 93 be
       -0.2677041 -0.06607425 0.05150942 -0.28896052
0000f0 4e 41 3e 3d 8f 94 ae be 2d 34 85 be 67 02 f5 3c
       0.046449 -0.34097716 -0.2601637 0.029908372
000100 97 cc c0 3b 5e 0f 72 3e 78 7b 51 be 74 3c 46 be
       0.005883764 0.23638675 -0.20457256 -0.19358999
000110 fb 54 36 be e3 79 35 3e 7c ea a2 3e 09 86 09 3e
       -0.17805855 0.17722277 0.31819522 0.13430037
000120 a6 46 89 be 42 02 fa 3c f2 79 65 be 27 91 b9 3d
       -0.26811713 0.030518655 -0.224098 0.09060889
000130 a9 72 35 be 84 ab 5b 3e d2 8c 62 3d f7 a2 af 3d
       -0.1771952 0.21452147 0.055310078 0.08576005
000140 8f 48 35 be 4e a5 7b be 18 e4 71 be dc fa 82 be
       -0.1770346 -0.24574777 -0.23622167 -0.25582016
000150 0b 50 9c be cd 9a 33 be c9 ba 88 bd a1 11 8c 3e
       -0.30529818 -0.1753952 -0.066762514 0.273572
000160 3b 29 25 be bd 6a 65 3e 2d d3 05 3e b2 98 86 3e
       -0.1612901 0.22403999 0.13068838 0.26288372
000170 b3 b5 85 be fb 7d f5 3c a0 87 34 bd 2e 9e b4 3d
       -0.26115188 0.029967299 -0.044074655 0.08819233
000180 12 41 94 be cd a0 83 3e b5 f8 9e be 66 29 83 3e
       -0.28955895 0.2570862 -0.31049123 0.25617522
000190 a9 1f 38 3e 91 ea a0 be 30 61 10 be a1 3a 1a 3e
       0.17980827 -0.3142896 -0.14099574 0.15061428
0001a0 09 86 af 3d e9 32 37 3e 42 ca 1d be 3f 10 76 be
       0.08570487 0.17890514 -0.15409186 -0.24029635
0001b0 c3 e1 8c 3d b6 9d 17 be 5d 68 0d 3d b2 5a 88 be
       0.06878998 -0.14806256 0.034523357 -0.26631695
0001c0 80 84 01 3b 69 91 81 3c 6b 3e d5 3d 86 6f 1b 3e
       0.0019762814 0.015816407 0.10412296 0.15179262
0001d0 18 72 af 3d e6 a5 99 3e 59 b9 38 bc 3d 90 8e 3e
       0.085666835 0.30009383 -0.011274659 0.2784442
0001e0 11 6a c3 3d 74 66 dc 3c f0 27 0e be bc b2 50 3e
       0.09541715 0.026904322 -0.13882422 0.20380682
0001f0 bb 17 a3 bd 9c e0 89 3e 43 96 87 3c 8c 4a 5f 3e
       -0.079635106 0.26929176 0.016551143 0.21805781
000200 04 7e b4 bd 85 67 26 3e e8 3c 3f 3d 17 db 2e 3d
       -0.08813098 0.16250427 0.046688944 0.04268941
000210 2b a0 29 3d 4b 5f be bd fa b5 9c be d4 94 81 be
       0.041412514 -0.092955194 -0.30607587 -0.2530886
000220 76 16 7d 3e c2 99 c6 3d 63 f7 6d be b8 ad 83 3e
       0.247156 0.09697296 -0.23238902 0.25718474
000230 5b c1 51 bd cb c3 8b 3e 5a 58 c6 3d 66 00 8f 3d
       -0.05120979 0.27297816 0.096848205 0.06982498
000240 5c b8 89 be c1 4f 70 3d b3 b0 7a 3d b7 67 4d bd
       -0.26898468 0.05866981 0.06120367 -0.05014774
000250 e3 01 98 be 00 97 e4 3c a3 45 29 3e 33 b0 5b be
       -0.2968894 0.027904034 0.1653047 -0.21453933
000260 02 5d 5a 3e 0e 08 3a 3e 2f 38 52 bd 52 b6 7b 3d
       0.21324542 0.18167135 -0.051323112 0.06145317
000270 88 5b 0a 3e 94 23 45 3e 33 9b f3 3d 6c ca e5 3d
       0.13511479 0.19251853 0.11894836 0.112202495
000280 0d ea be bc 4b fc 27 3e 11 8c 99 3b 5d 80 7c be
       -0.023304963 0.16404836 0.0046858867 -0.24658342
000290 e1 eb 53 be 88 f3 9e ba d7 21 7d 3d 39 6d 88 be
       -0.2069545 -0.0012127021 0.06179985 -0.2664583
0002a0 36 5c ad bc ae 3e c1 bc 23 9e 92 be 76 bd a1 3e
       -0.021162134 -0.023589458 -0.28636274 0.3158986
0002b0 54 e3 8f be f7 19 ed 3d 40 9b 3d 3e ef 68 49 bc
       -0.28103125 0.11577218 0.18516254 -0.0122930845
0002c0 11 74 19 be e8 74 83 be 11 45 6e 3e e7 ca 9d bd
       -0.14985682 -0.2567513 0.23268534 -0.07704716
0002d0 8c ad ea bc 43 14 df bd 75 10 90 3e b3 38 31 3e
       -0.028647207 -0.108925365 0.28137556 0.17306785
0002e0 e3 27 36 be 05 53 74 3e f4 29 f1 3d 64 4b 4f 3e
       -0.17788653 0.23859794 0.1177558 0.20243603
0002f0 9a a8 1f bd 47 d7 2c 3e ce fc 8c be c4 99 a1 be
       -0.03897915 0.16878997 -0.27536625 -0.31562626
000300 d2 9d 91 3d b6 74 a0 be 3c 52 4c bd a4 f4 73 bd
       0.0711018 -0.31339043 -0.049883112 -0.05955948
000310 ce c9 1c be bb 35 19 be 4e 26 58 be 33 34 d2 3d
       -0.15311357 -0.14961903 -0.21108362 0.102638625
000320 86 29 5a 3e 55 67 79 3d e4 e7 cb 3d 49 ff 2d be
       0.21304902 0.06088956 0.09956339 -0.16991915
000330 95 a6 d7 3c 29 d2 55 3e 31 77 57 3e 10 53 90 bd
       0.02632455 0.20880951 0.21041562 -0.07047093
000340 9a eb 7e bd 1f 8b 2e be 2b 1a 6a 3e b2 05 8c bd
       -0.062236406 -0.17045258 0.22861545 -0.06837024
000350 3d ff a8 bd 47 b0 e2 bd 27 a9 88 3e d0 7e 8b be
       -0.08251808 -0.110687785 0.26691553 -0.27245188
000360 78 ba 94 3e 24 b0 1d 3e d3 f1 80 3e 80 46 56 be
       0.29048514 0.15399224 0.25184497 -0.20925331
000370 26 a5 10 3e 49 44 ab 3e d1 66 8c be 80 73 5f 3d
       0.14125499 0.33450535 -0.27422193 0.05455351
000380 e4 c1 0f 3e 68 46 0b be be c4 b7 bd 68 23 fd bd
       0.14038807 -0.13601077 -0.089730725 -0.12360269
000390 fc c9 ec 3c ea 57 04 be 4f ea ce bc 39 cf 35 bd
       0.028904907 -0.12924162 -0.025258211 -0.044387076
0003a0 f7 cb 2b bd 5b e4 bc bd a6 6f 86 be 8f 57 5a 3e
       -0.041942563 -0.09223243 -0.26257056 0.21322463
0003b0 16 49 8d be d8 c7 38 be ed ea 99 3e 63 d8 5e be
       -0.27594823 -0.18044984 0.30062047 -0.21762232
0003c0 e0 a7 98 3e 4a 86 4e 3e 22 18 23 3e 8c ea 01 bd
       0.29815578 0.20168415 0.15927175 -0.031717822
0003d0 56 c3 9d 3e 23 9a 6c be b6 66 03 be 92 aa 61 3e
       0.30813092 -0.23105673 -0.1283215 0.22037724
0003e0 64 4d 04 3d 72 ca 15 3e e4 1e 1e be 8e b6 0d be
       0.032300368 0.14628008 -0.15441471 -0.1383917
0003f0 e5 20 48 bd c6 6b d3 3d 53 47 23 3e bf 29 21 be
       -0.048859496 0.103232905 0.15945177 -0.15738581

weight f4 [200]
000000 c4 c7 7e 3f 61 39 84 3f 1b 7d 7d 3f a5 4e 81 3f
       0.9952357 1.0330011 0.9901902 1.0102125
000010 1a 57 81 3f d6 c8 81 3f 09 28 80 3f fe 99 7d 3f
       1.0104706 1.0139415 1.0012218 0.990631
000020 4d 53 77 3f a0 c0 81 3f 71 24 81 3f 7c ba 82 3f
       0.9661148 1.013691 1.0089246 1.021316
000030 3f d1 7c 3f 79 25 81 3f f9 3b 82 3f d6 2c 81 3f
       0.98756784 1.0089561 1.0174552 1.0091808
000040 50 96 80 3f da 8a 82 3f 11 29 79 3f 97 8c 80 3f
       1.0045872 1.0198624 0.9732829 1.0042905
000050 b1 4f 7f 3f e9 2b 82 3f 02 d7 80 3f dd c5 7d 3f
       0.99730974 1.016965 1.0065615 0.9913004
000060 03 10 7c 3f f0 3f 81 3f 3a a4 7d 3f 35 1c 7d 3f
       0.9846193 1.0097637 0.99078715 0.98871166
000070 69 df 7c 3f 10 fc 76 3f d0 a1 80 3f 21 f2 7c 3f
       0.98778397 0.96478367 1.0049381 0.9880696
000080 61 dc 7d 3f 42 75 7d 3f 7d 5a 7e 3f db ae 7b 3f
       0.99164397 0.99007046 0.99356824 0.98313683
000090 c9 ed 7b 3f af b1 80 3f 3e 84 77 3f e7 0b 80 3f
       0.98409706 1.0054225 0.9668616 1.0003632
0000a0 bf 44 80 3f 9e 55 7f 3f 70 7c 7c 3f ad 95 80 3f
       1.002098 0.99740016 0.98627377 1.0045677
0000b0 de 3a 79 3f 79 6d 7f 3f 4f d2 77 3f 06 b8 81 3f
       0.9735545 0.99776417 0.9680528 1.0134284
0000c0 35 f5 81 3f cc b6 83 3f 78 29 7d 3f bc a0 80 3f
       1.0152956 1.029016 0.988914 1.0049052
0000d0 fc fc 7d 3f 80 90 7d 3f c8 92 7b 3f dd e4 7e 3f
       0.9921415 0.99048615 0.98270845 0.9956797
0000e0 71 b1 7e 3f af 0d 82 3f 1f 50 7c 3f f8 a9 7f 3f
       0.99489504 1.0160426 0.98559755 0.99868727
0000f0 36 74 7d 3f d0 ce 7b 3f 1f 43 7e 3f 83 71 7d 3f
       0.9900545 0.98362446 0.9932117 0.9900133
000100 c4 11 83 3f 9f e5 81 3f 42 54 81 3f b7 8b 81 3f
       1.0239797 1.01482 1.0103838 1.0120763
000110 ca ff 79 3f 0e 72 80 3f 7a 29 80 3f 60 d1 80 3f
       0.9765593 1.0034807 1.0012658 1.0063896
000120 a3 20 7f 3f 94 f0 7f 3f 9a a1 78 3f b4 99 7d 3f
       0.99659175 0.9997647 0.97121584 0.9906266
000130 05 19 83 3f 30 1f 81 3f 4e 8a 83 3f 53 86 82 3f
       1.024201 1.0087643 1.0276582 1.0197242
000140 bd e5 7d 3f 5d ea 7c 3f c7 89 83 3f 7b 01 7e 3f
       0.9917868 0.9879511 1.0276421 0.9922101
000150 5d d5 82 3f ab 57 7e 3f 92 a8 79 3f d8 3b 7b 3f
       1.0221363 0.9935252 0.9752284 0.9813819
000160 04 51 82 3f 2b dd 81 3f 78 27 81 3f 21 c2 80 3f
       1.0180974 1.014562 1.009017 1.0059243
000170 94 5c 83 3f 48 eb 83 3f cd da 7e 3f e3 3b 7d 3f
       1.0262628 1.0306177 0.99552613 0.98919505
000180 29 ba 7c 3f 64 87 7a 3f 73 ce 80 3f ac 21 78 3f
       0.9872156 0.9786284 1.0063003 0.9692638
000190 66 9e 80 3f 62 14 82 3f 0c df 82 3f 47 03 7e 3f
       1.0048339 1.016247 1.0224319 0.9922375
0001a0 81 72 79 3f c7 a7 7c 3f 7e 0f 7c 3f ef c6 7a 3f
       0.97440344 0.9869351 0.9846114 0.979598
0001b0 30 5f 81 3f 9e 7f 7f 3f 8d c3 81 3f 24 b2 7d 3f
       1.0107174 0.99804103 1.0137802 0.99099946
0001c0 60 8a 80 3f e2 78 82 3f b7 16 7d 3f 31 a1 7e 3f
       1.0042229 1.019314 0.98862785 0.9946471
0001d0 f4 49 7b 3f 32 d9 7e 3f 60 15 7c 3f de 3e 7c 3f
       0.9815972 0.99550164 0.98470116 0.9853343
0001e0 f9 a0 84 3f c6 ae 7e 3f 1b 31 7e 3f 77 5f 7a 3f
       1.0361625 0.99485433 0.9929368 0.9780192
0001f0 86 8c 82 3f 2c 82 7f 3f 26 32 80 3f 9a 58 82 3f
       1.0199134 0.99808 1.0015304 1.0183289
000200 11 b4 7f 3f dc 0e 77 3f 48 45 81 3f df 32 7c 3f
       0.99884135 0.9650705 1.0099268 0.98515123
000210 a1 ca 82 3f 6b 2e 79 3f 5a 41 83 3f ec 96 7f 3f
       1.0218087 0.97336453 1.0254319 0.99839664
000220 ae d5 7e 3f 1d fd 80 3f b7 24 7c 3f 37 c7 82 3f
       0.995448 1.0077244 0.9849352 1.0217046
000230 df d4 7b 3f a1 08 81 3f 6c 03 7b 3f 5c f5 81 3f
       0.9837169 1.0080758 0.98052096 1.0153003
000240 78 b0 80 3f 88 ce 79 3f 6f 3c 7f 3f 1a 1a 81 3f
       1.0053854 0.97580767 0.9970159 1.008609
000250 09 dd 79 3f 58 c4 82 3f 5f b6 7c 3f c2 75 78 3f
       0.976029 1.0216169 0.98715776 0.97054684
000260 ae 83 80 3f eb ec 83 3f 8b 60 7d 3f bb 11 81 3f
       1.0040185 1.0306677 0.9897544 1.0083536
000270 9f 1f 7c 3f a2 02 7b 3f 60 ba 7d 3f 51 94 79 3f
       0.9848575 0.9805089 0.9911251 0.9749194
000280 78 41 82 3f a2 3f 7e 3f 5f aa 77 3f b8 ec 7e 3f
       1.017623 0.99315846 0.9674434 0.99579954
000290 59 7c 83 3f f9 97 80 3f 6a 9d 81 3f 4a 93 79 3f
       1.0272323 1.0046378 1.0126164 0.9749037
0002a0 a1 02 83 3f 73 a3 7b 3f 88 ff 7d 3f 64 28 7e 3f
       1.0235177 0.9829628 0.99218035 0.9928038
0002b0 ca 0d 7a 3f 55 b0 82 3f d4 eb 81 3f 58 68 7c 3f
       0.9767729 1.0210062 1.0150094 0.98596716
0002c0 64 56 7c 3f 6d cc 79 3f e7 e0 83 3f c3 ab 7c 3f
       0.9856932 0.97577554 1.030301 0.9869959
0002d0 21 0b 7e 3f d1 3b 80 3f 0e ed 7f 3f cf 44 84 3f
       0.9923573 1.0018255 0.9997109 1.0333499
0002e0 76 ae 81 3f b9 84 7a 3f b1 d7 7c 3f d5 4b 7d 3f
       1.0131366 0.9785877 0.9876662 0.98943835
0002f0 bf 57 84 3f ef 07 77 3f 62 3d 7d 3f 15 9d 7c 3f
       1.0339278 0.9649648 0.9892179 0.9867719
000300 39 06 82 3f 7f ba 7b 3f 68 62 7e 3f 28 32 80 3f
       1.0158149 0.98331445 0.99368906 1.0015306
000310 f0 8a 7a 3f 03 4d 7d 3f 3c 13 7c 3f ac 5b 7e 3f
       0.9786825 0.98945636 0.9846685 0.9935863

bias f4 [200]
000000 d0 5a 20 3d eb d1 74 bd ff ec e8 3c 3d 0f 8b 3d
       0.039149106 -0.059770506 0.028433321 0.06790016
000010 4b cb f0 3b 27 0e 03 3d a5 e0 7d 3d bb 5f 5b bd
       0.007348453 0.03199592 0.061981816 -0.053558093
000020 06 e6 7d 3d cf b4 7d bd fa 59 03 3d 8f 16 69 3d
       0.061986946 -0.06194001 0.03206823 0.05690628
000030 f3 2d 91 bc 05 d7 2c bd 55 54 8f bd 59 86 91 3d
       -0.017722106 -0.042197246 -0.06998507 0.07105703
000040 9a 5b 22 bd 0d 2c 80 bd e8 43 c1 3c 27 18 75 3d
       -0.03963814 -0.06258402 0.02359195 0.059837487
000050 14 6b 96 bc 68 92 79 3a 5d af 1a bc b1 74 5c 3c
       -0.018361606 0.00095204124 -0.009441224 0.013455556
000060 5d db 38 bd 44 d5 47 3d e7 76 b6 bc b8 14 75 3d
       -0.045131076 0.04878737 -0.022273494 0.059834212
000070 d6 ee 5d bd 06 bc 7d 3d 54 9d 85 bd fd ae 82 3d
       -0.05418285 0.06194689 -0.065241486 0.063810326
000080 30 b5 24 3c 63 0b 2b 3d b5 d8 e7 bb c9 67 11 bc
       0.010052964 0.041758906 -0.007075394 -0.008874842
000090 d8 8c f4 3c 4d 8f 48 3c 95 a2 30 bd 15 db 1b 3d
       0.029852316 0.012241197 -0.0431238 0.03805073
0000a0 08 a8 8d 3d 16 a8 50 3d 97 38 80 bd 47 f1 81 bd
       0.06916815 0.05094155 -0.06260794 -0.06344848
0000b0 92 2f 57 bd 5f 62 fe 3c c3 5c 85 3c 4c d9 eb 3c
       -0.0525356 0.031052766 0.016279584 0.028790139
0000c0 c4 18 f7 bc fe 54 8f bd 45 fc 6d bb d3 c1 39 bd
       -0.030163176 -0.06998633 -0.0036313694 -0.04535086
0000d0 3d e5 e9 bc 14 95 d6 3c 05 6a c2 bc da 25 f0 ba
       -0.028551692 0.026194133 -0.023732195 -0.0018321828
0000e0 78 82 8c 3d d2 b1 60 bd 1a 82 dd bc 18 af 87 bc
       0.068608224 -0.054857083 -0.027039576 -0.016562983
0000f0 71 01 0d 3d bc 70 21 bd 5f 86 49 3d 7d c6 df bc
       0.034425203 -0.039414153 0.049200412 -0.027316326
000100 af 9b 71 3d 58 3f 7b bd 32 a5 36 3d 9f 82 18 3d
       0.058986362 -0.061339706 0.044591136 0.037233945
000110 a4 83 63 3d 13 f0 68 3c 94 2d b7 ba 60 d9 d6 3b
       0.055545464 0.014217394 -0.0013975375 0.006556675
000120 cf 50 11 3d b8 f8 84 3a 23 6d 98 3c b5 ee ab 3c
       0.035477456 0.0010144925 0.018606728 0.020987848
000130 2c 1c 6f bd 0d 25 7b bd 55 78 b5 bc d5 47 37 3d
       -0.058376476 -0.06131463 -0.022152105 0.04474624
000140 79 a4 0d bd 4c 7e 87 bd d1 13 5d 3d 3a 36 0d 3d
       -0.03458068 -0.06615886 0.053973977 0.034475543
000150 b2 74 44 3d 54 74 74 3d e3 01 a8 bc e7 3f 1a bd
       0.04796285 0.05968125 -0.020508712 -0.0376586
000160 d2 11 48 3d 98 b0 23 bd 13 b2 f1 3b f2 47 15 3d
       0.04884512 -0.039963335 0.0073759644 0.036445566
000170 71 7b 80 bd 6c eb 07 bd 69 ff 5f bc b2 2a 76 bd
       -0.062735446 -0.0331835 -0.013671734 -0.06009931
000180 99 4c 90 bc 40 f4 3b 3c 14 30 a6 3c 76 a3 98 3c
       -0.01761465 0.011471808 0.020286597 0.018632632
000190 34 29 4c 3d ac f9 45 bd 98 50 75 bd 97 dd 0d bd
       0.04984398 -0.04833381 -0.059891313 -0.034635153
0001a0 1a 07 0b bd 37 91 d6 3c c7 75 15 3d b6 d4 36 bc
       -0.03394232 0.02619229 0.036489274 -0.011159113
0001b0 44 bb 71 bd f3 da 8f 3d a5 a1 7e 3d 6f c7 8a bd
       -0.05901648 0.07024183 0.062165875 -0.0677632
0001c0 b7 08 ee bc 43 e6 82 3d 81 7a 5c bc 22 1a 3a 3d
       -0.02905689 0.06391575 -0.013456942 0.04543508
0001d0 b8 a6 36 3d 5e 61 3f bd e1 0e 26 bc 85 7e 53 3d
       0.04459259 -0.046723716 -0.010135383 0.05163433
0001e0 79 9b 36 bd 1f 3e f9 3c 3d 96 0d bd 76 db 39 bb
       -0.044581864 0.03042513 -0.034567107 -0.0028359569
0001f0 bf 67 5f bd 98 58 22 bd 01 23 64 bd b5 21 e8 3c
       -0.0545423 -0.03963527 -0.055697445 0.028336385
000200 d3 00 62 bd dc c6 70 bd c6 4c f4 bc 57 59 e2 bc
       -0.055176567 -0.058783397 -0.029821765 -0.027630491
000210 ca ec 6e bd 77 72 30 3d 57 dd ec 3c 9e c5 fd bb
       -0.05833129 0.043077912 0.028914137 -0.007744505
000220 2f 65 f6 bc 55 22 33 bd c8 5f 31 3d 1d 18 75 bd
       -0.030077545 -0.043733913 0.043304235 -0.05983745
000230 b5 68 0a bd bd 09 2d bd 05 95 57 bd a5 d9 5d bd
       -0.033791263 -0.042245615 -0.05263235 -0.05416264
000240 8f 2b 49 bd 8e ce 1c bd 71 72 f8 bb d1 c5 18 bb
       -0.049113806 -0.038282923 -0.007582002 -0.0023311267
000250 71 74 82 3d f8 f0 c2 bc 5f 7d 66 3c e5 07 69 3d
       0.06369866 -0.023796543 0.014067977 0.056892294
000260 28 c2 0e bd bd ad 68 bd 64 a6 8e 3d 02 f3 4e 3d
       -0.03485313 -0.056806315 0.0696533 0.05052472
000270 a8 94 43 bd aa ea 0b bc 21 ff b7 3c 0f e0 08 bd
       -0.04774919 -0.008539835 0.022460522 -0.033416804
000280 84 b2 a0 bc f4 0d 21 bd ad 2a 3c 3d 01 3f 2b 3a
       -0.019616373 -0.039319947 0.045939136 0.00065325206
000290 4d 58 83 3d 1a 8a 6d bd f3 f3 78 bc a4 93 75 3d
       0.064133264 -0.057993032 -0.015194881 0.059955254
0002a0 0e 70 74 bd f6 13 25 bc 78 09 39 3d c7 28 f1 bc
       -0.059677176 -0.01007556 0.045175046 -0.02943839
0002b0 3c 38 25 bd 10 fc 84 bd 8a 74 7d bd 67 95 31 3d
       -0.040336832 -0.064933896 -0.06187872 0.04335537
0002c0 1c 65 82 3d 41 15 49 3d 33 5b 61 bd e8 44 97 3c
       0.06366941 0.049092535 -0.055018615 0.018465474
0002d0 12 ce 91 3d 88 b3 45 3d 77 06 8f 3d 8e f4 22 3d
       0.07119383 0.048266917 0.06983655 0.039784007
0002e0 d3 02 a1 3c 4a be cd 3c a5 18 2d bd 70 80 61 bd
       0.019654667 0.025115151 -0.04225983 -0.05505413
0002f0 06 ca 76 bd 1d 12 7f 3c 9a 1c 5b 3c 48 50 f6 3b
       -0.06025126 0.015568283 0.013373518 0.0075168945
000300 fd f5 6b 3d 3d 23 09 3d 9f 71 ad 3c 30 d8 7e 3d
       0.05760764 0.03348087 0.021172343 0.06221789
000310 0c 39 c9 bc 61 d2 05 bc ff f6 10 3c e7 37 35 bd
       -0.024563335 -0.008167834 0.008847951 -0.044242766

running_mean f4 [200]
000000 19 2b 39 3e 33 5c 33 3e 9c 2f 76 3e 2b 3e 13 3e
       0.18082847 0.1751564 0.24041599 0.14379184
000010 ac 85 14 3e 34 7e 36 3e e1 fe 7e 3e 65 a2 2c 3e
       0.14504117 0.1782158 0.24901916 0.16858824
000020 48 73 be 3e 61 87 50 3e 83 83 54 3e 85 73 03 3e
       0.37197328 0.20364143 0.20753293 0.12837036
000030 dd 7c fc 3d 6c 53 4f 3e e6 6a 15 3e 67 2f db 3d
       0.12328503 0.20246667 0.1459156 0.10702401
000040 54 51 55 3e ed 01 5b 3e 5e 42 04 3e 03 59 a5 3e
       0.20831805 0.21387453 0.12915942 0.32294473
000050 64 81 ea 3d 34 fb 25 3e 69 40 19 3e 69 16 5e 3e
       0.114504606 0.16209108 0.14965977 0.21688236
000060 1a 4e 0a 3e 85 3c 21 3e ee dd 2b 3e af 2f 47 3e
       0.13506356 0.15745743 0.16783878 0.19451784
000070 52 00 19 3e d9 ac 48 3e d4 93 2b 3e be e5 37 3e
       0.14941528 0.19597186 0.1675561 0.17958733
000080 7c 86 f8 3d 92 02 39 3e 10 ba 95 3e f3 e7 31 3e
       0.12135026 0.18067387 0.29243517 0.17373638
000090 a5 15 91 3e 7f b9 65 3e e4 c1 59 3e 8a 6d 3f 3e
       0.28336826 0.22434042 0.2126537 0.1869413
0000a0 94 80 81 3e 87 c3 29 3e da 47 61 3e 83 a3 f2 3d
       0.2529341 0.16578494 0.22000065 0.11847594
0000b0 1e a5 66 3e 90 d0 85 3e d2 0b 08 3e ec 8a 51 3e
       0.22523925 0.26135683 0.13285759 0.2046315
0000c0 7a 4e 17 3e 63 28 14 3e 0d 34 47 3e 21 bf 20 3e
       0.1477603 0.14468531 0.1945345 0.1569791
0000d0 a8 32 1e 3e 2a 41 09 3e 1e 11 87 3e 80 61 e5 3d
       0.15449011 0.13403764 0.26380247 0.11200237
0000e0 9c e1 5b 3e 33 0d 08 3e d7 8b 14 3e 2d ea 28 3e
       0.21472782 0.13286285 0.1450647 0.16495581
0000f0 ae d4 9f 3e 2c c6 26 3e 02 65 59 3e 33 8e 73 3e
       0.3121695 0.16286534 0.21229938 0.23784713
000100 7b ef 59 3e bc 76 27 3e fa b1 05 3e 4d 84 4c 3e
       0.21282761 0.16353887 0.13056174 0.19972344
000110 81 5b 36 3e 4a 5d 31 3e a9 48 02 3e 94 b4 5b 3e
       0.17808343 0.17320743 0.1272303 0.21455604
000120 5c 2c 6f 3e bc f2 05 3e 0a 14 1a 3e b1 4f 2d 3e
       0.23356766 0.13080877 0.15046707 0.16924931
000130 07 d0 05 3e 0d 9a bb 3d 5c 14 25 3e f7 ab 25 3e
       0.13067637 0.09160242 0.16121048 0.1617888
000140 2a 45 d8 3d b5 cc fa 3d 71 dd 4b 3e 00 0a 58 3e
       0.10560067 0.12246076 0.19908692 0.21097565
000150 07 76 70 3e 50 2b 0a 3e 49 16 10 3e a9 69 53 3e
       0.23482524 0.13493085 0.14071001 0.20645775
000160 f5 5c 14 3e fa ce 28 3e 3e 38 12 3e 42 e9 29 3e
       0.14488585 0.16485205 0.14279267 0.16592887
000170 26 ff 15 3e 93 13 51 3e a8 44 b6 3d b2 d2 1b 3e
       0.14648113 0.20417623 0.08899814 0.15217093
000180 b6 70 18 3e 33 ea 6f 3e c7 2f 01 3e fc ff 8f 3e
       0.14886746 0.23429184 0.12615882 0.28124988
000190 f3 a4 29 3e ef 87 45 3e e6 74 5a 3e 1f 23 dc 3d
       0.1656683 0.19290136 0.21333656 0.10748886
0001a0 2f 7a 4e 3e ed 06 86 3e 54 c7 27 3e e4 11 3c 3e
       0.20163797 0.2617716 0.16384631 0.183662
0001b0 e9 c7 46 3e fd d2 9f 3e 26 94 54 3e 38 4e e7 3d
       0.19412197 0.3121566 0.20759639 0.11294216
0001c0 29 24 2a 3e 7a 60 e7 3d f8 26 6a 3e 75 0a 4c 3e
       0.16615357 0.11297698 0.22866428 0.19925864
0001d0 d0 1d 0f 3e 01 fe 0b 3e a1 10 23 3e 2e 38 10 3e
       0.13976216 0.13671114 0.15924312 0.14083931
0001e0 6b 44 21 3e c2 ad 15 3e 8b 30 ff 3d 0c bb d5 3d
       0.15748756 0.14617065 0.12460431 0.10436067
0001f0 17 5d 2d 3e d3 98 4b 3e 4a 20 4c 3e 8e 58 6d 3e
       0.16930042 0.19882517 0.19934192 0.23178312
000200 37 73 39 3e 1b 6e 2a 3e a2 8c 6a 3e 32 1b 1f 3e
       0.18110357 0.16643564 0.2290521 0.15537718
000210 b0 f9 ba 3d 3c e2 11 3e fc 2a a9 3e 8e 4e f3 3d
       0.09129655 0.14246458 0.33040607 0.118802175
000220 11 b4 f0 3d 9a e3 0c 3e ab 5d 53 3e 19 45 36 3e
       0.11753095 0.13758698 0.206412 0.17799796
000230 f2 b8 33 3e 11 d1 0e 3e c1 27 8a 3e 08 dd 2d 3e
       0.1755102 0.1394694 0.26983455 0.16978848
000240 a8 99 c9 3d ae 5d 08 3e d3 84 36 3e 40 33 0a 3e
       0.09843761 0.13316986 0.17824106 0.13496113
000250 54 13 3b 3e 9f 58 45 3e d0 68 27 3e 0a 89 8a 3e
       0.18269092 0.19272088 0.16348577 0.27057678
000260 a9 4b 5b 3e b0 06 32 3e 1c 96 4b 3e 16 3b 81 3e
       0.21415581 0.17385364 0.19881481 0.25240391
000270 b9 6d 19 3e 7a 6e 59 3e 2a 77 1f 3e e2 6c 54 3e
       0.14983262 0.2123355 0.15572801 0.2074466
000280 87 64 ff 3d 39 66 cd 3d b9 73 3d 3e 53 e7 41 3e
       0.12470346 0.10029263 0.18501176 0.189359
000290 39 1d 31 3e 9a fb 37 3e da 77 b8 3d 53 fa 85 3e
       0.17296304 0.17967072 0.09007235 0.26167545
0002a0 d1 23 23 3e 81 ad 59 3e cd 6b 37 3e d5 65 52 3e
       0.15931632 0.21257593 0.17912216 0.20546658
0002b0 f1 4c f0 3d 63 6a 23 3e ef 46 f7 3d a2 8c 26 3e
       0.117334254 0.15958552 0.120740764 0.16264585
0002c0 4b 09 34 3e fa 06 97 3e 99 af 1d 3e f5 91 e8 3d
       0.1758167 0.2949751 0.15399016 0.11355964
0002d0 75 07 1b 3e 5e 5c 57 3e fc 03 51 3e b6 32 50 3e
       0.15139563 0.21031329 0.20411676 0.20331845
0002e0 45 b3 95 3e db 21 37 3e 0e 48 4f 3e a2 1e 59 3e
       0.29238334 0.17884009 0.2024233 0.21203092
0002f0 fc 28 17 3e e4 4d 29 3e f6 93 52 3e 4f 5c a7 3e
       0.14761728 0.16533619 0.20564255 0.32687613
000300 0f ce 82 3e c7 98 84 3e 80 74 04 3e d7 43 81 3e
       0.25547835 0.2589781 0.12935066 0.2524707
000310 94 3c d4 3d 72 ba 8b 3e aa 30 97 3e 20 a3 f9 3d
       0.10363117 0.27290684 0.29529315 0.12189317

running_var f4 [200]
000000 f1 2f fa 3d 87 e4 81 3d f6 78 b2 3d b1 5c 25 3d
       0.12216175 0.06342416 0.08714478 0.0403716
000010 a7 3f 84 3d 78 65 62 3d ce 08 b2 3d 04 cd 86 3d
       0.06457453 0.05527255 0.086930856 0.065820724
000020 56 33 1d 3e 37 57 bc 3d 80 4f a3 3d e4 e4 75 3d
       0.15351614 0.091963224 0.07974148 0.06003274
000030 ca 17 72 3d 8c d0 a8 3d bc cc 30 3d eb 72 45 3d
       0.05910472 0.08242902 0.043164 0.048205297
000040 fa 07 21 3d ee 9b d5 3d 29 a4 98 3d fa e7 da 3d
       0.039314248 0.10430132 0.07453186 0.10688777
000050 9d 65 2f 3d 2e cd ab 3d c6 9c 53 3d 27 eb a7 3d
       0.042821515 0.08388744 0.051663183 0.081991486
000060 63 16 96 3d 29 16 37 3d 69 7f df 3d b3 60 d5 3d
       0.07328489 0.044698868 0.109129734 0.104188345
000070 56 1d 4e 3d af 90 94 3d 76 4d d1 3d b4 d5 04 3e
       0.050320946 0.07254159 0.102198526 0.12972146
000080 7d fc 58 3d f5 96 9c 3d 38 b6 ef 3d ce 6f 69 3d
       0.052975167 0.0764598 0.11704677 0.05699139
000090 4d cb c3 3d 73 6e 92 3d 98 b8 57 3d 66 96 8a 3d
       0.09560261 0.07149973 0.052666277 0.067669675
0000a0 20 b7 ad 3d 38 9f b4 3d 38 8d 51 3d 93 99 5c 3d
       0.08482194 0.08819431 0.051160067 0.053857397
0000b0 6f 3f d6 3d 98 0b d0 3d 97 68 9e 3d 8e 37 9c 3d
       0.10461318 0.10158461 0.07734793 0.07627784
0000c0 36 59 72 3d 82 b8 78 3d 14 3c 54 3d 93 6c 8e 3d
       0.05916711 0.060722835 0.051815107 0.06954303
0000d0 9d 02 99 3d 02 10 82 3d 1a d6 aa 3d e8 40 9b 3d
       0.074712016 0.063507095 0.08341618 0.07580739
0000e0 aa 2d c5 3d 12 e5 4e 3d e7 56 5c 3d c9 76 66 3d
       0.0962785 0.050511427 0.053793814 0.056265626
0000f0 43 c0 b2 3d 21 72 63 3d bf 7f 6e 3d 3f 02 c0 3d
       0.08728077 0.055528764 0.058227297 0.093754284
000100 74 4c 66 3d 9b 54 66 3d b7 09 45 3d a8 af fd 3d
       0.056225255 0.05623303 0.048104968 0.123870194
000110 47 23 a3 3c 74 e7 d5 3d b4 db b0 3d fd d8 92 3d
       0.019914282 0.10444537 0.08635655 0.071702935
000120 c7 94 87 3d ca 17 9b 3d 88 f4 80 3d 7e 48 c6 3d
       0.06620174 0.07572897 0.06296641 0.096817955
000130 35 79 6c 3d 53 14 09 3d cc 68 5e 3d 08 69 c6 3d
       0.05773278 0.03346665 0.05429916 0.09688002
000140 89 a0 36 3d 7d aa 8a 3d b9 fd a6 3d 27 f3 b6 3d
       0.044586692 0.06770799 0.081538625 0.089330964
000150 ca 7a a0 3d 2a c8 8e 3d 54 80 a3 3d 3c f7 a8 3d
       0.0783592 0.06971772 0.07983461 0.08250281
000160 8e 17 49 3d 9a 4f ae 3d 6b 7b bf 3d 80 7f e1 3d
       0.04909473 0.085112765 0.09349712 0.11010647
000170 41 46 6e 3d ff 40 c2 3d f0 12 0d 3d 4b a0 81 3d
       0.058172468 0.09485053 0.03444189 0.063294016
000180 14 f1 82 3d 02 1e de 3d e3 56 ad 3d df 6f c0 3d
       0.06393638 0.10845567 0.08463838 0.09396338
000190 a3 73 a0 3d 30 df 66 3d a6 b8 9f 3d 91 53 31 3d
       0.07834556 0.056365192 0.07798891 0.043292586
0001a0 17 a2 f9 3d 33 10 b5 3d 0e 12 05 3d 32 ce 80 3d
       0.12189119 0.088409804 0.03248792 0.06289329
0001b0 e4 97 5c 3d c1 4a 78 3d 20 30 be 3d 99 6d 3d 3d
       0.05385579 0.060618166 0.09286523 0.0462471
0001c0 12 07 8c 3d ef 2e 8c 3c 88 52 aa 3d 30 ca a2 3d
       0.06837286 0.017112223 0.08316523 0.079487205
0001d0 ba 8c 13 3d 75 9d 10 3d 26 76 77 3d b2 5b 9c 3d
       0.03602288 0.035306413 0.06041541 0.07634677
0001e0 a0 87 29 3d dc e3 6c 3d b7 42 93 3d 66 5c 29 3d
       0.041389108 0.05783449 0.07190459 0.041347884
0001f0 2f b6 70 3d 38 c1 95 3d 0c b7 c2 3d 00 44 da 3d
       0.058767494 0.07312244 0.0950757 0.10657501
000200 54 2d 11 3e c8 0c 3e 3d 59 36 e1 3d d8 d8 a2 3d
       0.14177448 0.046398908 0.10996694 0.07951516
000210 78 8a 1c 3d 87 ca 57 3d 1c 50 95 3d 5d f6 2f 3d
       0.03821799 0.05268338 0.0729067 0.04295956
000220 56 b9 70 3d 3a db 6c 3d a5 9b 4d 3d 90 ff c7 3d
       0.0587705 0.05782626 0.050197262 0.097655416
000230 86 93 92 3d 26 4c 71 3d 4c 2a 03 3e 7f 7a b3 3d
       0.07157044 0.05891051 0.12809104 0.08763599
000240 a2 f6 0d 3d ff 10 ad 3d 85 80 e7 3d 7b 73 85 3d
       0.034659036 0.084505074 0.1130381 0.06516167
000250 52 f6 a0 3d 94 f2 49 3d eb e8 82 3d 92 00 69 3d
       0.07859482 0.049303606 0.06392082 0.05688531
000260 36 ac 08 3e bb 59 c8 3d b8 3b f4 3d 0e f4 99 3d
       0.13346943 0.0978274 0.11925453 0.07517253
000270 de 76 1b 3d fc cb e7 3d 24 a7 9d 3d 85 0a 86 3d
       0.037955157 0.11318204 0.07697895 0.06544975
000280 e5 6c 61 3d 98 79 1b 3d 44 77 e9 3d 04 1d fa 3d
       0.05503549 0.037957758 0.11399701 0.122125655
000290 3a 76 69 3d f9 4f 61 3d e6 7f 42 3d 9f 34 b4 3d
       0.056997515 0.05500791 0.047485255 0.08799099
0002a0 24 72 dd 3d 2d 31 c2 3d cc d0 af 3d c9 d4 b1 3d
       0.10812786 0.09482036 0.08584747 0.08683164
0002b0 b6 74 98 3d 99 b0 7a 3d 84 dc 6f 3d b2 c5 f5 3d
       0.07444136 0.061203573 0.05855991 0.12000598
0002c0 24 d5 80 3d b2 a4 e0 3d b0 63 a8 3d 70 4d 81 3d
       0.06290653 0.10968913 0.08222139 0.06313598
0002d0 4c 81 bf 3d ba fa 63 3d ec 79 92 3d ad d3 86 3d
       0.09350833 0.055659033 0.07152161 0.06583343
0002e0 8e 2f 01 3e 22 f5 97 3d fc 78 d2 3d ce 11 b7 3d
       0.12615797 0.07419802 0.10276982 0.08938943
0002f0 08 8c a2 3d a1 18 8e 3d 33 fd c2 3d ca 14 02 3e
       0.07936865 0.06938291 0.0952095 0.12703243
000300 c5 dc a6 3d fe 99 8e 3d ae 90 59 3d 04 3e c5 3d
       0.08147577 0.069629654 0.053116493 0.09630969
000310 f6 b2 46 3d 47 7d e8 3d 4b 26 b8 3d 02 d5 75 3d
       0.048510514 0.1135202 0.08991679 0.060017593

weight f4 [100, 200]
000000 7f 6e b2 3c 61 06 5a 3d cb a8 29 3b e1 c1 11 3c
       0.021781204 0.05322874 0.0025887962 0.008896322
000010 6f 43 60 bd ca 84 33 3d 03 3a 82 bd 84 04 35 3c
       -0.05475181 0.04382781 -0.06358721 0.01104844
000020 80 9f 1e bd 08 87 dc 3b d8 0c 9e bc 84 6e a3 bd
       -0.03872633 0.006729964 -0.019293234 -0.079800636
000030 1c 5b a3 3b a1 2a 6d 3d 93 72 67 3d 5b 4e a1 bd
       0.0049852263 0.057901982 0.05650575 -0.07876273
000040 cd 71 fc bc b0 ed 23 bc 27 f5 e7 bb 53 52 70 bd
       -0.030815983 -0.0100054 -0.007078785 -0.05867226
000050 fd 1e 69 bd 80 96 a0 bd 2f 94 18 bd a2 bc 1e bd
       -0.05691432 -0.078412056 -0.037250694 -0.038754113
000060 13 df cf bc 7f 02 9b bd af cb 14 3d 13 75 cc bd
       -0.025374925 -0.075688355 0.03632706 -0.09983268
000070 f6 a7 31 3d f7 fd 9f bb d3 cb aa bc 62 6f 24 bd
       0.04337307 -0.00488257 -0.020849144 -0.040145285
000080 bf ed 76 bc 51 46 ab 3c a1 b2 80 bc df 47 c6 bc
       -0.0150713315 0.020907553 -0.015710177 -0.024204193
000090 48 0b 68 3d 61 39 5e 3d bb 5e bb bc c2 31 cb bb
       0.056651384 0.05425394 -0.02287232 -0.006201
0000a0 1f 55 4f bd 40 48 44 bd c7 af 0c 3d 5d ea 33 3d
       -0.050618287 -0.047920465 0.03434732 0.043924678
0000b0 f4 09 a8 3d dd 63 81 3c 83 14 fd bc 3e b4 27 3b
       0.082050234 0.015794689 -0.03089357 0.002558961
0000c0 be 85 a7 bc 97 86 83 bd bd b5 e4 ba 00 7e 57 3d
       -0.020449515 -0.06422155 -0.0017449182 0.052610397
0000d0 a9 0a 4b 3d 27 de 22 3d 77 5f ac bc 9e f4 81 3c
       0.049570713 0.039762642 -0.021041615 0.015863713
0000e0 3d d6 17 bd 14 51 b1 3d 59 f2 61 3b 4e cc 00 3d
       -0.037069548 0.086580426 0.0034476726 0.03144484
0000f0 61 cf ae bd 11 fb 64 3d 8a c3 ec 3c 74 2e 7d bc
       -0.08535648 0.055903498 0.028901834 -0.01545297
000100 b1 c6 2f 3c 68 2b 46 3d e3 be 44 bd ef af 87 bb
       0.010728524 0.04838124 -0.048033606 -0.004140846
000110 74 e0 2f 3d 78 fa 11 3d 8d 7d c6 bd 96 0b 47 bd
       0.042938665 0.035639256 -0.09691916 -0.048595034
000120 db 0a 11 bd 5f a7 a6 3c 02 73 88 3c 1c 04 f3 3c
       -0.035410743 0.02034348 0.016656402 0.029665045
000130 79 12 3d 3a 59 5b d5 bc 19 39 c4 b9 44 84 2f bc
       0.00072125305 -0.026044535 -0.00037426574 -0.010712687
000140 d6 87 e2 bc 88 69 08 bd 9e ba 9a bc 40 92 81 bc
       -0.027652662 -0.033303767 -0.018887814 -0.015816808
000150 31 e4 22 bd bb 12 92 bc 8f 0d 29 bd 2f 26 28 3d
       -0.0397684 -0.017831197 -0.041272696 0.04105204
000160 7c 46 65 bd 39 64 84 bd e6 50 51 3d 52 fa 36 bd
       -0.055975422 -0.064644285 0.05110254 -0.044672318
000170 fa fa 8d ba 1d ac 39 bd 7a 24 f5 bc c3 f6 ea 3c
       -0.0010832243 -0.045330156 -0.02992462 0.028682118
000180 29 92 c7 bc 74 cb 18 bd f9 e1 11 3d 7b 90 84 3b
       -0.024361687 -0.037303403 0.035615895 0.0040455437
000190 42 4c 7e bd f0 9b 54 bc 8d 67 ae 3d 76 c7 4f bd
       -0.062084444 -0.0129766315 0.085158445 -0.05072733
0001a0 13 06 18 bd 9f 7b 51 bd c6 f5 52 bc fe 4f 1c bd
       -0.037115168 -0.051143285 -0.01287598 -0.038162224
0001b0 62 24 0c 3d bb 7c 30 3d 16 d5 29 bd d6 f3 af bb
       0.034214385 0.043087702 -0.04146298 -0.0053696437
0001c0 49 d0 b2 bb 6c fd a3 bd 44 a7 3a 3d c4 99 0e 3d
       -0.0054569584 -0.08007321 0.045569673 0.03481461
0001d0 d4 eb 42 3d ff 97 2e bd 0a 66 d1 3c 89 25 00 3d
       0.047588184 -0.042625424 0.025561351 0.031285796
0001e0 1a c1 7b 3d 70 79 cc 3b 38 ca 37 bd d9 ae 99 3c
       0.061463453 0.0062400624 -0.044870585 0.018760132
0001f0 e4 cf 2e 3c 12 00 16 bd 6d a0 74 3b d2 83 d7 3c
       0.010669682 -0.03662116 0.0037327067 0.026307974
000200 67 41 c4 3c 4c fb 75 3d a0 45 2a bc 31 ef 0f bd
       0.023956968 0.06005411 -0.010392576 -0.03514022
000210 9b 2d 66 ba d5 97 5b bd c1 00 41 3d 4e 3f 59 bd
       -0.00087805995 -0.053611595 0.04711986 -0.053038888
000220 5a 42 26 3d 13 52 45 3d 46 2d 4f bd 02 e5 79 3d
       0.04059062 0.048173975 -0.050580285 0.061009414
000230 e0 39 8e bc 93 22 1c 3d f8 77 2c bd 6f 1e f1 3c
       -0.017361581 0.03811891 -0.0421066 0.029433457
000240 6f 8a 9a 3d 5d 0a ab bd 3c 77 08 bb c2 05 27 3d
       0.07545935 -0.08351586 -0.0020823022 0.040776975
000250 15 18 83 3c df c9 da 3c 3a de 1d 3d 9b 4e 2c 3c
       0.016002694 0.026707588 0.03854201 0.010516788
000260 75 89 43 3c 90 d6 8c 3d 95 c0 3a 3c b2 64 27 3d
       0.011934628 0.06876862 0.011398454 0.040867515
000270 6b 1d e2 bc 12 8d 87 bd 42 02 c1 bb 59 44 16 bd
       -0.027601918 -0.06618704 -0.0058901617 -0.036686275
000280 a4 e9 5d 3c e0 1c 44 bd b0 c5 46 bd 3e 80 08 bd
       0.013544474 -0.0478791 -0.048528373 -0.033325426
000290 b6 a5 4d bd 0e 82 56 3d ad 02 3b bd d7 28 7a 3d
       -0.050206862 0.052370124 -0.04565685 0.061074104
0002a0 fd 41 59 bd a4 c1 fd bc 60 f4 4c 3d bc bd 5a bd
       -0.053041447 -0.030976124 0.05003774 -0.0534036
0002b0 6a 9f 4f bd d7 28 a7 bc 8a 96 39 bc 7e 58 c3 3c
       -0.05068914 -0.020405216 -0.011327395 0.023845907
0002c0 b6 a1 f2 bb 0b 10 c3 bc 42 93 12 bd e4 77 9f bc
       -0.0074045314 -0.02381136 -0.035784967 -0.019466348
0002d0 2f 29 e4 3c fe 04 a9 bd 9d 45 a8 bc d5 52 c1 bd
       0.02785167 -0.08252905 -0.020541007 -0.09439627
0002e0 a0 6b dd ba d4 f7 72 3b b9 fd 5a bc 87 90 0b bd
       -0.0016893037 0.0037073987 -0.013366156 -0.03407338
0002f0 5b e7 2f 3d d6 0f 99 3d f5 e3 5e bc 7e f9 b7 3d
       0.042945247 0.074737236 -0.013604154 0.08983134
000300 82 89 07 bb 2e 6a 77 bd 88 4c 43 3d 16 d4 bc bc
       -0.0020681326 -0.060403995 0.047680408 -0.02305035
000310 1f 02 d7 bc 4d 57 b3 bc 63 bd 2b bd 26 33 7d 3d
       -0.026246129 -0.021892214 -0.04192866 0.061816357
000320 f5 43 ea 3c 14 34 c0 3c e4 48 8f bc cd c9 85 3c
       0.028596858 0.023462333 -0.017490812 0.016331578
000330 25 a9 3a bb 1f 9a 7c 3b d1 e8 0c 3d 0d 19 6c 3b
       -0.0028482166 0.0038544012 0.03440172 0.0036025674
000340 84 07 b1 3c 11 8e e7 bc e4 8a cb 3d ec e0 e6 3c
       0.021610029 -0.028265985 0.09938601 0.028183423
000350 0c 29 62 bd 7c 2c 9f 3c b2 f1 c7 bb 10 d4 35 3b
       -0.055214927 0.019430391 -0.0061018104 0.0027744807
000360 de a5 3e 3d 77 aa 20 3b 03 1c 93 bc 0f 22 bc 3d
       0.046544902 0.0024515667 -0.017957693 0.09186184
000370 f6 64 c9 bc 2b 4b 06 3d 79 44 8f 3c f2 79 b7 3d
       -0.024584275 0.03278653 0.017488705 0.08958806
000380 ce c7 db bd 40 e3 03 bd 25 ad e0 3b 9d 76 16 bd
       -0.10731469 -0.032199144 0.006856578 -0.036734212
000390 9e 01 92 bd c4 89 3d 3d 5c 9d f0 bc 8d 8c 9a 3c
       -0.07129215 0.04627396 -0.02937191 0.018865848
0003a0 76 50 82 bc e5 84 04 bc 31 27 48 3c b7 af 15 bd
       -0.015907507 -0.008088325 0.012216375 -0.036544528
0003b0 1e a6 12 bc 96 be d8 3c 21 f0 25 bd 4c 51 81 bd
       -0.008950738 0.026458066 -0.040512208 -0.06314334
0003c0 b3 a4 46 3d 61 61 ed 3c 0a b0 77 bd 8f ed 05 bc
       0.048496913 0.028977098 -0.06047062 -0.008174314
0003d0 86 3e 0f bc ad b1 7d bb 55 36 0c 3d ef 6d b5 bc
       -0.008742934 -0.003871064 0.034231503 -0.022147147
0003e0 30 79 eb bc de b6 0b bb 7e 1b 13 bd 92 fa 96 bd
       -0.02874431 -0.0021318714 -0.03591489 -0.07372011
0003f0 77 b7 e8 bd b8 7f 9f bd 69 fe 33 3d 60 ad 2a 3d
       -0.11363118 -0.07788032 0.043943796 0.04166925

weight f4 [100]
000000 d9 b7 83 3f 2a 1a 85 3f f3 25 88 3f f5 18 84 3f
       1.0290481 1.039861 1.0636581 1.0320116
000010 24 91 86 3f 47 92 86 3f a4 8c 86 3f 01 67 86 3f
       1.0513043 1.051339 1.051167 1.0500184
000020 f4 1d 87 3f 84 4e 87 3f db 8b 85 3f 44 f1 86 3f
       1.0556016 1.0570836 1.0433306 1.0542378
000030 58 36 80 3f 36 25 83 3f d5 06 86 3f 63 d3 86 3f
       1.0016584 1.0245731 1.0470835 1.053326
000040 37 a1 86 3f 0a 7f 86 3f 41 a1 87 3f b1 61 84 3f
       1.0517949 1.0507519 1.0596086 1.0342313
000050 4b 58 86 3f d8 3c 86 3f c0 9d 83 3f 92 45 84 3f
       1.0495695 1.0487318 1.0282516 1.0333731
000060 03 e5 82 3f 88 cb 85 3f a3 57 84 3f 89 3a 87 3f
       1.0226139 1.0452738 1.0339245 1.0564739
000070 40 e1 84 3f 9c b0 86 3f f6 15 85 3f 77 b4 82 3f
       1.0381241 1.0522647 1.0397327 1.0211323
000080 0f b7 88 3f 94 f4 84 3f 3f fa 85 3f 84 e0 84 3f
       1.0680865 1.0387139 1.0466994 1.0381017
000090 90 73 83 3f a7 27 86 3f a5 8b 85 3f f4 d6 85 3f
       1.0269642 1.0480851 1.0433241 1.0456223
0000a0 f3 08 86 3f 33 d7 82 3f 68 0b 82 3f 5a 02 84 3f
       1.0471481 1.0221924 1.0159731 1.0313218
0000b0 a9 9b 85 3f 3f 90 85 3f 1c 33 86 3f 2f 56 86 3f
       1.0438129 1.0434645 1.0484347 1.0495051
0000c0 d6 e1 85 3f d3 05 86 3f 48 1b 86 3f 4b 57 89 3f
       1.0459545 1.0470527 1.0477076 1.0729765
0000d0 66 76 86 3f d8 ea 85 3f 35 69 85 3f 09 08 86 3f
       1.0504882 1.0462294 1.0422732 1.0471202
0000e0 33 58 86 3f bf 08 86 3f dc 2f 86 3f 56 dc 85 3f
       1.0495666 1.0471419 1.0483356 1.0457866
0000f0 84 36 82 3f 50 38 86 3f 10 8f 83 3f 22 c9 86 3f
       1.0172887 1.0485935 1.0278034 1.0530131
000100 af 55 86 3f ca bc 83 3f ed 91 82 3f 82 61 86 3f
       1.0494899 1.0291989 1.0200783 1.0498507
000110 f7 49 86 3f e0 de 85 3f f7 60 86 3f 42 c1 85 3f
       1.0491322 1.0458641 1.0498341 1.0449603
000120 c5 4b 86 3f 68 09 86 3f 06 d7 86 3f 35 18 86 3f
       1.0491873 1.047162 1.053437 1.0476137
000130 e5 04 86 3f 9a 0b 83 3f 46 35 86 3f 99 cd 84 3f
       1.0470244 1.0237916 1.0485008 1.0375243
000140 8a cf 86 3f 77 e2 87 3f 95 12 84 3f e5 cc 86 3f
       1.0532086 1.0615987 1.0318171 1.0531279
000150 f2 9f 85 3f 17 d9 86 3f 71 2d 87 3f 62 95 85 3f
       1.0439436 1.0535 1.0560743 1.0436213
000160 17 51 85 3f ba 3c 86 3f b8 fe 85 3f 32 06 85 3f
       1.0415372 1.0487282 1.0468359 1.0392516
000170 26 42 86 3f af 41 86 3f a7 78 85 3f 36 14 86 3f
       1.0488937 1.0488795 1.0427445 1.0474918
000180 b6 03 81 3f fa 87 85 3f 79 dd 89 3f d7 eb 86 3f
       1.0079257 1.0432122 1.0770713 1.0540723

bias f4 [100]
000000 ad a9 82 3e e0 a8 8b be 4c 0a 92 3e 2f 2f 6c 3e
       0.25520077 -0.2727728 0.2852348 0.23064874
000010 85 65 8e 3e 4a ee 71 3e 23 9f 80 be 3f ce 6d 3e
       0.27811828 0.23626056 -0.25121412 0.23223208
000020 8e 90 6e be 0f f8 73 be 8f f6 6c 3e 24 52 7a be
       -0.2329733 -0.23825096 0.2314093 -0.24445397
000030 3e 21 68 be e3 c1 93 3e c5 92 69 3e 36 22 76 3e
       -0.22668931 0.2885886 0.22809894 0.24036488
000040 9e bc 7c be b6 c1 74 3e 48 cc 8c 3e 41 0a 88 3e
       -0.24681327 0.2390202 0.27499604 0.26570323
000050 70 f4 6f be 49 88 6d be 42 e0 75 be 51 87 6f be
       -0.2343309 -0.2319652 -0.24011329 -0.23391463
000060 76 52 90 3e a9 45 7c be fc 19 74 be 15 11 8a 3e
       0.28187913 -0.24635948 -0.23838037 0.26966158
000070 61 27 93 be d0 51 86 3e 57 17 6f be 32 ad 8b 3e
       -0.2874098 0.26234293 -0.23348747 0.27280575
000080 fa 9c 87 be 99 ce 8a 3e 23 41 68 be 2b 99 75 3e
       -0.2648695 0.27110747 -0.22681098 0.2398421
000090 ad 95 85 3e fb c4 7c be 6e bf 6d 3e b2 48 6a 3e
       0.26090756 -0.24684517 0.23217556 0.22879294
0000a0 3e a8 78 3e 20 ed 76 be 4d a3 7f be b7 a9 67 be
       0.2428293 -0.24113894 -0.24964638 -0.22623335
0000b0 cc da 81 3e 2f 18 76 3e e6 88 8d be db f0 70 be
       0.2536224 0.24032663 -0.27643508 -0.23529379
0000c0 b7 e2 7c 3e 72 76 71 3e 72 a2 7d 3e 6b ec 89 be
       0.2469586 0.2358034 0.24768999 -0.26938185
0000d0 6f e9 78 be c3 12 75 3e 26 e9 6b be 04 c2 6d 3e
       -0.24307798 0.23932938 -0.23038158 0.23218542
0000e0 a0 f9 74 be 02 a7 7c 3e 4a 06 76 3e e4 3d 74 be
       -0.2392335 0.24673083 0.24025837 -0.23851734
0000f0 18 41 89 be df 74 6d be a8 71 71 be e2 3a 7c be
       -0.26807475 -0.23189114 -0.23578513 -0.24631837
000100 93 b2 6d be fb ea 77 be 8c 38 81 be 9a ae 6d be
       -0.23212652 -0.24210732 -0.25238454 -0.23211136
000110 8b 9c 6d 3e 4e 2a 83 3e f3 96 86 be 1f b0 75 be
       0.23204248 0.25618213 -0.2628704 -0.23992966
000120 16 05 89 3e 24 d9 6a be 03 ba 78 be e0 14 68 be
       0.26761693 -0.22934395 -0.24289708 -0.22664213
000130 9e da 6e be 3c 0a 6c be 9b c8 67 3e 54 55 87 be
       -0.23325583 -0.23050779 0.22635119 -0.26432288
000140 7e 23 7e 3e a5 d1 89 be 43 8b 88 be b1 91 82 3e
       0.24818227 -0.2691776 -0.26668748 0.2550178
000150 3d 02 6b 3e 0e c5 84 3e d0 79 90 be 7a 4d 8b 3e
       0.22950073 0.2593159 -0.28217936 0.27207547
000160 b1 94 83 be 8c b1 7f 3e dc 31 64 be 28 4e 6e 3e
       -0.2569938 0.24970073 -0.22284645 0.23272002
000170 20 5b 6b 3e f2 a4 7e be 7a 16 79 3e 69 de 74 3e
       0.2298398 -0.24867609 0.2432498 0.23912968
000180 7b 48 68 be 85 3f 69 be 4b 76 8b 3e 4f a3 85 be
       -0.22683899 -0.22778137 0.27238688 -0.26101157

running_mean f4 [100]
000000 d7 67 bd 3e 37 35 25 3f d2 22 d3 3e 7f 43 bb 3e
       0.36993286 0.64534324 0.41237503 0.36574933
000010 00 27 09 3f e5 70 bf 3e ba cb 17 3f df b0 f3 3e
       0.53575134 0.3739082 0.5929524 0.4759588
000020 6b 96 cd 3e 1f 0c f3 3e b7 8d eb 3e fc 97 07 3f
       0.40153822 0.47470185 0.46006557 0.52966285
000030 c2 c3 cd 3e 66 c4 d0 3e ac 9e a2 3e e6 e4 bf 3e
       0.40188414 0.4077484 0.31761682 0.37479323
000040 f5 a0 09 3f d3 0e c9 3e ef 12 d5 3e d1 fe c0 3e
       0.53761226 0.39269122 0.41616008 0.3769441
000050 4d 24 d6 3e a2 e9 e0 3e 3e 58 0c 3f 39 97 d0 3e
       0.4182457 0.43928248 0.54822147 0.40740374
000060 16 37 3b 3f 34 a6 d8 3e 56 cb f5 3e 95 26 09 3f
       0.7313093 0.42314303 0.48006696 0.53574497
000070 a3 de 05 3f ba 50 1a 3f 8a 6a 01 3f 0b f5 ee 3e
       0.5229284 0.6027943 0.5055319 0.46671328
000080 07 43 09 3f 1e 59 00 3f 0f 73 da 3e 5f be b9 3e
       0.536179 0.5013598 0.42665908 0.36278054
000090 40 6a c5 3e ed 14 ee 3e f1 6e ba 3e 5c b8 c0 3e
       0.38557625 0.4650034 0.36412767 0.37640655
0000a0 14 45 ef 3e c2 5a d4 3e c3 ff 0f 3f c2 a0 e4 3e
       0.4673239 0.41475493 0.56249636 0.44653898
0000b0 b2 3d cb 3e af 14 cc 3e 7a 06 0e 3f 08 f3 f2 3e
       0.39695507 0.3985953 0.5547863 0.47451043
0000c0 6a d3 9a 3e 6b 83 bc 3e c8 1e b3 3e 6b 4b 0c 3f
       0.3023942 0.36819014 0.34984422 0.5480258
0000d0 de 42 1e 3f 37 56 c0 3e c7 26 0b 3f a6 09 a7 3e
       0.6182078 0.37565777 0.54356045 0.3262455
0000e0 23 ac 08 3f 5c a3 fb 3e 01 31 cf 3e b0 bb ca 3e
       0.5338766 0.4914807 0.40467075 0.3959632
0000f0 d4 d2 e2 3e df 3b af 3e e5 b7 00 3f e3 bc 04 3f
       0.44301474 0.34225366 0.502806 0.5185072
000100 58 ec dc 3e 8d 3a c9 3e 45 ef 0a 3f 55 51 f3 3e
       0.43149066 0.39302483 0.54271346 0.4752299
000110 d4 82 98 3e 39 bd d6 3e c7 35 d4 3e d0 6f fe 3e
       0.29787314 0.4194124 0.4144728 0.4969468
000120 98 eb dc 3e c7 6c df 3e 18 27 d9 3e 56 34 04 3f
       0.43148494 0.43637678 0.4241264 0.5164236
000130 e9 52 01 3f 1a 48 d4 3e c3 c4 c7 3e 59 fb ef 3e
       0.50517136 0.4146126 0.39017305 0.4687145
000140 33 96 aa 3e de 9f 13 3f 0c 1b 11 3f a6 bd c4 3e
       0.33317718 0.5766581 0.56681895 0.3842594
000150 40 3e ad 3e 62 36 06 3f e6 f1 1b 3f 89 54 e6 3e
       0.33836555 0.5242673 0.6091598 0.4498637
000160 5c e5 e6 3e f1 3c d3 3e 56 80 bf 3e 8d c6 99 3e
       0.45096862 0.41257432 0.374026 0.30034295
000170 22 11 c3 3e d1 a5 e9 3e ed cc d5 3e 46 1e be 3e
       0.3809901 0.4563432 0.41757908 0.37132472
000180 ed 37 e2 3e 65 73 f2 3e d3 de c5 3e 66 cb da 3e
       0.44183293 0.47353664 0.38646564 0.42733306

running_var f4 [100]
000000 0d de c2 3e 7a 5c 19 3f f9 c4 00 3f 9e 18 ba 3e
       0.38060036 0.59906733 0.50300556 0.36346906
000010 d6 f0 92 3f db 66 f5 3e 09 6a ff 3e a7 1b 25 3f
       1.1479747 0.47930035 0.49885586 0.6449532
000020 84 7f 0f 3f bc 07 dd 3e 62 ca 41 3f 10 9a 04 3f
       0.5605395 0.43169963 0.75699437 0.5179758
000030 10 b5 7b 3e 72 01 02 3f dd e9 a2 3e 67 89 e6 3e
       0.24580789 0.50783455 0.3181905 0.45026705
000040 91 de dd 3e 6e 04 e9 3e ff c5 1e 3f c4 38 05 3f
       0.43333867 0.45511192 0.6202087 0.5203974
000050 b6 c3 ae 3e 3b dd a4 3e 6e ff ab 3e d0 5b 3e 3e
       0.3413369 0.32200035 0.33593315 0.18589711
000060 2f b8 da 3f 03 00 dd 3e 3a c4 9d 3e a2 b1 53 3f
       1.7087458 0.4316407 0.3081377 0.8269292
000070 de e8 27 3f 22 b1 8e 3f 1f ac a7 3e 3c cd 29 3f
       0.655897 1.1147807 0.32748505 0.6632879
000080 40 f6 70 3f be 1f a8 3e db a5 b5 3e a3 7e dd 3e
       0.9412575 0.32836717 0.354781 0.4326068
000090 11 fd 97 3e 4a 61 8b 3e e8 be c6 3e 1f 44 e0 3e
       0.29685262 0.27222663 0.38817525 0.43801972
0000a0 cb df 22 3f 96 97 a3 3e d8 40 c4 3e f9 b7 7b 3e
       0.6362273 0.31951588 0.38330722 0.24581899
0000b0 87 36 03 3f e8 c7 c1 3e df 13 bc 3e 80 f4 a3 3e
       0.5125508 0.3784783 0.3673391 0.32022476
0000c0 b8 e2 b8 3e 24 92 3f 3f cb 03 c0 3e 5a fe 7a 3f
       0.36110473 0.7483237 0.37502894 0.9804436
0000d0 9b ff dd 3e ac 7d f8 3e ae 26 a7 3e 46 a0 a0 3e
       0.43359074 0.4853338 0.32646698 0.3137228
0000e0 4c 0b f6 3e b5 11 2f 3f 1a 2b 01 3f 3d 63 3d 3e
       0.48055494 0.68386394 0.5045639 0.18494888
0000f0 ee aa 0c 3f 53 cf db 3e c2 23 a9 3e 71 68 51 3f
       0.5494832 0.42931613 0.33035094 0.8179999
000100 2d 1c c3 3e 60 e6 d9 3e fc 87 b5 3e 76 90 34 3f
       0.38107434 0.42558575 0.3545531 0.7053293
000110 3f 84 8e 3e 90 6e c8 3e 06 55 3d 3f c8 42 83 3e
       0.2783527 0.39146852 0.7395786 0.25636888
000120 d7 ed 0d 3f c4 fd 9a 3e d9 8e f9 3e eb 0a d2 3e
       0.5544104 0.30271733 0.48741797 0.41023955
000130 43 0b 38 3f 66 3e a6 3e 09 52 fa 3e 06 d8 01 3f
       0.71892184 0.3246948 0.48890713 0.5072025
000140 70 f8 c1 3e 42 4b 16 3f 9e f5 20 3f e4 28 00 3f
       0.37884855 0.58708584 0.6287478 0.50062394
000150 d8 f1 cc 3e a3 c8 50 3f 3c 73 6d 3f 2e c6 14 3f
       0.40028262 0.8155615 0.9275396 0.581149
000160 63 21 8d 3e 4c cd f8 3e dd d3 b9 3e 4b df 99 3e
       0.27564535 0.4859413 0.3629445 0.30053172
000170 52 ad f4 3e 9c ad 7d 3e 0b 68 2b 3f 22 e9 d7 3e
       0.47788483 0.24773258 0.6695563 0.42170054
000180 0d bc b9 3e 03 8a 8d 3e 84 b2 8e 3f d7 18 0d 3f
       0.36276284 0.27644357 1.1148229 0.5511603
