female_model_traits.pkl (torch, 163139 bytes, 16 tensors)

weight f4 [13]
000000 c3 d7 4a 3f 09 67 49 3f 8a 02 4b 3f 58 65 4b 3f
       0.79235476 0.78672844 0.7930075 0.79451513
000010 f3 eb 4b 3f 0f bd 48 3f 26 21 4c 3f b9 e3 49 3f
       0.79656905 0.7841348 0.7973808 0.788631
000020 46 5e 4c 3f aa 89 4b 3f 94 12 4d 3f 00 d6 4d 3f
       0.7983135 0.79506934 0.8010647 0.80404663
000030 7f 4f 4d 3f
       0.80199426

bias f4 [13]
000000 ee 1d d4 bd 79 66 84 bd d5 de e7 bd af 2a ef bd
       -0.10357271 -0.064648576 -0.11321799 -0.11678063
000010 4a 26 db bd 3f d2 fe bd a0 23 db bd ca b5 d9 bd
       -0.107006624 -0.12442445 -0.10700154 -0.10630377
000020 08 96 06 be 51 74 0f be f3 32 f2 bd 0d f4 19 be
       -0.1314317 -0.14009215 -0.11826124 -0.15034504
000030 ee ce f0 bd
       -0.11758219

running_mean f4 [13]
000000 58 f0 44 bd 28 72 11 3d a0 92 b1 bc 08 d9 16 3c
       -0.048080772 0.03550926 -0.021676362 0.009207018
000010 e0 d0 46 bb 64 78 54 bd ca 93 f2 3c 12 fd 08 bc
       -0.0030336902 -0.051872626 0.029611487 -0.008361118
000020 78 ce 71 bd 7c 8e 2b bd 88 a9 46 bc 5f 8d 04 3d
       -0.059034795 -0.04188393 -0.01212538 0.032361384
000030 e6 5b f7 bb
       -0.007548797

running_var f4 [13]
000000 7c f6 88 3f 7d bb 7c 3f 2f f6 75 3f 0d 1c 83 3f
       1.0700221 0.98723584 0.9607877 1.0242935
000010 9b bf 7e 3f da ed 6e 3f 21 65 87 3f 9b 9c 7d 3f
       0.99511117 0.9333168 1.0577737 0.99067086
000020 22 5b e4 3e 67 01 5c 3f be e0 6d 3f af df 83 3f
       0.4460078 0.8593964 0.92921054 1.0302638
000030 ab 0c 79 3f
       0.97284955

weight f4 [200, 13]
000000 cb 69 24 bd 40 9b 50 3e ba 15 9b 3d 89 c9 cc 3d
       -0.040139955 0.20371723 0.075725034 0.09999377
000010 84 42 78 be 80 31 45 3e 2b 11 f0 3d 84 5e 81 3e
       -0.24244124 0.19257164 0.117220245 0.25267422
000020 f0 2e 72 be 1f dc 68 bd 6d 00 5c 3d 1d 10 da bc
       -0.23650718 -0.05685055 0.053711344 -0.026619012
000030 e7 6d 2d bc 6c a0 6c bd b7 a6 27 bd 98 2f db 3c
       -0.010585285 -0.057770178 -0.040930476 0.026756093
000040 dc e7 65 bd ab 9c 7a 3d 35 c6 1e 3e e7 94 38 3e
       -0.05612932 0.061184566 0.15505297 0.18025552
000050 44 cc fc 3d 50 9b 1a 3e 45 4e 65 3e 77 30 9f bd
       0.12343648 0.1509831 0.22393139 -0.07772916
000060 23 7b 06 3e 06 96 72 be b2 fd 87 3e a0 b2 d5 bd
       0.1313291 -0.23690042 0.26560742 -0.10434461
000070 5a c0 43 3d b9 74 55 3e 67 7c bd 3d 8d b1 90 be
       0.047790863 0.20845307 0.092522435 -0.2826046
000080 c8 76 0b be 68 22 8d be 4b 76 5f 3e b4 43 71 be
       -0.1361953 -0.27565312 0.21822469 -0.23560983
000090 12 21 41 be 98 e9 14 be bb 1c 7f 3d fb ec 3c 3e
       -0.18860272 -0.14542234 0.06228326 0.18449776
0000a0 cc 15 8b 3e f4 ed f4 3d 11 29 b7 3d b5 4d 77 3e
       0.27165067 0.119594485 0.0894338 0.24150737
0000b0 c5 e8 b6 bd 53 c7 a8 bd 00 1f ec bc c8 71 15 be
       -0.08931116 -0.08241143 -0.028823376 -0.14594185
0000c0 ea 8d 09 3d 0a fd e8 3d e8 c0 b5 bd cf 04 37 3e
       0.033582605 0.11376388 -0.088746846 0.17872928
0000d0 35 fa 88 3d 67 03 28 be 9a 21 f5 3d 2d b9 3e 3e
       0.06688348 -0.16407548 0.119692996 0.18625326
0000e0 2a 5f 80 3e e0 fa d5 b9 3f d6 bc bd d5 2f 58 be
       0.25072604 -0.00040813442 -0.09220552 -0.21111996
0000f0 3c 09 3e bd ec 6f bb 3d 50 43 4c bd 7e 42 bd bd
       -0.046395525 0.09152207 -0.04986888 -0.09241198
000100 65 5c 25 bd 33 c0 67 bd fd d4 55 bd d9 62 97 3d
       -0.040371317 -0.05657978 -0.052205075 0.073919006
000110 50 bd 80 be ef ef 1e bb 21 14 56 be 80 f8 8e be
       -0.25144434 -0.0024251898 -0.20906116 -0.27923965
000120 df d2 df 3d fe 2d df bb 2e 32 c7 bc a2 3b 06 be
       0.10928892 -0.0068109026 -0.02431592 -0.13108686
000130 b7 82 ab 3d 17 db 3d 3e a6 d4 09 bd 17 b1 36 3e
       0.08374541 0.18540607 -0.033650063 0.17840992
000140 cf de f6 bd 3c 8d b1 3d d8 f3 1c bd 7a 3b 2f 3e
       -0.12054216 0.086695164 -0.038318485 0.17112532
000150 33 59 01 bd 75 7f 31 3e 8c 0d 18 3d 1e 85 11 3e
       -0.031579208 0.17333777 0.037122294 0.14210936
000160 a9 5e 0e 3e 97 86 d0 bd fb 47 8f 3e b0 fc 74 be
       0.13903297 -0.10181921 0.27984604 -0.23924518
000170 3d 8a d1 3d a8 bd 2c 3e 17 f6 2d be 01 4b 84 3e
       0.10231445 0.16869223 -0.16988407 0.25838473
000180 15 ab af 3d 74 45 45 bb 28 7a d6 bd ce 4d e0 3d
       0.08577553 -0.0030101212 -0.10472518 0.1095234
000190 de ef e1 3a aa 86 ac 3d 5d ea 1d 3e b1 d0 ce 3c
       0.0017237624 0.08424123 0.15421434 0.025245996
0001a0 71 b1 48 3d 56 62 10 3e 7d 69 89 3e 24 61 6e 3e
       0.048997346 0.14100012 0.26838294 0.23279244
0001b0 0f 8b 05 3e 4a 8f 89 3c fc 9c 2e 3e b4 54 c3 bc
       0.13041328 0.016791958 0.17052072 -0.0238441
0001c0 8e 9e 75 bd e2 c1 28 3d 94 77 20 be 8e af 10 3e
       -0.059965663 0.041200526 -0.15670615 0.14129469
0001d0 14 40 06 3e c8 cd 4c be 6a 61 05 bd 3a c1 38 bd
       0.13110381 -0.20000374 -0.032563604 -0.04510615
0001e0 86 5a a0 3d 32 e4 1d 3e ad 1b 2f 3e a9 aa 40 3e
       0.07829766 0.15419081 0.17100401 0.18815102
0001f0 76 44 0f be 51 0d 2c be 4d fd 64 be e7 63 f1 3c
       -0.1399096 -0.16801955 -0.22362252 0.029466582
000200 fe 7b 1c 3c 3e 00 52 be ea d7 4b 3e 5d 9a c6 3c
       0.009551046 -0.20507905 0.19906583 0.024243528
000210 36 c1 31 be 3c ef 7f 3e 9b fd 81 3d 90 f1 84 3d
       -0.1735886 0.24993604 0.063471995 0.06491387
000220 64 e4 1e 3e b0 44 d1 bd fb c7 4f be 9c bd d7 bd
       0.15516812 -0.10218179 -0.2029113 -0.10534212
000230 ca 11 23 3d de c8 70 bc 35 45 15 be 51 bd 32 3d
       0.039811887 -0.014696328 -0.14577182 0.043637577
000240 b3 bf 7f 3d 58 60 5d 3e b7 64 71 be 42 2b 0e be
       0.062438678 0.21618783 -0.23573576 -0.13883689
000250 2f 5f 4c be 25 40 ea 3d f3 ab 0e 3e a8 1b 5a 3d
       -0.19958185 0.11438016 0.13932781 0.05324903
000260 9c 80 44 be bf af c5 bd 15 8a 84 3e 98 0b 82 be
       -0.19189686 -0.096526615 0.25886598 -0.2539947
000270 6c a6 50 bd 5a 22 0c bd 7f 9a 13 bd 8c ce 0c 3e
       -0.050939962 -0.034212448 -0.03603601 0.13750666
000280 88 c9 b4 3d b4 d6 62 3e bb 7a c5 bd 87 f8 81 bd
       0.088275015 0.22152215 -0.096425496 -0.06346231
000290 c7 d6 65 be 5b f0 06 3e 26 2f 69 3e 3d e2 44 3e
       -0.22445212 0.13177626 0.22771892 0.19226928
0002a0 02 a4 ac 3c ac 27 7a be 47 8f 3f 3e c5 39 5f be
       0.021074299 -0.24429196 0.18707 -0.21799381
0002b0 a5 45 36 3d 20 43 3a 3e be 21 25 be c2 08 58 3e
       0.044500012 0.18189669 -0.16126153 0.21097091
0002c0 0e 47 d9 3d 51 05 b4 bd 92 ed 04 3d 2a 51 48 be
       0.10609256 -0.087900765 0.032453127 -0.19562212
0002d0 b8 a8 88 bd 8e f9 2d be f7 41 8d 3d 2e 70 01 3e
       -0.066728055 -0.16989729 0.068973474 0.1264045
0002e0 42 97 7e be ac 99 2d be 9a f8 cd 3d d1 f7 2c be
       -0.24862388 -0.16953152 0.100571826 -0.1689141
0002f0 f9 60 3d be a4 be 73 3c 19 3e 79 be 8f 44 65 be
       -0.18494023 0.014876995 -0.24340095 -0.22389434
000300 1e ab ec bb 9d d1 b1 3c da 65 8f 3a 0c 05 4a bc
       -0.007222547 0.021706397 0.0010940388 -0.012330305
000310 c4 3c ef bb ff b7 e1 3d 7e d5 01 3e 8a 67 c3 bc
       -0.007300945 0.110214226 0.12679097 -0.023853082
000320 2a d3 3d 3e c1 62 01 be dc 2d 84 3e 63 27 b4 3c
       0.18537584 -0.12635328 0.25816238 0.021991437
000330 0a bd b3 3d 14 61 90 bd d3 5b 11 be b0 26 4e 3d
       0.08776291 -0.07049766 -0.14195184 0.050329864
000340 a8 41 b9 bd ac cc 2e 3e 50 8f 84 3d 34 b7 3b be
       -0.09045726 0.17070264 0.06472647 -0.18331605
000350 6a 84 5b be 95 ca 46 3d 48 c1 a2 bd ba 15 8b be
       -0.2143723 0.04853304 -0.07947022 -0.27165014
000360 82 06 5f be 65 ee 3e 3d b9 d1 ae bd 12 57 e7 bd
       -0.21779826 0.04661407 -0.08536095 -0.11295904
000370 9b 4a ad bc 91 01 84 be 8b a9 e1 ba f6 6c b4 bd
       -0.021153739 -0.25782445 -0.0017216665 -0.08809845
000380 ec fb cc bd d2 86 8a 3e 12 a0 84 3c a9 6a 25 3c
       -0.10008988 0.27055985 0.016189609 0.010096231
000390 21 da 44 be 3d 39 55 3e 3a fc 8c 3e 9b b2 8a bd
       -0.19223835 0.20822616 0.27536184 -0.067723475
0003a0 32 13 28 3d 96 0d 3f be 29 5b 70 be bd c0 56 be
       0.04103393 -0.18657526 -0.23472275 -0.20971961
0003b0 bb e7 c3 bd 2e b1 ed bd 2c 0c 9f bd b3 02 0f 3e
       -0.095656835 -0.1160606 -0.077659935 0.13965873
0003c0 9f 55 5a be 5f 5d 22 3e a0 89 46 3b 39 6d 87 3b
       -0.21321724 0.15855931 0.0030294433 0.0041328934
0003d0 64 ad 2b be 60 89 b9 3d 2b 1f 21 be b1 8c 1d bc
       -0.16765362 0.09059405 -0.15734546 -0.009616063
0003e0 13 e0 27 3d 1c a8 33 bd 32 69 4f 3e 41 00 87 3d
       0.04098518 -0.043861493 0.20254973 0.06591845
0003f0 8b e6 2b 3d 30 56 b2 3c 86 04 09 3d bd 4c dd bc
       0.04196791 0.021769613 0.03345158 -0.02701413

weight f4 [200]
000000 93 37 7e 3f f3 9f 80 3f af 8a 7a 3f b6 0f 7f 3f
       0.9930355 1.0048813 0.97867864 0.9963335
000010 12 77 7e 3f 83 23 80 3f f2 0b 83 3f 06 34 7f 3f
       0.99400437 1.0010837 1.023802 0.99688756
000020 d1 a1 82 3f ee b6 80 3f a7 ae 7e 3f a5 46 7e 3f
       1.0205632 1.0055826 0.9948525 0.99326545
000030 f7 77 7d 3f 95 a0 7d 3f 99 ea 80 3f 03 25 80 3f
       0.99011177 0.99073154 1.0071594 1.0011295
000040 e0 57 7e 3f 79 b1 7c 3f 28 de 7c 3f af 7b 7e 3f
       0.99352837 0.987083 0.98776484 0.99407476
000050 88 d8 7f 3f b6 d7 80 3f c4 4d 7d 3f 34 80 80 3f
       0.99939775 1.006583 0.98946786 1.0039124
000060 38 2d 81 3f 51 9d 81 3f 2e 4d 7e 3f 77 f8 7a 3f
       1.0091925 1.0126134 0.99336517 0.9803538
000070 98 63 7f 3f 7b 8e 82 3f 56 80 7b 3f 9b 2d 81 3f
       0.99761343 1.0199732 0.982427 1.0092043
000080 38 c2 7d 3f fe 92 7d 3f 18 58 80 3f 2f 00 7c 3f
       0.9912448 0.9905242 1.0026884 0.9843778
000090 a9 73 81 3f dc 29 7f 3f d2 6d 7d 3f 5d 8b 80 3f
       1.0113422 0.9967325 0.989957 1.004253
0000a0 cb c6 80 3f 2a 00 81 3f ef b1 81 3f 43 c2 80 3f
       1.0060667 1.0078175 1.0132426 1.0059284
0000b0 bb d0 80 3f ea 50 80 3f bc f1 7f 3f ef c4 7d 3f
       1.00637 1.0024693 0.9997823 0.9912862
0000c0 a8 72 81 3f 7d c1 81 3f 1a a7 82 3f 36 ab 83 3f
       1.0113115 1.0137173 1.0207245 1.0286624
0000d0 6d cb 7e 3f df 51 7f 3f 39 42 81 3f 1b 09 80 3f
       0.99529153 0.997343 1.0098335 1.0002779
0000e0 4e b0 7c 3f de 09 7e 3f 74 ad 7b 3f 55 75 80 3f
       0.9870652 0.99233806 0.98311543 1.0035807
0000f0 11 41 7c 3f 3e e2 7e 3f 1b ea 7b 3f fa c3 80 3f
       0.98536783 0.9956397 0.9840409 1.0059807
000100 c1 cd 80 3f c2 44 81 3f 48 d4 7d 3f 2d 05 80 3f
       1.0062791 1.0099108 0.9915204 1.000158
000110 3d 08 82 3f ef f8 81 3f 63 ea 7e 3f 8e 52 81 3f
       1.0158764 1.0154094 0.99576396 1.0103319
000120 a3 ef 7f 3f ab 66 7f 3f b9 c8 81 3f 42 d3 7e 3f
       0.9997503 0.99766034 1.0139381 0.99541104
000130 d4 50 7f 3f 24 75 80 3f 8d 6f 7e 3f e4 97 7f 3f
       0.9973271 1.0035748 0.99388963 0.9984114
000140 23 cd 7f 3f dc 3b 7f 3f 8c f3 7e 3f 76 5a 80 3f
       0.9992239 0.99700713 0.99590373 1.0027606
000150 54 06 80 3f 4b 7f 7d 3f ec 92 82 3f ce e2 82 3f
       1.0001931 0.9902236 1.0201087 1.0225465
000160 25 8b 7e 3f f3 97 7d 3f 18 55 80 3f 9a ba 7e 3f
       0.9943107 0.9905998 1.0025969 0.9950348
000170 e8 dd 7a 3f 40 30 82 3f 58 ab 7f 3f 39 0b 82 3f
       0.9799485 1.0170975 0.99870825 1.0159675
000180 9e 6d 81 3f fd 03 7f 3f 9a 77 7c 3f 5d e3 79 3f
       1.0111578 0.9961546 0.9862 0.97612554
000190 4d b7 7e 3f 25 ef 80 3f 28 ba 7f 3f 24 2c 81 3f
       0.99498445 1.0072981 0.99893427 1.0091596
0001a0 b1 33 7c 3f 14 71 7f 3f 9e 26 7b 3f 36 cc 82 3f
       0.98516375 0.9978192 0.981058 1.021857
0001b0 bd 65 7f 3f 1a 2d 81 3f 31 b2 7d 3f 2a 08 7f 3f
       0.99764615 1.0091889 0.99100024 0.9962183
0001c0 39 71 7d 3f 4c c0 80 3f 93 a9 81 3f 08 3a 80 3f
       0.9900089 1.0058684 1.0129875 1.001771
0001d0 56 be 81 3f b0 fb 7f 3f 8e 9c 80 3f 80 63 80 3f
       1.0136211 0.9999342 1.0047777 1.0030365
0001e0 db 05 80 3f 90 79 7f 3f 78 19 7f 3f d4 48 80 3f
       1.0001787 0.99794865 0.9964824 1.0022225
0001f0 aa 5f 81 3f ac 3c 81 3f 87 4c 84 3f 38 e1 80 3f
       1.0107319 1.009664 1.0335854 1.0068731
000200 4e 8f 7f 3f 5c 17 82 3f 21 0d 80 3f 83 29 80 3f
       0.9982804 1.0163379 1.0004007 1.0012668
000210 19 b9 7a 3f 26 4f 7b 3f ac a5 80 3f 6f f7 79 3f
       0.97938687 0.98167646 1.0050559 0.9764318
000220 81 eb 7f 3f 1b 1b 79 3f 26 bf 80 3f 63 70 7e 3f
       0.99968725 0.97306985 1.0058334 0.9939024
000230 a0 ea 81 3f 82 e0 81 3f 7f 25 81 3f c3 3d 80 3f
       1.0149727 1.0146639 1.0089568 1.0018848
000240 24 fa 81 3f b6 8b 7a 3f 48 e5 7f 3f 2b 9d 7f 3f
       1.0154462 0.9786943 0.9995923 0.99849194
000250 90 22 80 3f 4c 12 82 3f fb 86 7e 3f be 5b 80 3f
       1.0010548 1.0161834 0.99424714 1.0027997
000260 a0 1e 80 3f f1 52 7e 3f 9b 33 81 3f 19 d0 7c 3f
       1.0009346 0.9934531 1.0093874 0.9875503
000270 5c bf 7d 3f dc d4 80 3f a1 f1 7d 3f 42 ef 7b 3f
       0.99120116 1.006496 0.9919682 0.98411953
000280 31 6a 7f 3f 17 9e 82 3f 41 54 80 3f 6b ec 7f 3f
       0.9977141 1.0204495 1.0025712 0.9997012
000290 94 b2 7f 3f 8b 0a 7f 3f 81 22 80 3f 93 b4 7d 3f
       0.99881864 0.9962546 1.001053 0.9910366
0002a0 9b 55 81 3f 07 9e 7d 3f ec b7 82 3f 84 ef 7a 3f
       1.010425 0.99069256 1.0212379 0.9802172
0002b0 af 9d 7c 3f b8 89 81 3f 0d 68 80 3f 5f 2a 81 3f
       0.98678106 1.0120153 1.0031754 1.0091056
0002c0 44 1b 7b 3f 05 22 7d 3f 5a 42 81 3f a1 dc 81 3f
       0.9808848 0.98880035 1.0098374 1.0145456
0002d0 9d d8 7e 3f 3f 25 80 3f 7a b4 7d 3f bb 0f 81 3f
       0.99549276 1.0011367 0.9910351 1.0082926
0002e0 f1 d0 7f 3f 55 db 7d 3f 0f 2c 7d 3f 41 18 80 3f
       0.99928194 0.991628 0.98895353 1.0007402
0002f0 15 ca 7f 3f c0 9e 7f 3f bd ea 80 3f d0 87 80 3f
       0.9991773 0.9985161 1.0071636 1.0041447
000300 8c 92 80 3f 84 39 80 3f a2 4b 7e 3f 72 96 7d 3f
       1.0044723 1.0017552 0.99334157 0.99057686
000310 77 42 7f 3f 54 1b 80 3f c0 7f 7f 3f 8a a0 7f 3f
       0.9971079 1.000834 0.99804306 0.9985434

bias f4 [200]
000000 76 8a 14 b9 32 d6 02 ba ed dc c0 32 e5 f6 d8 3b
       -0.0001416596 -0.0004991024 2.2452207e-08 0.006621229
000010 23 50 5d bc 5c 9b a1 3a be da a1 3b 88 b1 e1 3b
       -0.013507876 0.0012329626 0.004939406 0.0068876185
000020 38 01 da 3b 98 17 24 ba 1c 40 47 bc 79 ec 51 3c
       0.0066529773 -0.0006259619 -0.012161281 0.012812727
000030 4f 5e 0c 3b 02 32 29 bc 6b 56 13 bb 3d 60 a6 3c
       0.0021418517 -0.010326864 -0.002248193 0.020309562
000040 23 21 2e bc d2 e9 f1 bc 9a ca 28 bc f3 12 a8 bc
       -0.010628018 -0.02953044 -0.01030221 -0.020516848
000050 8d ee 8d 3c 8a ec 8a ba 77 96 71 3c 3c 50 5e 3a
       0.017325664 -0.0010599059 0.014745346 0.0008480584
000060 80 c6 6e bc 06 a4 e0 bc a9 62 17 ba 47 e6 99 3b
       -0.014573693 -0.027421962 -0.00057748944 0.0046966407
000070 61 6a dc 3c 87 91 01 3b 96 ae 91 3c 8e 2b 3d 3c
       0.026906194 0.001977058 0.017783444 0.011546029
000080 b9 5f 80 3c 54 85 c3 3c 8e 2c d4 3b ea c9 04 bc
       0.015670644 0.023867287 0.006475038 -0.008104781
000090 be bb 79 bc 5d 20 aa bb 6c 3e 04 3d cd 3c 8c 3b
       -0.015242515 -0.0051918463 0.032286093 0.004279709
0000a0 43 8e 55 bd 69 91 f3 bc 06 ae 28 3c aa 03 52 3d
       -0.052137624 -0.029732423 0.010295397 0.051273026
0000b0 cb 1c bf bc 97 ef 3f bd 45 2c ac 3c 6e 80 82 3b
       -0.02332916 -0.04685935 0.021017203 0.003982595
0000c0 06 72 06 3c d5 a3 0c 3d e8 8f 3b bc 5c 38 bb 3c
       0.008205896 0.03433593 -0.011447884 0.022854023
0000d0 f6 14 db bb ef f5 83 3c 08 69 47 3a c7 62 c0 3c
       -0.0066858483 0.016108481 0.00076068984 0.0234846
0000e0 aa c1 07 3d 8a 55 f4 bc 05 cb ba 3c 14 6a 5a 3b
       0.033143677 -0.029825944 0.022801885 0.0033327388
0000f0 f5 14 8a bc 9f e0 0f 3d 17 04 d4 bc a9 b6 34 3c
       -0.016855696 0.035126325 -0.025880856 0.011029878
000100 bb 04 b9 3c 06 4c 7a bc 84 7b 6b 3b cd f6 8f 3a
       0.022585263 -0.015276914 0.0035931775 0.0010983587
000110 75 81 64 bc eb 39 db 3a c5 bc 97 bc ba ac 19 3b
       -0.013946881 0.0016725635 -0.01852263 0.00234489
000120 f4 15 3c bc 22 6a 2a 3d 33 a0 d9 3c 26 47 9a bb
       -0.011479843 0.041605122 0.026565647 -0.0047081886
000130 63 12 7b 3c 96 21 85 38 95 21 62 ba d7 c6 98 3c
       0.015324208 6.34819e-05 -0.000862622 0.018649502
000140 29 e7 5b 3d b3 73 1a bb 18 4f 0e bb 6b 2b 4b bb
       0.05368725 -0.0023567497 -0.0021714624 -0.003100122
000150 f3 f2 ef 3a a1 9c 99 bc 31 21 e1 3a 35 af 4a 3c
       0.0018306657 -0.018751444 0.001717603 0.012370874
000160 9c 11 ca 3c 8f 59 ae bb b8 fa 2d bc 81 60 36 bd
       0.0246666 -0.005320735 -0.010618858 -0.044525627
000170 aa 76 21 3d 66 6f 0e bc 04 29 f2 3b 4d cf fa ba
       0.039419807 -0.008693552 0.0073901433 -0.0019135267
000180 c8 7d 92 bb 41 f5 82 3c f3 7d 5c bc 8e 04 9b ba
       -0.0044705607 0.015986087 -0.013457763 -0.0011826919
000190 8f 0e d9 bc 12 32 35 3a ac de 8a 3c 0a e1 0a 3b
       -0.0264962 0.0006912063 0.016951881 0.0021191263
0001a0 10 5e 19 bc 57 04 d6 3c d6 19 0a bd 8e 4d 07 bc
       -0.009360805 0.026125116 -0.033716045 -0.008258237
0001b0 6d 56 1f bc 28 bc a8 b9 3a 7c 61 3c 59 e8 7d 3c
       -0.009725195 -0.00032183644 0.013762528 0.0154972905
0001c0 66 d7 42 bb ac 96 2f 3c ff ab a2 ba 3a e0 e0 bb
       -0.0029730438 0.010717075 -0.0012410878 -0.0068626674
0001d0 69 ee 80 3c 02 f4 8e 3b e3 73 e8 bc 58 8a 8e 3c
       0.015738683 0.004362584 -0.028375572 0.017399952
0001e0 67 ac 06 bd d5 87 2d 3c 70 77 06 bc b8 48 d3 3c
       -0.03287926 0.010591467 -0.008207187 0.025791511
0001f0 45 70 a4 3c 00 ee d1 3b bd d9 68 bc 90 ac 92 3c
       0.020073066 0.0064065456 -0.014212069 0.01790455
000200 12 e9 e9 ba 2e f1 5b 3c 6e ef a5 ba 4a 76 c0 bc
       -0.001784595 0.013424201 -0.0012659857 -0.023493905
000210 8e 67 18 3d a3 f5 aa 39 a5 de c9 ba 3b f2 aa 3c
       0.037208132 0.0003260794 -0.0015401436 0.020867458
000220 a5 5e eb ba 15 d5 e7 3b 33 41 81 bc 16 eb 9a 3c
       -0.0017957283 0.007074962 -0.01577816 0.018910926
000230 07 d0 9a bb 1b ae fe 3c 73 fd 8b 3c c1 23 08 3c
       -0.004724506 0.03108888 0.017088627 0.008309306
000240 77 51 2b 3c b8 cc 32 3c 5f ec 4d bc d7 0f 8a 3c
       0.010456434 0.010913067 -0.012568562 0.016853256
000250 2e cf 13 bc a8 2c 63 bc ef 4a 8a bc 6b 9c d6 bc
       -0.009021563 -0.013865627 -0.016881434 -0.026197633
000260 72 c5 05 3c 2b c9 eb 3b 4e 4c b0 bc 2a e7 8a bc
       0.00816475 0.007195612 -0.02152076 -0.01695593
000270 31 0a 6b bc ac 68 76 bc 2b b2 8d 3c 26 ad 90 bc
       -0.014345692 -0.015039604 0.017296871 -0.017660689
000280 31 d7 8e 3c 42 35 6a bc bf c7 9a 3b 1a 77 01 3c
       0.017436596 -0.014294924 0.0047235186 0.007901931
000290 52 b3 6f bc 6e 1b 1f bc 62 34 2c 3b 72 b1 ad bc
       -0.014630156 -0.00971113 0.002627634 -0.021202777
0002a0 3a 4d e3 bc 05 46 a5 bb 75 6a b8 bc 75 44 19 3c
       -0.027746785 -0.0050437474 -0.0225117 0.0093547
0002b0 6c 81 a2 3c 47 fa bc bb d1 5b 6b 3d 87 fd 24 3c
       0.019837104 -0.00576714 0.05746061 0.010070211
0002c0 04 55 57 bb 09 8f 63 bb 31 53 a5 3c d8 ba 3c bb
       -0.003285707 -0.0034722707 0.02018127 -0.002879789
0002d0 fd 73 f3 3b 90 0f 53 bb d0 c3 97 3c 65 c6 8b bb
       0.0074295984 -0.003220532 0.018525988 -0.004265594
0002e0 54 04 1b 3b b6 96 c1 bb 23 98 85 bc b2 71 57 bb
       0.0023653703 -0.0059078587 -0.016307896 -0.0032874164
0002f0 1f 2f 73 bc 47 b5 f0 bc 45 01 a1 3c 18 a8 22 bc
       -0.0148427775 -0.029383315 0.019653926 -0.009927772
000300 9c 47 43 bc 56 e1 70 bc 6d 7f e5 3c d3 d9 64 3c
       -0.0119189285 -0.014702162 0.028014863 0.013967949
000310 46 ef b8 bc cb f4 40 bc 3e 04 fd bb 95 ec d3 3b
       -0.022575032 -0.011777113 -0.007721453 0.0064674118

running_mean f4 [200]
000000 8c d3 05 3e 12 4f 96 3d ee 57 2f 3e 5a 81 09 3e
       0.1306898 0.073393 0.17123386 0.1342825
000010 70 50 12 3e 24 2c 68 3e 8b 7e ee 3d b0 74 05 3e
       0.14288497 0.22673088 0.1164523 0.13032794
000020 8f 1e 07 3e c5 c3 4a 3e a0 1b 16 3e 71 0a 5f 3e
       0.13195251 0.19801243 0.14658976 0.21781327
000030 00 1b 00 3e 95 6c 4c 3e 7d a1 74 3e 4a bb 12 3e
       0.125103 0.19963296 0.23889728 0.14329258
000040 d4 05 56 3e 81 b4 2a 3e 99 49 5f 3e fb 4d d0 3d
       0.20900661 0.1667042 0.21805419 0.101711236
000050 3b 1f 71 3e d1 94 5d 3e 9b cd 2b 3e 1c f5 55 3e
       0.2354707 0.216388 0.16777651 0.20894283
000060 6e 86 9f 3e 9d 96 28 3e 3c f5 1f 3e a5 65 2c 3e
       0.3115725 0.16463704 0.15620893 0.1683565
000070 dc b2 7f 3e 17 5c c0 3d a1 54 e5 3d 61 e6 7c 3e
       0.24970573 0.09392565 0.11197782 0.24697258
000080 02 d6 0f 3e 17 b1 2b 3e 2b 90 a6 3e 13 04 34 3e
       0.14046481 0.16766773 0.32531866 0.17579679
000090 5d cd 85 3e a5 3a 24 3e 08 47 26 3e 6f 76 5c 3e
       0.26133242 0.16037996 0.16238034 0.21529554
0000a0 8f ed 82 3e 23 34 60 3e 80 b5 47 3e 05 6b 3b 3e
       0.25571868 0.21894889 0.1950283 0.18302543
0000b0 bc cb 32 3e fa 63 1d 3e 3c e2 42 3e 0e 70 3e 3e
       0.17460531 0.1537017 0.19031614 0.18597433
0000c0 df a1 39 3e 2e 73 21 3e 68 6b 1f 3e f1 a2 3c 3e
       0.18128155 0.15766594 0.15568316 0.18421532
0000d0 4c 9a 55 3e ae fd d2 3d a9 43 31 3e c3 85 5f 3e
       0.20859641 0.10302292 0.17310967 0.2182837
0000e0 76 a6 1c 3e c3 56 41 3e d1 ab 2f 3e 92 27 14 3e
       0.15297875 0.18880753 0.17155387 0.1446822
0000f0 d9 fc 42 3e 0d 57 c0 3d ca da 1a 3e 4a af fc 3d
       0.19041766 0.093916036 0.15122524 0.12338121
000100 88 6a 2e 3e a2 6b e2 3d 46 6b 30 3e 1a 76 f2 3d
       0.17032826 0.110556856 0.17228422 0.11838932
000110 34 91 40 3e f6 76 2e 3e 1c c7 23 3e 6b 78 36 3e
       0.1880539 0.17037567 0.15993923 0.17819373
000120 16 51 26 3e 55 79 19 3e 6c 7a 4b 3e 50 77 2c 3e
       0.1624187 0.14987691 0.19870919 0.16842389
000130 15 8e 4b 3e 64 0a 71 3e 45 96 95 3d 63 8f e5 3d
       0.19878419 0.2353912 0.07304052 0.112089895
000140 43 74 57 3e 0d 70 36 3e f6 4b 41 3e 44 89 c3 3d
       0.21040444 0.17816181 0.18876633 0.09547666
000150 69 86 6d 3e 7a af 77 3e 89 c2 55 3e b8 bb 5b 3e
       0.23195805 0.24188033 0.2087499 0.21458328
000160 69 54 ef 3d b7 ce 2c 3e 21 be 6e 3e 24 2c 37 3e
       0.11686022 0.1687573 0.23314716 0.17887932
000170 6f 1d 36 3e b2 bc 46 3e d2 19 5c 3e 8e e2 25 3e
       0.17784666 0.19407919 0.21494225 0.16199705
000180 ab 0b 5b 3e 99 cd c7 3d 98 31 65 3e 43 ca f3 3d
       0.2139117 0.097560115 0.223822 0.11903813
000190 67 24 66 3e 1c e4 58 3e 7b 38 35 3e b1 55 4c 3e
       0.22474824 0.21180767 0.17697327 0.19954564
0001a0 9e 52 0d 3e 88 d9 16 3e 05 d8 25 3e 1f 7c 6c 3e
       0.13801047 0.14731419 0.16195686 0.23094223
0001b0 90 74 2e 3e f6 ed 5d 3e d9 4e 28 3e 87 7a 1c 3e
       0.17036653 0.21672806 0.16436328 0.15281115
0001c0 7d 6d 19 3e 67 da df 3d 72 2f 94 3e 1e bc f4 3d
       0.14983173 0.10930329 0.28942448 0.11949943
0001d0 60 07 54 3e dc b8 3d 3e e1 1b 28 3e 51 17 59 3e
       0.20705938 0.1852755 0.16416885 0.21200301
0001e0 55 21 06 3e 7b 56 4b 3e d3 02 08 3e 26 f7 0c 3e
       0.13098653 0.19857208 0.13282327 0.13766155
0001f0 a6 ff c9 3d 4b 01 6c 3e b8 23 2a 3e e9 60 32 3e
       0.09863214 0.23047368 0.16615188 0.17419781
000200 f4 73 81 3e 48 6c 4a 3e 42 51 3d 3e d8 07 13 3e
       0.25283778 0.19767869 0.18488029 0.14358461
000210 52 5e 34 3e b2 e0 4e 3e dd c0 28 3e c8 37 92 3e
       0.17614105 0.20202902 0.16479822 0.28558183
000220 f7 5f 11 3e 5d 3a 26 3e db b4 52 3e a9 b5 ad 3d
       0.14196764 0.16233201 0.20576803 0.084819146
000230 c5 52 14 3e b3 80 51 3e 14 8e 92 3e 7d 58 cf 3d
       0.14484699 0.20459251 0.28624022 0.101243
000240 3d fe 66 3e 7a 38 e8 3d 53 3e 27 3e cb 8b 20 3e
       0.22557922 0.11338897 0.16332369 0.15678327
000250 be d9 0b 3e 4e 95 1c 3e 53 9a 54 3e dd e3 58 3e
       0.13657281 0.1529133 0.20761995 0.21180673
000260 dc 3e 18 3e 5a ab 45 3e 32 c6 5b 3e 47 4b f2 3d
       0.14867729 0.19303647 0.21462324 0.11830764
000270 dc 9c 1a 3e 31 9f cc 3d 3e db 94 3e 20 56 89 3e
       0.150989 0.09991301 0.2907352 0.2682352
000280 16 41 41 3e e4 cf 10 3e 2d 46 64 3e fe a4 26 3e
       0.18872485 0.14141804 0.22292395 0.16273877
000290 de ae 09 3e 01 54 03 3e 90 f3 2f 3e 25 6d 80 3e
       0.13445613 0.12825014 0.17182755 0.2508327
0002a0 8f a5 61 3e f5 8e 20 3e 96 ff 3c 3e 75 18 f5 3d
       0.22035812 0.15679534 0.18456873 0.119675554
0002b0 a5 1f d3 3d 88 3d 49 3e 08 06 25 3e 77 b5 5e 3e
       0.1030877 0.19652379 0.16115582 0.21748911
0002c0 7b 20 e9 3d dd 49 83 3e 42 a4 05 3e 2b 02 ee 3d
       0.11383148 0.2564229 0.1305094 0.11621507
0002d0 3b 78 0c 3e 8f 46 2a 3e 2d 97 ff 3d c6 49 ef 3d
       0.1371774 0.16628478 0.12480006 0.11683993
0002e0 5e 4d 3c 3e d1 a8 2e 3e 07 32 40 3e 87 c3 51 3e
       0.18388888 0.17056586 0.18769084 0.20484744
0002f0 d3 c8 5e 3e 1e fd 4f 3e 47 ef 62 3e 4d d4 1a 3e
       0.21756296 0.203114 0.2216159 0.15120049
000300 cd c3 59 3e 32 79 43 3e bc 00 ea 3d b7 f8 67 3e
       0.21266098 0.19089201 0.11425921 0.22653471
000310 a9 25 4c 3e 53 2c 3b 3e 5a 19 6f 3e 10 0b fe 3d
       0.19936241 0.18278627 0.23349515 0.12404454

running_var f4 [200]
000000 d7 46 37 3d 39 c8 c0 3c 6e 64 6e 3d dd 00 80 3d
       0.044745293 0.023532974 0.058201246 0.06250165
000010 21 53 9c 3d 35 45 50 3d 11 2c 68 3d 0a ae 7e 3d
       0.07633043 0.05084725 0.05668265 0.062177695
000020 5d f5 9c 3d 48 c1 9e 3d 55 b7 69 3d b5 f4 3f 3d
       0.07663987 0.07751709 0.057059605 0.04686423
000030 e0 1b 65 3d c0 48 78 3d eb 10 3f 3d e0 65 4c 3d
       0.055934787 0.060616255 0.046646994 0.049901843
000040 0f 94 56 3d 09 3c a6 3d 66 a5 60 3d dc f1 21 3d
       0.052387293 0.081169195 0.054845236 0.039537296
000050 25 96 16 3e 47 0c 82 3d eb 00 76 3d 3a 14 99 3d
       0.14705713 0.06349998 0.06005947 0.07474561
000060 91 e4 ce 3d 96 e5 70 3d 74 f5 b0 3d 38 ae 8f 3d
       0.10102189 0.0588127 0.086405665 0.070156515
000070 f8 f7 85 3d a2 b7 ec 3c 68 06 58 3d 15 0b a7 3d
       0.06541437 0.028896157 0.052740484 0.081564106
000080 70 2a 76 3d 97 e4 85 3d 68 91 e4 3d c0 b5 a6 3d
       0.060099065 0.06537741 0.111605465 0.08140135
000090 c2 fa c6 3d 4f b5 29 3d dc 7b 54 3d ae 70 8c 3d
       0.09715797 0.041432675 0.051875934 0.068574294
0000a0 dc f8 9d 3d 18 e4 85 3d 3e aa 77 3d 37 33 e1 3d
       0.07713482 0.06537646 0.06046509 0.109960966
0000b0 6d 2b ee 3d c4 7c b4 3d 20 b3 68 3d 1e cb dd 3c
       0.116293766 0.0881286 0.056811452 0.027074393
0000c0 bd c7 33 3d a6 c5 9e 3d 08 05 7f 3d d3 b6 9a 3d
       0.043891657 0.07752542 0.062260658 0.07554402
0000d0 69 01 bc 3d c3 59 10 3d 9c 15 ce 3d a0 08 b6 3d
       0.091799565 0.035241853 0.100627154 0.08888364
0000e0 22 2e 90 3d fe 4c af 3d 94 bd 55 3d 4f 4e 80 3d
       0.07040049 0.08559607 0.05218275 0.06264936
0000f0 27 65 56 3d fa 80 30 3d 21 0f b5 3d 3a 1a 4c 3d
       0.05234256 0.04309175 0.08840776 0.0498297
000100 29 9f 73 3d 21 26 ed 3c 9d da 4e 3d a9 8f 1d 3d
       0.05947796 0.028948845 0.050501455 0.038467083
000110 8c e1 81 3d 45 c3 92 3d 41 4b 99 3d 6b 2b 64 3d
       0.06341848 0.07166151 0.07485057 0.05570547
000120 b5 8c b7 3d d0 10 a5 3d 8d 91 67 3d 9c dd db 3d
       0.089623846 0.08059847 0.056535292 0.10735628
000130 5b 77 8c 3d 2d 7c b2 3d d6 90 a2 3c 0d 69 6f 3d
       0.06858703 0.08715091 0.019844454 0.058449794
000140 3f 6e b0 3d bc 93 82 3d c7 0e af 3d 1a 6d ff 3c
       0.08614778 0.06375834 0.085477404 0.031179953
000150 f0 19 b2 3d 14 1b 86 3d 5c bf 5c 3d 52 c7 a7 3d
       0.086963534 0.065481335 0.053893432 0.08192314
000160 a3 72 58 3d fa d8 45 3d 6c a4 a5 3d 2b 7a 67 3d
       0.0528437 0.048302628 0.080880016 0.056512993
000170 4d 0b 92 3d 8c 9c e5 3d 15 cc a4 3d 42 2c 9f 3d
       0.07131062 0.112114996 0.08046738 0.077721134
000180 da e5 f8 3d 7c 50 fb 3c b3 89 d4 3d 32 c3 66 3d
       0.12153216 0.030678026 0.103778265 0.056338497
000190 5a b0 e1 3d 04 c9 cc 3d 52 21 5f 3d 47 00 ed 3d
       0.110199645 0.09999278 0.054475136 0.115723185
0001a0 d0 3d 7f 3d fd fa 6e 3d be 89 bf 3d bf 88 b4 3d
       0.06231481 0.05834483 0.09352444 0.08815145
0001b0 62 9a 97 3d b2 08 91 3d 09 77 87 3d b3 9b 8a 3d
       0.07402493 0.070817366 0.06614501 0.067679785
0001c0 ee 8b 83 3d eb cf 08 3d 78 b6 b8 3d 82 f7 46 3d
       0.06423174 0.03340141 0.09019178 0.048575886
0001d0 12 6d a5 3d c9 ab b1 3d 4c 63 ae 3d bd 25 8d 3d
       0.08077444 0.086753435 0.08515033 0.06891964
0001e0 6f 9d 66 3d ba 15 80 3d 7a f3 77 3d bc 6c 59 3d
       0.056302484 0.06254144 0.06053493 0.053082213
0001f0 73 6c 0e 3d 6f a6 97 3d dc 08 d1 3d 13 03 50 3d
       0.034771394 0.074047916 0.10206768 0.05078418
000200 c5 d6 b5 3d db 51 af 3d 6a f7 a8 3d 24 d8 96 3d
       0.08878855 0.085605346 0.082503155 0.07365444
000210 aa b5 24 3d e5 9c af 3d cc 28 70 3d e4 a1 a8 3d
       0.04021231 0.08574847 0.058632657 0.08234003
000220 7d a8 86 3d c5 3e 33 3d 89 3d cd 3d 68 3f 13 3d
       0.06575105 0.043761034 0.100215025 0.03594914
000230 9f 8e 5f 3d 3c 69 73 3d 51 98 a1 3d 1e 1c da 3c
       0.054579373 0.05942653 0.0789038 0.026624735
000240 e5 d9 ae 3d 0c 31 34 3d 66 84 5a 3d 91 e8 8a 3d
       0.08537654 0.043992087 0.05334892 0.0678264
000250 82 b5 61 3d ee 6c 6e 3d 0e 33 80 3d 32 00 e4 3d
       0.05510474 0.058209352 0.06259738 0.1113285
000260 fb 7f 26 3d 2b 13 e7 3c c5 c9 bb 3d 81 2a e6 3c
       0.040649395 0.028207382 0.09169344 0.02809644
000270 f1 15 34 3d 7c 87 a4 3d 9c b5 8a 3d 19 6f e1 3d
       0.043966237 0.08033654 0.067729205 0.11007518
000280 d6 0c e6 3d 91 63 52 3d 37 b8 5d 3d 50 77 8c 3d
       0.11232917 0.051364485 0.05413076 0.068586946
000290 a7 ca 6c 3d c3 9a 62 3d 1b 6c a1 3d 75 c3 f3 3d
       0.05781045 0.055323374 0.078819476 0.11902515
0002a0 b9 36 90 3d 7f df a9 3d 3e cc 92 3d 66 d3 69 3d
       0.070416875 0.082945816 0.07167862 0.05708637
0002b0 48 15 c1 3c 03 43 8a 3d 44 ae 96 3d 90 24 85 3d
       0.023569718 0.06751063 0.07357457 0.06501114
0002c0 6e a3 26 3d 79 8a cc 3d dc c4 a6 3d 28 d4 2f 3d
       0.040683202 0.09987349 0.08143017 0.042926937
0002d0 7c 10 83 3d 6a 5d ae 3d bd 13 11 3d d2 a8 36 3d
       0.063996285 0.08513911 0.035419215 0.044594593
0002e0 a3 99 bc 3d 0f 25 5c 3d 8c 61 27 3d af 6c fd 3d
       0.092089914 0.05374628 0.040864512 0.123742454
0002f0 44 dd a7 3d 63 d4 77 3d cb b5 c3 3d ae 17 59 3d
       0.081965 0.060505282 0.09556159 0.0530011
000300 6b b5 85 3d b6 ef 29 3d e7 ab 5f 3d 6a 9e 96 3d
       0.06528743 0.04148837 0.0546073 0.07354434
000310 fa b6 22 3e 53 1b 53 3d 25 7a b6 3d 0f e4 41 3d
       0.15890113 0.05153973 0.08910016 0.047336634

weight f4 [100, 200]
000000 58 1e 81 3d d8 ed 81 bd 87 09 83 bd 0d 58 23 bd
       0.06304616 -0.06344193 -0.063983016 -0.039878894
000010 0f 72 bc bc f3 8e 4a 3d ff fa f3 bc 34 d2 8b bd
       -0.023003606 0.049452733 -0.02978277 -0.068272024
000020 b6 1a 81 3b 78 71 9e bb e6 ab 6d bc 40 92 19 bb
       0.003939952 -0.004835304 -0.014506316 -0.002343312
000030 2c 7c 56 bd 5c 77 b7 3c 68 7c 3b bd f1 16 a5 3d
       -0.052364513 0.022395782 -0.04577294 0.08061016
000040 aa 97 55 3a a4 97 6c 3d fa ef 28 bd 00 69 33 3d
       0.0008147905 0.057761803 -0.041244484 0.043801308
000050 e1 1d 01 3d 69 76 9a 3d 35 c7 3a bd 4f f5 2e bc
       0.031522635 0.07542116 -0.045600135 -0.010678603
000060 7f 8a ea bc ea 5f 6c 3d 2a 61 65 bd fc e4 41 bc
       -0.028630493 0.05770866 -0.056000866 -0.011834379
000070 65 43 07 bd f3 c8 28 bd ac 0e 77 bd 6d e8 fc 3c
       -0.033023257 -0.041207265 -0.060316727 0.030872548
000080 15 9a 27 bc 2b 43 07 bd 84 d4 47 3c 8a c6 24 3c
       -0.010229607 -0.03302304 0.012196664 0.010057101
000090 85 fb e1 bc c6 a3 a0 3b d5 6e bf 3c c5 8b 3a bd
       -0.027585754 0.004902336 0.023368279 -0.04554345
0000a0 7d 3f 32 bd 3a b0 f3 3c 93 54 89 3c ed 5a 79 3c
       -0.04351758 0.029747117 0.016763961 0.015219432
0000b0 51 20 1a bd 85 fb c6 3b 8c 9e 94 bc 82 87 22 bd
       -0.037628476 0.006072464 -0.018142007 -0.03968001
0000c0 11 f1 a7 3c eb 97 f8 bc 80 d8 f1 3c fc 79 8a bd
       0.020500692 -0.030345878 0.02952218 -0.06761548
0000d0 94 12 3d bd ee 6b ac 3c 26 7a 86 3c 7f 7e d3 3b
       -0.046160296 0.021047559 0.016415667 0.0064542885
0000e0 2e 1d d2 3c ea 1e 21 3d 28 4a e3 bc 01 63 75 bd
       0.02564868 0.039336123 -0.027745321 -0.05990887
0000f0 3d 40 4c bc 81 11 8d bd f6 14 67 bd 8a a3 84 3d
       -0.0124664875 -0.06888104 -0.056416474 0.06476505
000100 32 6b 3d 3d 16 c1 5d 3c 80 a9 07 3c 0b 78 f6 3c
       0.046244808 0.013534805 0.008280158 0.030086538
000110 30 51 db ba 58 88 70 bc a5 d4 3d 3c 3c 9e 97 3b
       -0.001673257 -0.014680944 0.011586343 0.0046270173
000120 f1 41 9c 3d 60 44 63 bd 6f 1c 97 3c 6c 4a 22 bd
       0.07629765 -0.05548513 0.018446175 -0.039621755
000130 a5 60 91 3d 5c 02 34 3d 36 af 9e 3c 8b 0c 0b 3c
       0.070985116 0.043947563 0.019370656 0.008486877
000140 22 e7 49 3d 1f ee 55 bc 6c 37 05 bc 8b d6 dc bc
       0.04929269 -0.013057261 -0.008130889 -0.02695777
000150 8e 24 03 3d 96 11 85 3c 10 76 c0 3c 18 fc 75 bd
       0.032017283 0.016243737 0.023493797 -0.06005487
000160 4b 8b 99 bd ce 95 a9 bd 0d 16 96 3d 52 8b 83 3c
       -0.07497271 -0.08280526 0.073284246 0.016057644
000170 79 70 4d bc d4 b1 7c 3d eb 03 2a 3b 83 c3 96 bd
       -0.012539023 0.061693028 0.0025942277 -0.0736151
000180 f7 f1 09 bd 1c f0 a9 3c 4a cc 52 bc 74 5e 2d 3d
       -0.03367802 0.020744376 -0.012866089 0.042326406
000190 13 c7 33 bc 6c a2 82 bd e6 7f f1 bc aa d1 8d ba
       -0.010972756 -0.06378636 -0.029479932 -0.0010819931
0001a0 c1 ec 8e bb f3 17 21 3d 87 09 ca bc 03 14 31 bd
       -0.0043617194 0.03932948 -0.024662746 -0.043231975
0001b0 2d 97 95 bc fd fd 49 3d 2e 20 d3 bc 6a 86 0b bc
       -0.018260563 0.049314488 -0.02577218 -0.0085159335
0001c0 ca 2f 04 3c 9f 98 66 bc 84 75 aa bd 95 34 8e bd
       0.008068034 -0.014074474 -0.083231956 -0.06943623
0001d0 83 93 61 3d c1 35 ff bc 4f ca 80 3d f5 56 40 3b
       0.05507232 -0.031153562 0.06288587 0.0029348705
0001e0 4d 74 4a bd ff 24 6e bd fa 24 da 3b 1b e6 07 bb
       -0.04942732 -0.05814075 0.00665724 -0.0020736519
0001f0 e8 bc 03 bd 32 d4 0b 3d 8f 0d 4f 3d a4 25 ab bd
       -0.032162577 0.034137912 0.05055004 -0.08356789
000200 fa 14 97 bd ed 84 d4 bc 1d 13 80 3c 28 82 72 3d
       -0.07377048 -0.02594229 0.015634114 0.059206158
000210 df 16 92 bc b2 cb 1d bd 4b 39 02 bd 0d 0c f2 bc
       -0.017833171 -0.038524337 -0.03179292 -0.029546762
000220 71 cb 37 bc a0 54 82 3d a6 69 9d bb df 12 db bc
       -0.011217938 0.06363797 -0.004803854 -0.026742397
000230 5a b5 02 bd ca 1c 9c bd d7 9b 0b 3d ec 72 cb 3b
       -0.03191123 -0.076226786 0.034084167 0.006208768
000240 8c cf 6c 3d 3f c9 ad bc a3 62 14 3d 01 f5 2e 3d
       0.05781512 -0.021214126 0.03622688 0.042714123
000250 9d df 66 bb 04 0d 38 bd 7c 48 34 3d ad f8 6d 3d
       -0.0035228499 -0.044934288 0.04401444 0.058098484
000260 0f ac ec bc 2c 2e 28 3d 40 43 13 bd 2b 2c 80 bc
       -0.028890638 0.041059658 -0.035952806 -0.01564606
000270 81 be d7 3c b5 c4 b7 3c b2 0f 74 bd 9e 6f 74 bc
       0.026335957 0.022432664 -0.05958528 -0.01491919
000280 40 d9 06 3d 3b 6b 84 3c 56 c5 01 3d 81 56 9a 3d
       0.03292203 0.016164413 0.031682335 0.075360306
000290 ef 0e 8b bd ea 38 ad bc 3b 29 70 3c 86 0c ec 3a
       -0.06789958 -0.021145303 0.014658268 0.0018009103
0002a0 80 af 48 3d a0 8b 51 bd d1 23 3e 3c d4 b3 c9 bc
       0.048995495 -0.051158547 0.011605219 -0.024621882
0002b0 2b 7d b3 bc 32 1b 77 3d 5f cd 6c bd 2c 21 f5 bc
       -0.02191027 0.06032867 -0.057813045 -0.029923044
0002c0 6e 5f 13 3c 7d d9 31 3d 0c 51 3c 3b 35 97 28 3d
       0.00899492 0.043420304 0.002873483 0.041159827
0002d0 53 e5 f4 3c f9 8f dd bc e8 e5 1b bd 6e cc fc 3c
       0.029894507 -0.02704619 -0.038061053 0.030859198
0002e0 bc 3c 7d bc b1 ed 57 3d 26 4d 9f 3a da 1f b7 3c
       -0.015456375 0.052716915 0.0012153729 0.022354055
0002f0 91 5c 8e bb b2 85 a5 3d 79 8b 80 bd 71 fd c6 3b
       -0.004344531 0.08082141 -0.06276602 0.006072693
000300 93 0e 94 bd 83 78 9a bd 8e 6c 95 bc b7 21 5b 39
       -0.07229342 -0.07542517 -0.01824024 0.00020898027
000310 da 73 1b 3d 1d a2 96 3c db b9 67 bd fc 4d 5b 3d
       0.03795228 0.018387849 -0.05657373 0.05354117
000320 5e 58 74 3d 23 7b 94 bd 57 7b 20 bc 79 9a 7c bb
       0.059654586 -0.07250049 -0.0097950315 -0.0038544221
000330 e9 76 06 bd 57 f3 20 3d d0 b0 f1 3b 5c 96 e9 3c
       -0.032828245 0.039294567 0.007375814 0.02851408
000340 04 ce bf 3c 42 17 67 3d 7e c2 9b 3c 5a 63 f6 bc
       0.023413666 0.056418665 0.01901364 -0.030076671
000350 fd 61 97 3d 74 b5 a0 3c c4 79 78 3d 8e df 70 3d
       0.07391737 0.019617774 0.060663 0.05880695
000360 38 35 ff 3b 37 b4 72 bd 78 ae c1 3a 19 55 25 bd
       0.0077883266 -0.059253898 0.0014776727 -0.04036436
000370 2a c1 9d 3d 1e 02 08 3d 40 b3 ee bc e4 61 d8 3c
       0.07702859 0.033205144 -0.029138207 0.026413865
000380 09 38 99 bd 96 88 20 bd 6d 8c 91 3c 6a a6 05 bd
       -0.07481391 -0.03919276 0.017767156 -0.032629408
000390 ed 02 b5 3b cd 50 a3 bb 36 a1 f0 3c b7 20 5c bc
       0.0055240304 -0.0049839974 0.029373746 -0.013435534
0003a0 62 c2 21 bd c1 57 54 3d 00 d3 26 bc 91 70 18 3d
       -0.03949202 0.0518415 -0.010182142 0.037216727
0003b0 86 42 d2 3c ea 2e 80 bd 8a 42 1d 3d 38 38 7f bd
       0.025666486 -0.06258948 0.038393535 -0.062309474
0003c0 44 50 71 bc ce 78 5e bd 4b 47 6e 3c ed 5f 68 3d
       -0.0147286095 -0.054314427 0.014543365 0.056732107
0003d0 34 e6 41 bd 8b 88 d9 bc ff 0c 57 3d 31 6f 2f bd
       -0.04733868 -0.026554367 0.05250263 -0.04283065
0003e0 bf b9 40 bd 7e c8 57 3d 58 fa 0b bd 0f d4 84 3d
       -0.04705214 0.05268144 -0.034174293 0.064857595
0003f0 91 45 47 bd f8 08 eb bb 2d 9a 5e bd 75 0e d9 bc
       -0.048650328 -0.0071727 -0.054346252 -0.026496151

weight f4 [100]
000000 ec 4f 79 3f 8e 53 76 3f 2a f2 76 3f 25 be 7c 3f
       0.97387576 0.96221244 0.96463263 0.9872764
000010 b3 fb 79 3f 3d cf 7a 3f 22 03 79 3f 18 e1 77 3f
       0.9764969 0.9797247 0.97270405 0.9682784
000020 04 e3 79 3f cb 55 78 3f a9 fc 78 3f e9 63 7a 3f
       0.97612023 0.9700591 0.9726053 0.978087
000030 12 68 7e 3f 83 00 79 3f f0 8d 77 3f 63 92 7a 3f
       0.9937755 0.97266406 0.96700954 0.9787962
000040 cb a4 7d 3f af 99 7c 3f 03 db 78 3f 9f e5 76 3f
       0.9907958 0.98672 0.97209185 0.96444124
000050 4a e5 7a 3f 62 9d 76 3f 94 c2 7a 3f e1 61 7b 3f
       0.9800612 0.963339 0.9795315 0.98196226
000060 02 70 79 3f 59 fe 78 3f 05 38 76 3f 20 d9 78 3f
       0.97436535 0.97263104 0.9617923 0.97206306
000070 da 70 78 3f 71 a5 77 3f a2 2d 79 3f 04 c6 76 3f
       0.970472 0.9673682 0.97335255 0.963959
000080 90 51 75 3f f7 eb 77 3f 36 3c 78 3f e9 85 7a 3f
       0.9582758 0.9684443 0.96966875 0.9786058
000090 8f d6 79 3f 7e be 7a 3f 71 81 77 3f 9a 03 7a 3f
       0.97593015 0.9794692 0.96681887 0.97661746
0000a0 85 c9 78 3f 70 96 78 3f 0a cd 74 3f e0 6e 79 3f
       0.97182494 0.9710455 0.95625365 0.97434807
0000b0 4e d1 75 3f 00 22 79 3f 62 a5 75 3f 21 43 76 3f
       0.960225 0.97317505 0.9595548 0.9619618
0000c0 21 d8 79 3f 0c 5f 76 3f 1c 45 77 3f ef af 7a 3f
       0.9759541 0.9623878 0.9658983 0.97924703
0000d0 ee 0b 77 3f 68 84 75 3f 22 67 7a 3f a3 d7 77 3f
       0.9650258 0.9590516 0.9781362 0.9681341
0000e0 b8 f7 78 3f 86 75 76 3f b3 f1 78 3f 02 c4 76 3f
       0.9725299 0.96273077 0.97243804 0.96392834
0000f0 9c b0 7a 3f 5e b6 79 3f 38 d2 78 3f fe ae 7c 3f
       0.97925735 0.97543895 0.9719577 0.98704517
000100 7a 5c 78 3f 9d 3a 7d 3f fe 4a 7c 3f 8a ac 76 3f
       0.9701611 0.9891756 0.9855193 0.96357024
000110 b0 92 79 3f 88 d9 78 3f d6 1a 79 3f e6 88 76 3f
       0.9748945 0.97206926 0.97306573 0.9630264
000120 5f ec 75 3f 40 ae 79 3f ac d0 7a 3f c5 2b 7b 3f
       0.960638 0.9753151 0.9797466 0.9811366
000130 cf f9 7a 3f 82 da 78 3f 2c d8 77 3f 01 15 79 3f
       0.9803743 0.97208416 0.9681423 0.97297674
000140 7d ea 7b 3f 0e 5d 76 3f b5 b5 77 3f e3 a2 7a 3f
       0.98404676 0.9623574 0.9676164 0.97904795
000150 8d 2d 7a 3f 57 00 79 3f 93 86 78 3f 4f 88 7a 3f
       0.97725755 0.97266144 0.97080344 0.9786424
000160 c9 75 78 3f 7a da 79 3f e3 df 7a 3f be 5d 7c 3f
       0.97054726 0.97598994 0.97997874 0.9858054
000170 f2 ae 77 3f 17 83 78 3f 41 e1 77 3f 98 f1 76 3f
       0.9675132 0.9707503 0.96828085 0.9646239
000180 62 2e 7c 3f 7c 9e 79 3f ad 4a 78 3f a9 48 79 3f
       0.98508275 0.9750745 0.96988946 0.97376496

bias f4 [100]
000000 3a d4 64 3e 2a 57 47 3e 20 da 2f be 6e bc 3e be
       0.22346583 0.19466844 -0.17173052 -0.18626568
000010 ca a6 66 3e e4 b8 33 be 4c 73 61 3e 97 e9 35 be
       0.22524562 -0.17550999 0.22016639 -0.17764889
000020 5a 08 65 be d9 76 34 be 13 39 3f be 89 1c 66 3e
       -0.22366467 -0.17623462 -0.18674116 0.22471823
000030 40 a0 65 3e 0b 19 70 be 14 0f 5e 3e af 7a 37 be
       0.22424412 -0.23447053 0.2168544 -0.17917894
000040 5b 5b 46 be 74 00 5d be 85 41 69 be f6 9b 55 3e
       -0.19370787 -0.21582204 -0.227789 0.20860276
000050 23 3b 50 3e 24 ad 67 3e b3 df 47 3e c2 e0 36 be
       0.20335059 0.22624642 0.19518928 -0.17859176
000060 55 0a 4d 3e 17 7e 38 3e 9a 43 6c be c7 02 3c be
       0.20023473 0.1801685 -0.23072663 -0.18360434
000070 6b 46 4f 3e 75 6a 36 be 76 4c 2e 3e 9d 9f 66 be
       0.20241706 -0.17814048 0.17021355 -0.22521825
000080 bf ad 4d 3e 8c 02 2d be 42 c2 68 3e a0 55 3b be
       0.2008581 -0.16895503 0.22730353 -0.18294382
000090 34 1f 62 3e ab 1a 39 3e bc 26 57 3e 9e 25 54 3e
       0.22082216 0.1807658 0.2101087 0.20717475
0000a0 45 13 59 be b1 56 60 be f2 10 55 3e 66 06 40 3e
       -0.21198757 -0.2190807 0.20807245 0.18752441
0000b0 0d 6f 64 be c3 b5 44 3e 48 f2 49 be 46 e0 40 be
       -0.22307988 0.19209962 -0.19721329 -0.18835554
0000c0 8b 24 6f 3e f0 ee 42 be 24 c0 6a be 47 4a 3d be
       0.23353784 -0.1903646 -0.22924858 -0.18485366
0000d0 fa 8b 2d be 76 17 45 3e 5d 82 69 3e b0 c3 26 3e
       -0.16947928 0.19247231 0.22803636 0.16285586
0000e0 c2 4c 34 be 48 ce 68 3e 65 c4 2d 3e 70 16 37 be
       -0.17607406 0.2273494 0.1696945 -0.17879653
0000f0 29 36 50 be 86 7d 47 3e 71 08 2e be 40 13 5a 3e
       -0.2033316 0.19481477 -0.16995408 0.21296406
000100 90 4a 28 be af 84 5e be 9f 5c 42 be eb 76 58 be
       -0.16434693 -0.21730302 -0.18980645 -0.21139114
000110 51 ce 39 3e b3 0e 46 be c3 4e 53 3e fc 47 3d be
       0.1814511 -0.19341545 0.20635514 -0.18484491
000120 a9 08 41 3e 93 d3 24 3e f4 39 68 be 00 27 58 3e
       0.1885096 0.16096334 -0.22678357 0.21108627
000130 98 ec 2c 3e b4 49 6c be d6 a4 5a be 93 13 5e be
       0.16887128 -0.2307499 -0.21351942 -0.21687154
000140 31 95 40 be ee ad 38 be a7 0f 68 3e be 77 4a 3e
       -0.18806912 -0.18035099 0.22662221 0.1977224
000150 d4 51 23 be 66 c9 3c be 49 a1 6b 3e ff ee 4e 3e
       -0.15949184 -0.18436202 0.23010744 0.20208357
000160 c5 85 3d 3e 56 10 63 be 03 ba 57 3e 84 d9 2e be
       0.1850806 -0.221742 0.21067052 -0.17075163
000170 f3 2a 69 3e b3 51 44 be b7 c8 2c 3e f2 f7 4a 3e
       0.2277029 -0.19171791 0.16873442 0.19821146
000180 0e a6 40 3e 9c 08 41 be 19 8c 34 3e b2 8a 22 3e
       0.18813345 -0.1885094 0.17631568 0.1587322

running_mean f4 [100]
000000 ca b8 ba 3e ba ae b8 3e b1 72 91 3e 08 c2 8f 3e
       0.36469108 0.36070806 0.28407815 0.28077722
000010 e8 f1 a2 3e 87 6d bc 3e 61 4f b6 3e f3 f0 00 3f
       0.31825185 0.36802313 0.35607436 0.5036766
000020 bc b3 d2 3e 2a a6 c8 3e ee 70 a5 3e 5b d6 9b 3e
       0.4115275 0.39189273 0.3231272 0.30436978
000030 4d 08 93 3e e9 ea be 3e ae e6 ac 3e ec 55 c8 3e
       0.2871727 0.37288597 0.33769745 0.39128053
000040 d4 85 d1 3e 47 c6 bb 3e 08 85 c5 3e df 1e ae 3e
       0.40922415 0.3667471 0.38578057 0.34007928
000050 a3 17 a0 3e 85 e0 ac 3e 5d 76 a7 3e 6d 68 a6 3e
       0.31268033 0.33765045 0.32707492 0.32501546
000060 02 5b 83 3e 59 2b ab 3e b0 a3 a2 3e 58 50 ae 3e
       0.2565537 0.3343151 0.3176551 0.34045672
000070 45 0d f3 3e 74 9f ce 3e 2f e7 a5 3e 10 f1 d4 3e
       0.4747106 0.40356028 0.32402942 0.41590166
000080 3b b4 95 3e fc 0f 9a 3e 5c fe d7 3e 0b 1a 97 3e
       0.29239067 0.3009032 0.42186248 0.29512057
000090 c3 b9 93 3e e6 3c b3 3e e2 81 b3 3e 4a 6f 92 3e
       0.28852662 0.350074 0.3506003 0.28600532
0000a0 59 ac c4 3e 22 04 c0 3e 43 84 a2 3e 90 5e a1 3e
       0.3841274 0.37503153 0.31741533 0.31517458
0000b0 7e a1 95 3e dc 20 ae 3e b1 34 ad 3e ab 13 c8 3e
       0.2922477 0.34009445 0.33829263 0.39077505
0000c0 91 4d c7 3e 74 2f 99 3e aa 5c 78 3e b8 8c ea 3e
       0.38926366 0.29919016 0.24254099 0.45810485
0000d0 a9 26 b0 3e c3 90 d4 3e 18 76 a9 3e 7d 65 b3 3e
       0.34404495 0.41516694 0.3309791 0.35038367
0000e0 f1 59 b6 3e 8b 04 aa 3e f6 53 cc 3e 0e c7 db 3e
       0.35615495 0.3320659 0.39907807 0.42925304
0000f0 e5 4b 97 3e 43 a0 bb 3e c1 fd b1 3e 39 17 de 3e
       0.2955009 0.36645707 0.3476391 0.43377092
000100 56 93 b9 3e f4 2c 87 3e 71 04 df 3e 37 e7 b6 3e
       0.3624522 0.26401484 0.43558076 0.35723278
000110 5c 69 ac 3e d8 7d fa 3e f4 49 d3 3e b0 ce bb 3e
       0.33674133 0.48924136 0.4126736 0.36681128
000120 2a b0 c9 3e 5c 68 c7 3e 9e ac a1 3e 52 a1 aa 3e
       0.39392215 0.38946807 0.3157701 0.33326203
000130 12 b4 f3 3e 5a f2 f1 3e bf 74 92 3e b8 e7 cd 3e
       0.4759832 0.47255212 0.28604695 0.4021585
000140 27 7b a2 3e 09 4b cd 3e ee a4 b3 3e 9c 08 bb 3e
       0.31734583 0.4009631 0.3508677 0.36530006
000150 e4 a6 c6 3e fc 4d b5 3e 8f 00 a3 3e a9 41 71 3e
       0.38799202 0.3541106 0.31836364 0.23560204
000160 b7 18 c9 3e 9a 62 e1 3e 28 0e ac 3e 53 4d c0 3e
       0.39276668 0.4402054 0.3360455 0.37558994
000170 df dc ca 3e a8 95 aa 3e 62 99 bd 3e a0 21 b4 3e
       0.39621636 0.33317304 0.37031084 0.35181904
000180 c6 0d e6 3e 08 2f a1 3e c9 5c a7 3e f5 5a d2 3e
       0.44932383 0.31481194 0.32687977 0.4108502

running_var f4 [100]
000000 3b 89 bc 3e 91 f8 b0 3e d0 69 e0 3e 12 a1 e0 3e
       0.3682345 0.3456464 0.4383073 0.43872887
000010 5e 17 68 3e 19 40 be 3e 8c 8e c1 3e e4 fe af 3e
       0.22665164 0.37158278 0.37804067 0.34374154
000020 43 76 b1 3e 6d 6e 25 3f 76 db f4 3e 92 6d f3 3e
       0.3466054 0.6462162 0.47823685 0.47544533
000030 34 27 d7 3e ba 97 ee 3e a8 84 81 3e 6d 0a a1 3e
       0.42022097 0.46600133 0.2529652 0.31453267
000040 fc f0 d3 3e be aa 92 3e fd f7 ec 3e 99 31 65 3e
       0.41394794 0.2864589 0.4628295 0.22382201
000050 93 c3 ff 3e 1f 69 b1 3e 87 07 64 3e 62 d2 8e 3e
       0.499539 0.34650514 0.22268496 0.27894884
000060 48 48 ce 3e 01 b1 a9 3e e8 6a 5c 3e f6 aa 7f 3e
       0.4028952 0.33142856 0.21525156 0.2496756
000070 c4 70 64 3f ef 7d 19 3f b3 30 82 3e e8 19 a9 3e
       0.89234567 0.59957784 0.2542778 0.33027577
000080 d2 b9 46 3e af 45 5e 3e 02 75 71 3e cf 9b f0 3e
       0.19406822 0.2170627 0.23579791 0.46993873
000090 c6 a0 ac 3e fd 78 b9 3e 8a 08 82 3e f6 4d ea 3e
       0.3371641 0.3622512 0.2539714 0.45762604
0000a0 d6 9a b3 3e 16 71 97 3e 2d 82 a4 3e 63 54 f9 3e
       0.35079068 0.29578465 0.32130566 0.48697194
0000b0 32 4a 61 3e 41 15 a0 3e aa eb 9e 3e db d0 ab 3e
       0.2200096 0.31266215 0.31039172 0.33557782
0000c0 fc af 08 3f de a8 79 3e 89 33 b2 3e 35 ff 33 3f
       0.5339353 0.24380824 0.34804943 0.7031129
0000d0 1c d8 e7 3e 69 21 08 3f 08 5a 8d 3e 6d 7e b4 3e
       0.45282066 0.5317598 0.2760775 0.35252705
0000e0 df 61 db 3e de 75 cf 3e cb e5 aa 3e 4a 68 e2 3e
       0.42848107 0.40519613 0.33378443 0.4422019
0000f0 ec 9e 94 3e 6a 83 d4 3e b3 7f a2 3e 8b 93 b5 3e
       0.29027498 0.4150651 0.31738052 0.3546413
000100 ee ee a6 3e 31 a9 db 3e cd 56 bb 3e 12 ae e8 3e
       0.32604164 0.4290252 0.3658966 0.45445305
000110 0d 92 dc 3e 0d d1 95 3e 82 2c d0 3e 74 5b a7 3e
       0.43080178 0.29261056 0.40658957 0.3268696
000120 0a 7b 5e 3e eb e3 16 3f 06 d4 bf 3e 0d f9 9d 3e
       0.21726623 0.58941525 0.3746645 0.30854073
000130 7d ee e0 3e 02 da 9e 3e 76 e4 3d 3e 26 26 36 3f
       0.43931952 0.31025702 0.18544182 0.7115196
000140 bb fa d9 3e 46 bc 1b 3f 6d 1d 77 3e 41 74 20 3f
       0.42574105 0.6083416 0.24132319 0.6267739
000150 ae 54 ca 3e 95 06 6d 3e 76 45 7e 3e ab 11 9e 3e
       0.3951773 0.23147042 0.24831185 0.30872855
000160 46 11 b5 3e 83 62 da 3e c7 b7 c5 3e af 4a ce 3e
       0.3536474 0.42653283 0.38616773 0.40291354
000170 45 6b ba 3e 4a a4 01 3f 8a 99 94 3e a2 72 72 3e
       0.36409965 0.5064131 0.2902339 0.23676541
000180 52 75 d9 3e 00 dd 94 3e 60 c9 e6 3e 8d 7c e8 3e
       0.4247232 0.2907486 0.45075512 0.45407525
