female_model_religion.pkl (torch, 164863 bytes, 16 tensors)

weight f4 [13]
00000000: 53a0 573f 0b4a 5e3f 1f6d 523f 2223 5f3f
00000010: 0a59 573f 19b5 533f a892 5d3f 3bfc 503f
00000020: 4b27 5a3f 1498 5c3f 54ad 563f 6cb5 563f
00000030: 4836 603f
0.8422901 0.8683173 0.82197756 0.87162983 0.8412024 0.8269821 0.86551905 0.81634873
0.85216206 0.8616955 0.8385823 0.8387058 0.87582827

bias f4 [13]
00000000: 6c05 40be eeac 41be 6203 31be 51c6 2bbe
00000010: 72e7 2cbe 7410 3ebe c157 3ebe 6e21 44be
00000020: 301f 35be 606c 37be 6795 34be b906 2ebe
00000030: d9e1 2ebe
-0.18752068 -0.18913624 -0.17286447 -0.1677487 -0.16885164 -0.18560964 -0.18588163 -0.19153377
-0.17687678 -0.17912436 -0.17635117 -0.16994752 -0.17078342

running_mean f4 [13]
00000000: 5430 54bb 78c5 343d 9ae6 4c3c 4864 83bc
00000010: 00a6 023a 2725 463b c4ff 24bc c979 63bc
00000020: cc5e 5a3c 0892 f33c d8f3 d3ba e088 3cbc
00000030: eeb9 133d
-0.0032377439 0.044133633 0.012506152 -0.016039029 0.00049838424 0.0030234547 -0.010070745 -0.013884016
0.013328265 0.029732719 -0.0016170694 -0.011507243 0.03606599

running_var f4 [13]
00000000: be8d 843f 987a 7d3f 9931 833f ab87 793f
00000010: 1c97 7d3f d587 813f 9e43 7c3f 9745 7c3f
00000020: 8cfe 8f3f 00f2 8c3f 085b 7b3f 7385 7d3f
00000030: 095f 923f
1.0355756 0.9901519 1.0249511 0.9747264 0.990587 1.0119578 0.98540676 0.98543686
1.1249557 1.1011353 0.9818578 0.9903175 1.1435252

weight f4 [200, 13]
00000000: ba05 61be 7d20 aa3d fe6c 5f3d a07e b43d
00000010: 4db3 593e 87e6 423d 7efe 53be cfe3 c13d
00000020: eded 5bbe 2e7c 86be 554f 46bd 041f 3f3e
00000030: f29d 203e 9567 ef3d f03d ec3d 58c6 343e
00000040: af3c 51be 70ff fe3d cf70 3ebd eb16 3abe
00000050: 290a 8f3d 2004 a0bd 0ce2 78bc 4aac 19be
00000060: a235 f4bd 249f 0c3d d7d4 a1bd 2547 303e
00000070: d390 623e ad36 143d 4845 113e 070a 53be
00000080: 7456 993d 06ce ebbd f5af 883e f296 17bd
00000090: d4b6 dcbd 8522 853d 7299 ad3d 8085 6c3e
000000a0: 61ba 373e 7284 78be 927b 4f3e 4f87 293e
000000b0: 753c 8a3e ac3f 40be a000 433e 3779 3a3d
000000c0: aafd 493d aef8 793e bf39 6f3e 4842 0e3d
000000d0: 3d29 7a3e a789 ec3d cbb7 ca3c b958 91bd
000000e0: 202e 303e 9669 f53d d682 543e 99af 963d
000000f0: ae35 42be 2443 d13b 3329 7cbe c98f 7c3e
00000100: e67d 0b3d 8bf9 0bbd 5892 623e a76b 773c
00000110: 658e 01be 4e97 0f3d 1876 a4bd fcc6 683e
00000120: 0fcd 0fbe 28c6 bb3c 89b1 613e a908 5cbe
00000130: d94c 073e 6d21 89be cd42 ba3c 4271 b03d
00000140: 62a1 b63c 4a18 033d 256b fdbd 2c1b 45be
00000150: 12c4 04bd 6813 85be 7dca 0a3d 68ee 613d
00000160: 40dd 8b3d 305e 7f3e 694b 363d 777e 82be
00000170: 085d dabd 8415 ed3d f387 f9bc 8283 1cbe
00000180: a7c5 c6bd 7001 7abe d94b 283e 26fe 3ebd
00000190: 0252 933e 41c6 96bd 7d6b 2e3e 045f dbbd
000001a0: 6e8a 3b3e cd44 5cbe e26f 63be af20 d13d
000001b0: 895a f5bd b352 773e 03fb 5a3e 8a7c 3dbe
000001c0: bf41 7fbc b858 923e caad 813e 3cef 8c3e
000001d0: 8b5e 48be 3ee8 3bbe 6f8a b5bd ea1f f6bd
000001e0: 5460 743e 2add 55be 4d7d 80be 833e 463e
000001f0: 12f4 a23d 61d1 7c3e 7bb8 2f3e 9c9d 86be
00000200: 9bbb 7b3e 168b 733e 6dc8 d83d 317b 01bd
00000210: 44a2 573e 006f 583e 2f6f ccbd 1151 853e
00000220: f6c5 463e fa89 d83c 6d9a 32be 6237 173e
00000230: 3016 a1bc c258 72be efd7 d13d 823b 92bd
00000240: e2a2 343e b638 643e 137e 213e 6fc7 3a3e
00000250: 43a7 1b3e 252d 09b9 b3c5 12be 8e95 ef3c
00000260: cfa3 0d3e 088c a73d 57f6 813e 9542 613c
00000270: 7fb8 923c b209 8f3e 92b9 a23d edfd 053e
00000280: 095e d03c b8c5 a0bd d446 143e 5806 123e
00000290: 23e5 8a3e ee38 51be ff77 4fbe 33e3 c53d
000002a0: f113 40bd 40cc 05bd 5715 853e 9020 e2bd
000002b0: 4ead 92bd 1c48 2dbc c5a7 cc3d 9195 d6bd
000002c0: dcfe 233e 0c36 62be a14c 813c b2b5 b6bc
000002d0: 4d8d 10be 072d 5f3d 6db2 e9bd d688 2f3e
000002e0: 22fb dbbd 2f3e 463e 2a86 773e a336 a73d
000002f0: a786 2d3e 3e76 4e3e 0409 69be 87e9 59bd
00000300: 67bf 9f3d 0c29 fd3d 473a 07bd 8973 623d
00000310: efe5 2dbe 9746 513e 15d0 a0bd a7f2 54b8
00000320: a957 9f3b f81a a6bc ee6f 06be 4bbe 2f3c
00000330: 53c7 b53c 7bf9 3e3d 979e 90bd 6cc7 78be
00000340: 5fb1 1d3d c125 d83d 9cbb 423e 7d02 18be
00000350: 2c85 e4bc e1e2 dbbd 5dae 273e 3825 923e
00000360: 7022 53be 466f 69be a174 6fbe c660 ea3d
00000370: d608 51be 58c0 003e 5867 2c3e 7439 8ebe
00000380: a256 003e c7a1 2c3e 8cb2 2b3e 6361 95bd
00000390: cc35 423e e98b 1fbe d535 873e 07e9 383e
000003a0: 20f8 a7bd ebfd 313e 5d28 8c3b 935e ec3d
000003b0: dafd 50be 0fae f7bd 25c9 323d f38b 83be
000003c0: 491e 333e ad1a e9bd cae1 fb3d 03c5 41be
000003d0: 400d d13c b428 80be c0c7 03bd 5b63 f43d
000003e0: 6f67 413e 53eb 4fbe 0006 cebc 71fb 9a3d
000003f0: e59f d03d 3fac 2b3e 7079 4bbe 1e87 703e
-0.21974841 0.08306978 0.054547302 0.08813214 0.21259804 0.04758313 -0.2070255 0.09467279
-0.2147748 -0.26266617 -0.0484155 0.18664175 0.15685251 0.116896786 0.11535251 0.17653787
-0.20433305 0.124510646 -0.0464943 -0.18172805 0.0698436 -0.07813287 -0.0151906125 -0.1500713
-0.11924292 0.034331456 -0.07901924 0.1721464 0.22125559 0.036184955 0.14186585 -0.20609294
0.07487193 -0.11513905 0.26696745 -0.037009187 -0.10777059 0.06500725 0.08476533 0.23097801
0.17942192 -0.24269274 0.20261982 0.16555522 0.2699925 -0.18774289 0.19043207 0.045525756
0.04931418 0.2441127 0.23361872 0.03473118 0.24429794 0.115496926 0.024745842 -0.07097001
0.17205095 0.119830295 0.20753035 0.07357711 -0.1896579 0.0063861776 -0.24625091 0.24664225
0.034055613 -0.03417353 0.22126138 0.01510135 -0.12651975 0.035056405 -0.08030337 0.22732157
-0.14043067 0.022921637 0.2204038 -0.21487679 0.13212909 -0.26783314 0.022736931 0.08615352
0.02229375 0.032005586 -0.12373952 -0.19248646 -0.03241355 -0.25991368 0.033884514 0.055159003
0.068293095 0.24938273 0.04450551 -0.2548711 -0.106622756 0.115763694 -0.030460333 -0.15284541
-0.09705668 -0.24414611 0.16435184 -0.046629094 0.28773504 -0.07362033 0.17033191 -0.10711482
0.18314525 -0.2151062 -0.22210649 0.10211312 -0.11980159 0.24152641 0.21384816 -0.18504539
-0.01557964 0.28583312 0.25327903 0.2752627 -0.19567315 -0.18350312 -0.08864295 -0.12017806
0.23864871 -0.20885149 -0.25095597 0.19359784 0.07956709 0.24689247 0.17160217 -0.2629212
0.24583285 0.23783526 0.10585103 -0.031611625 0.21057993 0.21136093 -0.09982144 0.2603841
0.19411454 0.02643298 -0.17441721 0.1476722 -0.0196639 -0.23666671 0.10246264 -0.071402565
0.1764026 0.22287259 0.1577075 0.1824014 0.15200524 -0.00013082156 -0.14333229 0.029246118
0.1383202 0.08181006 0.25383255 0.013748785 0.01791024 0.27937084 0.07945551 0.13085146
0.025435464 -0.07850212 0.14480144 0.14260232 0.27127942 -0.20431873 -0.20260619 0.096624754
-0.046894018 -0.03266549 0.25992844 -0.11041367 -0.071619615 -0.010576274 0.09992937 -0.10477746
0.1601519 -0.2209093 0.01578361 -0.022303436 -0.14116402 0.0544863 -0.11410985 0.17142043
-0.10741259 0.19359659 0.24172273 0.08164718 0.16945897 0.20162293 -0.22757345 -0.053201225
0.07800179 0.12361345 -0.033014562 0.055285964 -0.16982244 0.20437084 -0.078521885 -5.0770726e-05
0.004862745 -0.020276532 -0.13128635 0.010726522 0.022189772 0.046624642 -0.070614986 -0.24294823
0.038499232 0.10554076 0.1901688 -0.14844699 -0.027895533 -0.10736633 0.16375108 0.2854402
-0.20618606 -0.22796354 -0.23384334 0.11444239 -0.20413527 0.12573373 0.16836298 -0.27778208
0.12533048 0.16858588 0.16767329 -0.07293966 0.18965834 -0.15580715 0.26408258 0.18057643
-0.08201623 0.17382018 0.0042772726 0.11541476 -0.20409337 -0.12093746 0.043648858 -0.2569271
0.17492022 -0.11382041 0.12298925 -0.1892281 0.025519013 -0.25031054 -0.03217292 0.11933013
0.18887113 -0.20304613 -0.025149345 0.0756749 0.101867475 0.16764925 -0.19870543 0.23489043

weight f4 [200]
00000000: 05f5 803f 6c3e 813f d211 7c3f c647 823f
00000010: 75e3 7f3f 7bfc 823f 33f1 813f 734d 7f3f
00000020: dd9d 803f 3416 813f eaea 803f 680d 7f3f
00000030: 56d6 813f 8ef5 7f3f 7433 803f 5302 7f3f
00000040: 0bc4 7f3f 9a3b 803f f438 813f 9115 7c3f
00000050: 018d 7d3f e28e 7e3f 538c 823f de99 7f3f
00000060: b339 823f 7f9f 803f 453a 7c3f 2b48 7f3f
00000070: 7c54 7f3f 7e19 7e3f 5a6c 7f3f 8d4a 803f
00000080: a476 7e3f f12b 7e3f 9048 803f 1202 7c3f
00000090: fef5 7b3f c996 813f 1391 833f d664 803f
000000a0: 86a4 833f 19cb 803f 1486 813f 9239 7e3f
000000b0: 84ac 7c3f 8457 7f3f 0c40 7c3f 332c 823f
000000c0: 0265 7f3f 3415 7d3f 3f91 803f 117f 813f
000000d0: 16b3 7f3f a050 803f cde3 7d3f a6c7 7b3f
000000e0: 5757 813f a527 7c3f 3ec2 803f bc82 803f
000000f0: 74aa 7d3f 87c4 803f bf60 7b3f 9fc0 7f3f
00000100: de02 7e3f 440a 7c3f c319 7b3f 9348 833f
00000110: 4a8e 7c3f 9af3 803f 4494 7f3f 29d3 803f
00000120: 24ab 823f c892 813f 9c9b 793f 703a 7e3f
00000130: 0056 7e3f d0d7 7d3f 1a28 803f 3342 803f
00000140: a41a 7e3f 0acc 813f bbaa 803f 01a1 7d3f
00000150: 61ff 813f 20ff 813f 82f2 7a3f 66a1 7d3f
00000160: 806e 7f3f 98ec 803f a847 7a3f cd8b 7d3f
00000170: 0f3d 7f3f bd71 803f 49d8 7f3f d5dc 823f
00000180: c5b3 7e3f d388 7f3f 26f1 7d3f 2b52 7a3f
00000190: 4a21 7d3f 5023 803f 8489 7c3f ad96 823f
000001a0: 36e5 7e3f d627 803f 2c74 813f 2a6b 7c3f
000001b0: 98f3 7f3f b5bf 793f 72d3 7f3f 30a9 7f3f
000001c0: c48a 833f 17e4 793f 4dc1 813f 8aed 7f3f
000001d0: eddc 7b3f 2481 7e3f 1486 7e3f a873 813f
000001e0: 68cb 763f 5008 7f3f 7fbf 7d3f c41d 823f
000001f0: 922f 813f 34a1 813f c11b 813f bd86 7e3f
00000200: 7451 7c3f e438 803f a058 823f 5086 823f
00000210: 9e88 7f3f a725 813f 1c13 7e3f f031 823f
00000220: 1353 7d3f c607 803f cfaf 7f3f f472 7f3f
00000230: 77bd 7f3f 104e 7f3f efa3 7f3f 797f 813f
00000240: b4ae 7d3f 9e40 813f 26f7 7b3f 134c 803f
00000250: 4b6d 803f d3af 813f 9364 7d3f 01fd 813f
00000260: 64e2 7f3f f735 803f ab99 7d3f 8694 7d3f
00000270: 886c 833f 8429 7f3f 50cc 7f3f 1745 803f
00000280: 5317 7e3f 993b 7e3f 4514 803f 70b6 833f
00000290: 066d 7c3f f5ca 7c3f 28f2 7c3f 6440 803f
000002a0: 52db 7f3f ca81 803f b5e6 7d3f 43f4 813f
000002b0: 6b59 813f 564b 803f 5d3f 813f e439 7f3f
000002c0: c4f3 7b3f 3412 7f3f 5428 7e3f 7884 7e3f
000002d0: 9d72 813f c3e9 803f 8824 803f 228e 7e3f
000002e0: 85b3 7d3f 67c5 813f 0c32 813f f226 7f3f
000002f0: 8a69 7e3f 70de 833f 0397 7f3f e015 7d3f
00000300: 8d67 7d3f 816d 833f d1d1 813f 6a97 803f
00000310: 2e7f 7a3f 5b49 7d3f 8761 7e3f 88df 813f
1.0074774 1.0097175 0.9846469 1.0178154 0.99956447 1.0233301 1.0151733 0.99727553
1.0048176 1.0084901 1.007169 0.9962983 1.0143535 0.9998406 1.0015702 0.9961292
0.9990851 1.0018189 1.0095506 0.9847041 0.9904328 0.9943677 1.0199074 0.9984416
1.0173858 1.0048674 0.9852641 0.99719495 0.9973829 0.9925765 0.99774706 1.0022751
0.9939978 0.992858 1.0022144 0.9844066 0.9842223 1.0124141 1.0278648 1.0030773
1.0284584 1.006198 1.0119042 0.99306595 0.9870074 0.99742913 0.9853523 1.0169739
0.997635 0.9886048 1.0044326 1.0116903 0.9988264 1.0024605 0.9917572 0.98351514
1.0104779 0.9849799 1.0059278 1.0039897 0.99088216 1.0059975 0.981945 0.9990329
0.99223125 0.98453164 0.98086184 1.0256523 0.98654616 1.0074341 0.9983561 1.0064441
1.0208478 1.0122919 0.97503066 0.9930792 0.99349976 0.9915743 1.0012238 1.0020202
0.992594 1.0140393 1.0052103 0.990738 1.015606 1.0155983 0.9802629 0.990744
0.99777985 1.0072203 0.9776559 0.99041444 0.99702543 1.003471 0.999394 1.0223643
0.99493057 0.9981815 0.9919609 0.9778163 0.9887892 1.0010777 0.9864733 1.0202233
0.995685 1.0012157 1.0113578 0.9860102 0.9998107 0.97558147 0.99932015 0.99867535
1.0276723 0.9761366 1.0137116 0.9997183 0.9838398 0.994158 0.99423337 1.011342
0.96404123 0.9962206 0.99120325 1.0165334 1.0092642 1.012732 1.0086595 0.99424344
0.9856179 1.0017362 1.0183296 1.0197239 0.99817836 1.0089616 0.9924791 1.017149
0.98954886 1.0002372 0.9987764 0.9978478 0.99898475 0.9972849 0.9985952 1.0117027
0.990947 1.0097845 0.98423994 1.0023216 1.0033354 1.0131782 0.9898159 1.0155336
0.9995482 1.0016469 0.99062604 0.99054754 1.0267496 0.9967272 0.9992113 1.0021085
0.9925434 0.9930969 1.0006186 1.029005 0.98603857 0.9874719 0.98807 1.001965
0.9994403 1.0039608 0.99180156 1.0152668 1.0105413 1.0022991 1.0097462 0.9969771
0.9841883 0.9963715 0.99280286 0.9942088 1.0113102 1.0071338 1.0011148 0.9943563
0.9910205 1.0138367 1.0093398 0.996688 0.9937979 1.0302258 0.998398 0.98861504
0.9898613 1.0267793 1.0142156 1.0046208 0.9785031 0.98940057 0.99367565 1.0146341

bias f4 [200]
00000000: 9059 0abc f0a1 9f3b f23f 39bd d9b2 ff3c
00000010: 7714 cc38 7afd 643c b950 18b9 010a 643b
00000020: 6c3a d23c aef7 8fbc 7c11 25bc ffc1 7bbc
00000030: 3b67 06bb 0e4c 183c d9b5 87bc 6d7b 38b9
00000040: d9d2 2e3a e529 c23c 9f1c 923c 62ad 973b
00000050: dc34 f2bb e5e9 563c 8536 333b ed90 08bd
00000060: 9cc1 9ebb 864f 19ba 69ba 473c 8c73 093c
00000070: 16c1 873c 8d1f b63c 3029 053c 507f 1cbc
00000080: 7611 3abc f002 dc3b 9cb3 ab3c be57 0a3c
00000090: fe11 a6bb f2c8 67bc 8e8d 343d e1bf b63c
000000a0: fd46 6fbc 4a00 863c 1c6d 0fbb faaa 43bc
000000b0: 3221 90bc 895a 073d 500f 143d 74ff 35bc
000000c0: 10d8 f13b 7afb 0d3d a376 193b 9ccf 993c
000000d0: 3ebf bbbc d8d5 093c 79b7 debb f146 d23a
000000e0: 07ff 8f3c 830c 1b3a 7f8b ec3c 01dc ea3c
000000f0: d240 bdbc 2db3 15bd 5871 a73b c389 5bbc
00000100: 5afb f0bc 3740 b9bb f471 e6bc 0aab c83c
00000110: c50a 62bc ed15 74bb be48 653b 81d2 803c
00000120: 6564 bc3b be09 223c 0686 a73c 595a 903c
00000130: 6bb0 a2bc 9ba1 c9ba 151d 28bc 37e6 5fbc
00000140: f530 3d3b a575 dd3c 459e 763c b03b e13a
00000150: a670 0b3c 745e c3bc 2f4f 153c a190 6cbc
00000160: 8238 e23b 493e 8fbb ca26 663c 14a1 063c
00000170: 415b 28bc 55b4 583c 63f0 99bb 1a58 51bc
00000180: a389 13bc 9ad5 a23b 29eb 093d 5725 823b
00000190: 7687 cd3b cc26 a23c 2903 98bc 700f e4bc
000001a0: 5572 afbc cb21 923a 9514 613c a456 083d
000001b0: 4285 123b 0ab0 9dbb 1a4f 83bb f585 4c3c
000001c0: 69d4 b0bc 5eb2 c7bc c91d 163c daf1 e83c
000001d0: 1729 c9bc e4e4 983c ba67 37bb 0dbf b93b
000001e0: 182f 41bc 50fd 94ba cf97 03bc 2e56 003c
000001f0: c710 fbbc 77cb cdbc 7d05 0bbd 4461 91bb
00000200: 0ebb 953c 2ab4 8a3c 31d5 213c ee1a d73c
00000210: d2d7 033c 5a44 843c 0cd5 323a 2a31 97bc
00000220: 8ac9 823b d60d 59bc a23c 18bb 7409 fb3a
00000230: f35d a1bb d086 803c e5dc 153c f852 09bc
00000240: a145 55bc 93d7 c5bb 04c1 093c 0380 c6bc
00000250: 93d0 db3b 05f8 513c 81cd 75bc 019f 9ab9
00000260: 5b87 913a 3b40 9bbc b79b c9bb 9f8b 973b
00000270: 7c0b d3ba d8eb 0bbd 307a 39bb 4c10 4c3c
00000280: 9ba0 44b9 f643 3abb 67b9 4c3c 8a54 ce3a
00000290: 1c4c 433b e933 3b3b 2db3 e3ba 0d2f adbc
000002a0: 3078 4fbc 2042 94bc de9d 56bc af0e 27bc
000002b0: ad67 a63c b2ab 55bc 5fbd 65bb c996 a7bb
000002c0: b20c 873b a6f3 b23c fff8 8b3c f1ab bbbc
000002d0: aadb 5d3c 1592 983c efa5 6c3c 5433 013c
000002e0: badc 03bc 8a40 cb3b aac1 a9bc cd35 acbc
000002f0: 7c88 15bc b382 4d3c 1e3b 353b ad0b b83a
00000300: 2347 3f3c 3e21 7bbc 6afc fc3c aca2 043a
00000310: 02c3 25bb b66d f9b9 edd7 303c f274 993b
-0.008444205 0.0048715994 -0.045227 0.03121321 9.73129e-05 0.013976449 -0.00014525921 0.0034796002
0.025662623 -0.017574158 -0.010074969 -0.0153660765 -0.0020508307 0.009295477 -0.016566204 -0.00017593587
0.0006668992 0.023701617 0.017835913 0.004628823 -0.0073915552 0.013117288 0.0027345729 -0.033341337
-0.0048448574 -0.0005848337 0.01219044 0.008389365 0.016571563 0.022231841 0.008127496 -0.009551838
-0.011356702 0.0067142174 0.020959668 0.008443771 -0.005068063 -0.01414703 0.04408031 0.022308292
-0.014604327 0.01635756 -0.0021885103 -0.011942619 -0.017593954 0.033045325 0.036147416 -0.011108268
0.007380493 0.034663655 0.002341666 0.018775754 -0.02291834 0.008412801 -0.006796774 0.0016042871
0.017577661 0.0005914645 0.02887511 0.02866936 -0.023102198 -0.03654783 0.005109947 -0.013399544
-0.029416729 -0.005653407 -0.028130509 0.02449562 -0.013796513 -0.0037244514 0.0034985985 0.015725376
0.0057492726 0.009890018 0.02044965 0.017621206 -0.019859513 -0.0015383245 -0.01026084 -0.013665727
0.0028868292 0.027033636 0.015052383 0.0017183926 0.008510744 -0.02384875 0.009113117 -0.014438779
0.006903709 -0.0043714386 0.014047334 0.008217115 -0.010275663 0.013226588 -0.004697846 -0.012777353
-0.009004983 0.004969311 0.03367153 0.0039717364 0.0062722517 0.01979389 -0.018556194 -0.027839392
-0.021416822 0.0011148987 0.013737817 0.033285752 0.002235726 -0.0048122453 -0.0040072324 0.01248311
-0.02158566 -0.024377044 0.009162375 0.028435636 -0.024555726 0.018663831 -0.002798541 0.005668527
-0.011791013 -0.0011366997 -0.008031799 0.007833047 -0.030647648 -0.025121434 -0.03394078 -0.004436644
0.018277671 0.016931612 0.009877489 0.026257958 0.008047061 0.016145874 0.00068219076 -0.01845606
0.0039913105 -0.013247928 -0.00232295 0.0019152598 -0.0049245297 0.015689284 0.009146904 -0.008381598
-0.013017089 -0.0060376613 0.008407835 -0.024230963 0.0067082136 0.01281548 -0.015002609 -0.00029491636
0.0011102961 -0.018951526 -0.006152596 0.0046247984 -0.0016101445 -0.034160465 -0.002830159 0.012455057
-0.00018751847 -0.0028421856 0.012495375 0.0015741747 0.0029800003 0.0028564876 -0.0017372124 -0.0211406
-0.012662932 -0.018097937 -0.013099162 -0.010196372 0.020313108 -0.013041424 -0.00350555 -0.0051144105
0.0041213864 0.021844696 0.017086504 -0.022909136 0.0135411415 0.018624345 0.0144438585 0.007885773
-0.008048231 0.006202762 -0.020722229 -0.021021748 -0.009126779 0.012543368 0.0027653645 0.0014041566
0.011674675 -0.01532775 0.03088208 0.00050596404 -0.0025293236 -0.00047574722 0.010793668 0.0046831304

running_mean f4 [200]
00000000: 2470 573e 8df4 173e c131 d23d 1444 0d3e
00000010: 0aaa db3d fcaf 413e c4cc 2f3e 8723 773e
00000020: b3d9 423e d9d5 193e 94e4 283e d7c2 0f3e
00000030: 3c7b df3d 8cfa 1f3e 444d f33d bfad 1c3e
00000040: c9a0 673e 9feb 103e 2bf8 833e bd34 163e
00000050: 7d65 aa3e 0548 133e 1b1f 523e cc3f 5a3e
00000060: 1fbc 7f3e 74fb 223e ac4e 083e 8155 843e
00000070: 3b3d 403e e81b 183e 95b7 753e 9a9f 1e3e
00000080: 6579 b93d 076d 913e ad8e 253e 18c9 863e
00000090: 1a2c 043e 09cf 9a3e 2705 2d3e a7c6 b73d
000000a0: 9598 243e 8c2d 773d 9bd7 7c3e cecc 1d3e
000000b0: a4d5 593e ad5a 693e f6fd e43d 48e8 2c3e
000000c0: 6c22 863e 667c 4a3e 5bbb 893e 0f00 633e
000000d0: 160f 953e 1bfe 6e3e 9e32 383e bc2e 373e
000000e0: 1fd1 f33d 6298 c43d 1f00 f73d 91b9 233e
000000f0: e613 9f3d 68f1 463e 6272 5e3e c64f 193e
00000100: dcab 663e 7590 973e 0f06 753e b9ae 323e
00000110: 187d 4e3e b809 1e3e 93bb 1d3e c0cd a43e
00000120: d039 9f3e efa5 593e 403d 013e 2b49 843e
00000130: 76ef 603e 0ea7 f83d c955 293e ecd6 163e
00000140: e6ae 7a3e 4bf8 fb3d 95ed 643e 460b 893e
00000150: 6b85 9a3e eaed 213e eb24 533e 724e ef3d
00000160: bcd9 4d3e 35e1 e43d c6c4 273e d61b 233e
00000170: 1518 503e 8216 463e 625f 363e ca91 4a3e
00000180: 49ae a43e acbf 1a3e e539 843e 46a1 123e
00000190: 6394 343e 2648 843e 624c 4b3e 6e1a 7a3e
000001a0: 664a 1b3e 95d4 993e 1d29 1c3e a8ca 3e3e
000001b0: 2885 173e 55d2 5a3e cf89 023e fc4e a43e
000001c0: ce9a 593e 453d 353e d9ed 373e 3ff9 523e
000001d0: 391d 573e ea2b 0f3e aa32 273e 434e 3a3e
000001e0: ced3 0c3e 1219 003e 0f78 453e 8894 113e
000001f0: 00f6 e73d d0ff 833e 4679 ca3e f80b 553e
00000200: bb47 873e 8134 583e 4dd2 7c3e 0b5c 4d3e
00000210: 94e4 493e 5353 1a3e a212 243e db28 223e
00000220: cb65 533e e79a 3f3e 8c50 3e3e a2bb 323e
00000230: 2ee7 fa3d 706c 4a3e eed8 3e3e bde9 1e3e
00000240: 672a 563e 0b46 993d 61f0 493e 0644 2d3e
00000250: 6648 213e e88a 2a3e 3f45 273e eb62 323e
00000260: e5c3 913e 1c3a 843e ea95 7c3e 2932 cb3d
00000270: 10e9 f23d aa92 9d3e 40de 763e ff53 553e
00000280: 114b 063e c79b 273e bc29 d43d fed3 3e3e
00000290: 5c60 583e b7d0 3e3e f24b 423e faaf 3a3e
000002a0: 5e14 893e 9eae 953e 3823 3a3e 64f2 203e
000002b0: 8871 473e faf4 143e f92e ae3e 9755 063e
000002c0: 9398 cc3d 9a7a 4b3e 1eba da3d 5328 493e
000002d0: b1ec 673e 5c8c 0c3e 3dee 2d3e 0a72 743e
000002e0: 2590 1a3e 526a 823e 17b4 313e 18d3 363e
000002f0: 6344 8f3e 8d7a 863e 35bc 3c3e 3d26 283e
00000300: 6337 503e bcc9 513e c2bc 4f3e 197e 153e
00000310: c6c5 3a3e a34a 4c3e 2e70 1d3e 3a1d 323e
0.21038872 0.14839382 0.10263396 0.13795501 0.10725792 0.18914789 0.17167956 0.24134646
0.19028358 0.15022983 0.16493446 0.14039169 0.10912177 0.1562292 0.118799716 0.15300654
0.22619928 0.14152382 0.25775275 0.14668556 0.33280554 0.14382942 0.20519678 0.21313399
0.24974106 0.15916234 0.13311261 0.25846484 0.18773358 0.14854395 0.23995812 0.1549057
0.09056357 0.28403494 0.16167708 0.26325297 0.12907448 0.3023608 0.16896497 0.08973437
0.1607383 0.06034617 0.24691622 0.15410158 0.21272904 0.22788496 0.11181252 0.16885483
0.26198137 0.19774017 0.26900753 0.22167991 0.29113072 0.23339121 0.17988059 0.17888921
0.11905121 0.09599377 0.1206057 0.15988757 0.07767467 0.19428027 0.21723321 0.14971837
0.22526497 0.296024 0.23928092 0.17449464 0.20164907 0.15433395 0.15403585 0.32188225
0.31098795 0.21254705 0.12621021 0.25837073 0.21966347 0.12141238 0.1653663 0.14730424
0.24480781 0.123032175 0.22356255 0.26766413 0.30179915 0.15813413 0.20619552 0.11684884
0.2010259 0.11175767 0.16383657 0.15928587 0.20321687 0.19344524 0.17809823 0.19782177
0.3216422 0.1511218 0.2582542 0.14319333 0.1763473 0.25836295 0.19853356 0.24424145
0.151651 0.30045 0.15250058 0.18631995 0.14796889 0.21369298 0.12747882 0.3209151
0.2125046 0.17699154 0.17961825 0.20602892 0.21007241 0.13981596 0.1632792 0.18193917
0.13752672 0.12509564 0.1928408 0.14216816 0.11326218 0.25781107 0.3954565 0.20805347
0.26421914 0.21113779 0.24689598 0.20054643 0.19716102 0.15070848 0.16022733 0.15835898
0.206443 0.18711434 0.18585414 0.17454389 0.12251125 0.19767928 0.1863744 0.15518852
0.20914613 0.07484063 0.19720604 0.1692048 0.15750274 0.16654551 0.16335009 0.17420547
0.28469768 0.25825584 0.24666563 0.09921677 0.118608594 0.30775958 0.24108219 0.20832823
0.13114573 0.16368018 0.10359523 0.18635556 0.21130508 0.18634306 0.18974283 0.18231192
0.2677335 0.29234785 0.18177497 0.15717465 0.19476902 0.14546576 0.34020212 0.13118587
0.09990039 0.19870988 0.1068003 0.19644289 0.22648884 0.13725418 0.16985412 0.23871627
0.1509405 0.2547174 0.17353855 0.17853963 0.27981862 0.26265374 0.1843117 0.16420837
0.20333628 0.20487112 0.20286849 0.14598884 0.18239507 0.19950347 0.15374824 0.17393962

running_var f4 [200]
00000000: 538b bc3d 9336 4f3d 0a3d 763d 4662 c23d
00000010: 7533 193d ee1b 903d 7248 423d dd89 a63d
00000020: c32f a23d 55ac 523d b62f be3d b654 be3d
00000030: dad6 5e3d cfb6 423d a069 8e3d 0bd3 0e3d
00000040: ab43 843d d321 9e3d 5737 d23d 2546 ce3d
00000050: 4123 203e 2596 433d 45d9 b73d f071 af3d
00000060: 87a2 b93d d1ff cc3d 8f8c 603d 3f63 e13d
00000070: c57c ff3d 5805 9f3d b428 833d eb13 2c3d
00000080: 827b e33c c6bc a33d 8b3c 973d 92da dd3d
00000090: 0c27 a53d 395b d23d d865 e23d 550c 2f3d
000000a0: 1165 a13d f333 003d b01e c63d 3f8c ba3d
000000b0: c143 a73d 94a7 df3d 3062 393d 426b d63d
000000c0: c3e2 d83d 8d4c a23d 169d d33d 8e17 c53d
000000d0: 5513 9d3d fc7a 5f3d eb89 313d 4e4f be3d
000000e0: 846e 5a3d ab53 0a3d 44fc 873d fb01 443d
000000f0: 4ba1 093d 665f e73d 27e5 273e b1fc b33d
00000100: 49dc 843d d29c a03d ef0c cd3d 4fac bb3d
00000110: 345a 073e f1b6 453d 7e5c 593d 9a18 d53d
00000120: 201e c03d 6827 ce3d 5c1d 9d3d d8a6 fa3d
00000130: c501 9b3d 302e 953d f6d9 ca3d eacb 5f3d
00000140: da7a 6c3d 1683 7f3d 9f38 883d 1b0e 8f3d
00000150: e535 cf3d 6287 c13d 3fd6 c53d 1c07 653d
00000160: 467c ac3d 1b97 663d 9feb b33d 75a8 c53d
00000170: e183 a23d c6e4 033e 12cd fa3d d43f 5d3d
00000180: 0a96 213e 7cc1 933d 7632 d03d 3305 833d
00000190: 83c9 8c3d 5bd5 b83d de04 da3d b1ef e93d
000001a0: dabc a73d 0662 dc3d 0645 963d 1c43 023e
000001b0: 9b3f ab3d 2439 c23d 0781 173d 47ca 193e
000001c0: 8748 4d3d da1c 843d 941a 793d a3e7 b93d
000001d0: 6eb3 c03d cbfd 943d 09ae d03d ef32 c83d
000001e0: e57a 4c3d e9c5 d73c 6061 bb3d 0c8a d23d
000001f0: 0444 6f3d c428 783d 663b 103e 7783 9a3d
00000200: 3e79 093e e2dd d53d caa3 f83d 2d26 8e3d
00000210: 1637 d63d e428 703d ce72 5f3d 48a8 983d
00000220: dda5 8e3d f693 973d 2a14 ca3d 05b4 0b3d
00000230: be52 3f3d 9dd1 ad3d b030 a83d c251 c03d
00000240: 6ef1 c33d ee75 e13c b15e 033d 0959 213d
00000250: bc0a ad3d 2be4 c63d c218 903d 106c bc3d
00000260: 970b 063e 468a b03d 4a1b 923d 1539 433d
00000270: f73c 213d ce3a 0a3e f87b ab3d 4354 d83d
00000280: 27ca 8f3d 7cee 4b3d 9d4f 123d 1683 d23d
00000290: fd04 833d 08bc b43d 300d 013e f543 643d
000002a0: d534 ac3d df69 de3d d79c 643d 1e7e 683d
000002b0: ed01 103e 2da5 983d 90e3 fc3d 99f3 c43d
000002c0: d863 683d aae7 bd3d 5ad2 823d 3efc 8d3d
000002d0: 609e b53d 3bdd b13d d7e7 5d3d ca79 8c3d
000002e0: 00b6 893d ca50 ba3d 8259 6b3d 98db b83d
000002f0: 5a29 b93d 549e dd3d 0d99 c53d ef07 bd3d
00000300: 7e68 033e 6368 cf3d 7209 593d 00a2 a73d
00000310: 520b 813d 7274 b43d 8505 923d 6bf8 a53d
0.092062615 0.050589155 0.060116805 0.094914004 0.03740259 0.07036577 0.04743237 0.08131764
0.07919266 0.05143388 0.09286444 0.09293501 0.054404117 0.04753762 0.0695374 0.034869235
0.06458219 0.07721295 0.102644615 0.10071973 0.15638448 0.04775061 0.08976988 0.08566654
0.09064203 0.100097306 0.054821547 0.11005258 0.1247497 0.07764691 0.06404248 0.042011183
0.027768854 0.0799499 0.073845945 0.108327046 0.08064088 0.102713056 0.110545814 0.04273637
0.07880605 0.031299543 0.09673822 0.09108781 0.0816722 0.10920635 0.045259655 0.104696766
0.10590126 0.07924757 0.10332696 0.09623633 0.07669703 0.054560646 0.04334442 0.0929247
0.053328052 0.0337712 0.06639913 0.04785345 0.033601087 0.11297493 0.16396008 0.087884314
0.064873286 0.07842411 0.100122325 0.09163725 0.13218004 0.04827017 0.053066723 0.10405083
0.09380746 0.1006611 0.076716155 0.12238854 0.07568697 0.072842 0.09904854 0.054637827
0.057734348 0.062380873 0.066514246 0.06985112 0.101177014 0.0944965 0.09660005 0.055914983
0.08422141 0.05629645 0.087851755 0.09651271 0.0793531 0.12880239 0.12246145 0.05401595
0.15779892 0.072146386 0.10165875 0.06397476 0.06874373 0.09025069 0.106454596 0.11422671
0.081903175 0.10760884 0.07337384 0.12720913 0.08361741 0.09483555 0.036988284 0.15018569
0.050117996 0.064508155 0.060816363 0.09077384 0.094092235 0.0727497 0.101894446 0.0977534
0.04992189 0.026339488 0.09149432 0.102802366 0.058414474 0.060585752 0.14085159 0.07544606
0.13425156 0.104427114 0.12140615 0.06940875 0.104597256 0.058632746 0.054552846 0.07453972
0.0696523 0.07401268 0.09867127 0.034107227 0.04670977 0.08487246 0.082124114 0.09390594
0.095675334 0.027522054 0.032072727 0.03939155 0.08449313 0.09711488 0.07035972 0.09200299
0.13090359 0.086201236 0.07134111 0.04766186 0.03936478 0.13498995 0.083732545 0.10562947
0.070209794 0.049787983 0.035720456 0.10278909 0.06397436 0.088249266 0.12602687 0.05572887
0.084085144 0.10860037 0.055813637 0.0567609 0.14063235 0.0745338 0.123480916 0.09616775
0.056735843 0.09272702 0.063877776 0.06932877 0.08868098 0.086847745 0.054176178 0.06859167
0.06724167 0.090974405 0.05745841 0.09026259 0.0904109 0.10821214 0.09648333 0.09230029
0.1283283 0.10127332 0.052987523 0.08185196 0.06300987 0.08811273 0.07129959 0.081040226

weight f4 [100, 200]
00000000: b5c5 783c e2cf 88bb d99a ae3c 3572 10bd
00000010: 6eea 313d 8b5e 863d bf43 73bd 7d37 5abd
00000020: 973e 89bd 9d36 4b3d bf79 b2bc fc99 88bc
00000030: d4f3 013d 41b9 7bbd 0e86 29bd afe3 243d
00000040: 8a50 44bc bafc 813d bc0a 89bb 1058 72bd
00000050: 2242 7e3c 4b62 533d 9982 27bd 7fd1 4abc
00000060: fe93 71bb 27e6 49b9 f67d 4a3d d7bf 723c
00000070: 4709 593c 7ac8 f1bc 261f 5bbd b85f 1a3c
00000080: 6bdf 4cbd 593f c13b a6e8 9bbc 77c0 e1bc
00000090: ad19 91bd a5e7 063d 4156 3bbd e9cd d4bc
000000a0: b3ec 8f3d f0ce 52bd b5c5 9d3c ec4d 76bd
000000b0: 72fe c2bc c514 5f3b dc80 983d e54b 1dbd
000000c0: 4ba1 d0bc 651d 273d 6654 17bd 459f 02bd
000000d0: db71 e53c 76b3 533d 167b 2abc f1e9 b83b
000000e0: 8d27 283c 0f73 cf3c a28a 8d3d 4b08 f63c
000000f0: ad6b 7abd e77d dcbc 8e50 00bd 4fcf 97bd
00000100: 8284 8a3d 012e 23bd 65fa 73bc 519b 77bb
00000110: fe16 2b3d 63ea 06bd ddee d0bc 0f50 943d
00000120: 5f8a 963b ddea 3fbd 4567 b33c 38af e3bc
00000130: cd5b 0dbd faa3 01bd e84d bebd 9854 27bd
00000140: be37 d73c 6d77 0ebd 9be9 da3c f92b 22bd
00000150: 5995 d73c cfb9 86bd 2d57 af3c fed1 3cbc
00000160: ac8b c2bb 7304 8abc c115 5d3c 5fe3 09bc
00000170: 7b54 8f3c b26b 873d ec40 08bd 4e16 8f3c
00000180: 779b 69bd 40b2 8d3d 44c7 d83c 3714 fabc
00000190: 0678 d43c bccb 1c3d 333d f33c 1c6a 8f3d
000001a0: e57d aebc a138 ffbc 02c9 163d f83b 9d3d
000001b0: 6420 53bd 1ed2 40bd 2d87 fa3c c844 743c
000001c0: bf85 6cbd 3628 7bbc 0948 16bd 6392 5e3b
000001d0: 3085 20bd eb60 2039 a1ce 75bd d97c eebc
000001e0: 006b cfbc 1b48 64bd 8075 553d d2e6 47bd
000001f0: ea5f 26bd 452a 8fbd fa4d 59bc 8be8 f43c
00000200: 1b51 62bd d85c 0abd ae05 283d 5bf9 36bd
00000210: ece5 ed3c 018f 593d e572 383d 42e5 993d
00000220: f832 53bc 0531 e13b 0960 3a3c 16a1 f6bc
00000230: a9a7 78bc 79f6 a63d a60d b3bc 3581 6abd
00000240: 47b4 3fbd 6d52 913d ac1b 8dbd d83e 483d
00000250: e1f2 16bd 7a50 44bd b13e 3a3d 88d8 643c
00000260: 2aab 893d 8978 243d 6678 343b 6cc1 4d3c
00000270: fbe6 223b 5fca 85bd 0a17 85bd 61ec 5cbd
00000280: 4459 47bd 161f 0a3d 2ced 73bd d60b 86bb
00000290: 3a3b 8f3d 462a 17bc f7d9 1dbb 3e3e a1bd
000002a0: 6091 8d3d d317 a53d 5d17 b0bd f232 7bbd
000002b0: 2698 ae3c 7e9d 7cbd 3822 0a3d d1fd ea3c
000002c0: af33 8a3c 79aa 80bc 7914 683d 15a2 7fbd
000002d0: 45c6 7ebc 5152 d9bc 6f70 aa3c b3c3 14bc
000002e0: 240a 5d3d 17c3 6dbd 89f9 003d c4e3 a63c
000002f0: 742e d9bc 1e57 053d f6c4 5bbd 1973 16bd
00000300: 656e 5d3d cc32 fd3c 1780 8a3d 2de6 5e3d
00000310: 3412 25bd 53d9 70bc 495b 563d fbba 2abd
00000320: fcfb a03d 47d8 8cbc cff6 14bd 665f 9a3d
00000330: 175a 633d b2c3 563c 6d6c 8cbc 1057 b83b
00000340: 1a6d 3cbd 8c28 5fbd 8293 28bc 94f8 0f3d
00000350: b0db 23bd 024f 393d 392b 08bd 946e 3b3d
00000360: 5205 eb3c b5c5 88bc 5f0f 953d 1025 6abd
00000370: 34bf 073d 20b8 16bc 2d65 533d 564b 37bc
00000380: b512 8e3b 9490 4ebd 9902 7fbd 0eee 5fbc
00000390: b059 513c c840 d0bc a8b9 483d 0b56 85bd
000003a0: 8468 01bd b3cc 87bd 3b1d 80bb f07e e2bc
000003b0: df25 00bd 172e 8fbd 0b81 7d3d eba3 183d
000003c0: f6fc 5dbd 4a42 a9bd e840 853d 7c20 b4bc
000003d0: b3b5 c0bb 9daa 7c3d 3c12 5d3d 57cd b13d
000003e0: 44b8 4b3d 80d6 34bd 0f4d a33b a7be 263d
000003f0: 3c8c 20bc bd14 d83b 01b5 6c3d a557 2d3c
0.015183856 -0.004175172 0.021314071 -0.035265166 0.04343646 0.065610014 -0.05939078 -0.053275574
-0.06701391 0.04961263 -0.021786569 -0.016674988 0.031726673 -0.06145597 -0.04138761 0.0402562
-0.011982093 0.06347032 -0.004182188 -0.059166014 0.015518697 0.05160741 -0.040896032 -0.012379049
-0.0036861892 -0.00019254592 0.049436532 0.014816246 0.013246841 -0.02951454 -0.053496502 0.009422235
-0.050017755 0.005897444 -0.019031834 -0.027557595 -0.070849754 0.032935757 -0.045736555 -0.025977092
0.07027569 -0.051466882 0.019259313 -0.060132906 -0.02380297 0.003403948 0.07446453 -0.038402457
-0.025467535 0.040799517 -0.036945723 -0.031890173 0.028008392 0.05168482 -0.010405323 0.0056431224
0.010263336 0.025323419 0.06911208 0.030033251 -0.061137844 -0.026915504 -0.031326823 -0.07412588
0.06763555 -0.039838795 -0.014891242 -0.0037781785 0.041769974 -0.032938372 -0.025504524 0.072418325
0.004594132 -0.046854842 0.021899829 -0.027793512 -0.034511376 -0.03165052 -0.09292203 -0.04085216
0.026271697 -0.034781862 0.02672272 -0.039592717 0.026316332 -0.06578409 0.021403873 -0.011524675
-0.0059370603 -0.016847825 0.013493956 -0.008416026 0.017496338 0.06612338 -0.03326504 0.01746669
-0.05703303 0.06918764 0.026462205 -0.030527217 0.025936138 0.038280234 0.029692268 0.07002661
-0.021300266 -0.031154932 0.03681279 0.07677454 -0.051544562 -0.047075383 0.030582035 0.014908977
-0.057744738 -0.015329411 -0.03668979 0.0033961765 -0.039189517 0.00015294894 -0.06001151 -0.029112266
-0.025319576 -0.055732828 0.05211401 -0.04880411 -0.040618815 -0.06990484 -0.01326322 0.029896041
-0.05525313 -0.03377995 0.04102104 -0.044671398 0.0290403 0.053114895 0.045031447 0.075144306
-0.01289057 0.0068722987 0.011375436 -0.030106109 -0.015176692 0.0815248 -0.021857094 -0.057252128
-0.046802785 0.070957996 -0.068900436 0.048888057 -0.03685272 -0.04792831 0.045469943 0.013967641
0.067221 0.040154014 0.0027537583 0.012558322 0.0024856913 -0.0653274 -0.06498535 -0.053936366
-0.048669115 0.033721052 -0.059552357 -0.0040907664 0.069937184 -0.009226387 -0.0024086216 -0.078732
0.06912494 0.08061185 -0.08598206 -0.061327882 0.021312784 -0.061673634 0.03372404 0.028685482
0.016870348 -0.015706288 0.05666015 -0.062410433 -0.015550201 -0.02652851 0.020805566 -0.009079861
0.05396475 -0.05804738 0.031487975 0.020372279 -0.026511408 0.032553785 -0.053654633 -0.03673086
0.05406036 0.03090801 0.067627124 0.05441873 -0.040300563 -0.014700252 0.05233315 -0.041682225
0.07860562 -0.017192973 -0.036368188 0.07537727 0.05550584 0.013108181 -0.017141545 0.005625613
-0.046002485 -0.054482028 -0.010289075 0.035149172 -0.040004432 0.045241363 -0.033244345 0.045759752
0.02868906 -0.016695837 0.072783224 -0.05716425 0.03314133 -0.009199172 0.05161016 -0.011187395
0.004335726 -0.05043085 -0.062258337 -0.0136675965 0.012777731 -0.025421515 0.04900518 -0.06510552
-0.031593814 -0.0663084 -0.0039097345 -0.02764842 -0.031286117 -0.06991213 0.061890643 0.0372657
-0.05419632 -0.08264597 0.065065205 -0.021988146 -0.0058810352 0.061686147 0.053972468 0.086817436
0.049736276 -0.044149876 0.0049835513 0.040709164 -0.0097990595 0.006594269 0.057789806 0.010579978

weight f4 [100]
00000000: dce5 773f 32dd 7a3f 2f30 7a3f 387f 773f
00000010: 6f46 7a3f 43e5 773f e905 753f 2a18 7c3f
00000020: 1824 7a3f 57f2 773f 12c9 793f 333a 763f
00000030: fb40 793f fa44 7a3f 9de6 783f 0c10 773f
00000040: 4b58 773f dff8 793f 4ebd 783f 8762 773f
00000050: 2865 7a3f 9527 763f b685 783f 8562 773f
00000060: 3d42 7b3f 4e6b 723f d887 753f 58df 783f
00000070: 8c7a 793f be45 793f e564 793f cd88 773f
00000080: ffed 773f 5ca4 763f 9841 783f 1037 753f
00000090: 189a 743f 5747 723f 3da9 7c3f a7e0 753f
000000a0: 14c3 733f afb2 7a3f 6176 783f dd3b 7c3f
000000b0: 37a8 743f 860a 7a3f 5d28 7a3f acba 713f
000000c0: fee2 793f 09db 763f 5663 773f c7fd 7c3f
000000d0: 945e 7a3f e57d 793f eb03 793f 0032 703f
000000e0: 04a0 7b3f 3772 7a3f 0295 773f fbc6 773f
000000f0: 8f63 793f 2aef 773f cb7e 773f 262b 783f
00000100: 4fe1 763f b3ac 733f bdd5 793f 3ba7 7d3f
00000110: 2af3 7c3f 5da1 763f 1035 793f 8858 7a3f
00000120: 78af 7c3f 30be 793f 9c26 783f fb91 793f
00000130: ff06 793f affd 753f efe7 7b3f ee75 763f
00000140: bbda 793f 4989 793f 8dd1 783f 0f40 7a3f
00000150: 64d8 773f 0207 783f 7eb0 783f 7cd9 773f
00000160: cbe0 773f 495a 793f e472 793f 970a 773f
00000170: 32f3 783f 4fa2 7a3f b213 793f 698c 763f
00000180: 1d81 783f 563a 763f 2e1f 793f 64d0 7d3f
0.9683511 0.9799377 0.9772977 0.96678495 0.97763723 0.968342 0.95712143 0.9847437
0.97711325 0.96854156 0.97572434 0.96182555 0.9736478 0.977615 0.9722689 0.9650886
0.966191 0.9764537 0.97163856 0.96634716 0.978106 0.9615415 0.97079027 0.96634704
0.98147947 0.94694984 0.95910406 0.97215796 0.97452617 0.97372043 0.9741958 0.96693116
0.9684753 0.9634454 0.9697509 0.95787144 0.9554763 0.94640106 0.9869574 0.9604592
0.9521954 0.979289 0.9705563 0.98528844 0.95569175 0.9767231 0.9771784 0.94425464
0.9761199 0.9642797 0.9663595 0.98824733 0.97800565 0.97457725 0.97271603 0.93826294
0.9829104 0.9783053 0.9671174 0.96787995 0.9741754 0.9684931 0.96677846 0.9694084
0.96437544 0.95185393 0.97591764 0.990833 0.9880854 0.9633997 0.9734659 0.9779134
0.98705244 0.9755583 0.96933913 0.97488374 0.972763 0.96090215 0.9840078 0.96273696
0.9759938 0.97475106 0.9719475 0.97753996 0.9681456 0.96885693 0.97144306 0.9681623
0.9682738 0.9740339 0.97440934 0.96500534 0.97246087 0.97903913 0.9729568 0.96308
0.9707201 0.96182764 0.973132 0.99146104

bias f4 [100]
00000000: 250f 47be 39c2 553e 066c 5f3e 63f3 28be
00000010: 0bec 6dbe b71a 2a3e 0c52 653e f97b 473e
00000020: 3e59 773e d459 3abe fc01 4cbe 408e 63be
00000030: 6982 6ebe 8ce9 583e 9488 77be 136f 6c3e
00000040: 53d5 5abe 3493 503e f0fe 51be 855f 4abe
00000050: bfca 54be 52b1 703e 2d6d 5ebe 178d 593e
00000060: 0b33 73be dbbc 343e d97a 4f3e b195 4cbe
00000070: 32c0 593e e089 623e 22d7 15be 6098 573e
00000080: 64ad 463e 1b2b 50be 13d3 54be 4414 34be
00000090: 535f 6fbe d68a 5ebe 5b9b 693e 0a54 73be
000000a0: 96ed 70be cb4d 6bbe a28e 39be 4b9b 3fbe
000000b0: ed20 713e d706 743e 030c 463e f4ef 3abe
000000c0: 16f0 2d3e c7c0 4bbe 483f 593e cf10 3abe
000000d0: b7c9 4ebe 7fbf 4d3e 754a 6a3e 4c52 553e
000000e0: b3e5 373e 9e3d 60be bed7 64be c63d 2d3e
000000f0: eb4a 65be 51e4 3fbe a06c 56be 86fb 5cbe
00000100: ceaa 4dbe 9348 43be 4f27 55be fa0c 4f3e
00000110: d485 2cbe a910 48be 2903 323e 9762 773e
00000120: aa8e 49be 10f9 693e 7996 783e 043d 723e
00000130: dcb8 55be d17d 4f3e 9ba6 733e f12c 61be
00000140: 4acb 793e 944b 25be 10fc 6ebe fba8 52be
00000150: 56f6 75be 579d 43be 909c 623e 6333 57be
00000160: 72b2 6f3e e5b9 4bbe acbf 31be 06d0 6bbe
00000170: a669 69be ef71 6a3e b577 383e f52c 3f3e
00000180: 3662 583e b85e 32be 33c6 473e d5fa 44be
-0.19439371 0.20874871 0.21818551 -0.16499095 -0.23234574 0.16611753 0.2239458 0.19480886
0.24155137 -0.18198329 -0.19922632 -0.22222233 -0.23291935 0.21182841 -0.24173194 0.23089246
-0.21370439 0.20368654 -0.20507407 -0.19763 -0.20780466 0.23505142 -0.21721335 0.21245228
-0.2374994 0.17650168 0.20261706 -0.19978978 0.21264723 0.22122908 -0.14632848 0.2105422
0.19402081 -0.20328943 -0.20783643 -0.17585856 -0.23376207 -0.21732649 0.2281317 -0.23762527
-0.23528132 -0.22978894 -0.18120816 -0.18711583 0.23547716 0.23830734 0.1934052 -0.18255597
0.16986117 -0.19897757 0.21215546 -0.18170474 -0.20194136 0.20092581 0.22879966 0.20832175
0.17958717 -0.21898505 -0.22347924 0.16918096 -0.2239186 -0.1873944 -0.20939875 -0.21580324
-0.20084688 -0.19070654 -0.20815776 0.20219794 -0.16847926 -0.19537605 0.17384018 0.24158703
-0.19683328 0.22848916 0.24276151 0.23656088 -0.208713 0.20262839 0.23794024 -0.219898
0.24393955 -0.16142112 -0.23338342 -0.20572273 -0.24019751 -0.19102989 0.22130036 -0.21015696
0.23407915 -0.19895132 -0.17358273 -0.23028573 -0.22794208 0.22895025 0.18014415 0.18669493
0.21131214 -0.17418945 0.19509201 -0.1923631

running_mean f4 [100]
00000000: 5705 c13e f0af b33e a415 e03e fa8b a43e
00000010: 5e57 b43e 6afe ca3e 38aa a83e dc4c e73e
00000020: d0b2 b13e 507d c13e c642 cc3e 131e dc3e
00000030: aaad 8a3e 7ecc b13e 05eb da3e 0974 8d3e
00000040: 3f2b d83e 7c6c 9d3e 598d a33e 7971 bd3e
00000050: a143 c53e da0d be3e fc8c a83e d5b5 d73e
00000060: a005 b03e acbb aa3e 2cf7 9c3e daae c63e
00000070: 1e42 cf3e 4525 be3e 0e08 d63e 3155 bb3e
00000080: b847 c73e ad25 bd3e d041 b13e 43e3 a83e
00000090: 9868 b43e 1ddc c63e ac46 913e a45e a83e
000000a0: b887 be3e 85c8 e13e 9af4 9f3e cdc3 ce3e
000000b0: ee82 bc3e 6fa0 f73e 325f 653e 5808 c13e
000000c0: 5307 cb3e 565c 983e ffde b43e 3d6a cb3e
000000d0: cc89 663e 06d3 d63e a359 d43e f0ca 813e
000000e0: 347d b33e 3436 983e de79 943e 37c0 aa3e
000000f0: 9726 bc3e 5361 b13e 4492 9d3e 21dc 883e
00000100: 37fd 9d3e 2a84 aa3e 3217 d93e 3cc3 c13e
00000110: fabd c03e e2ca 933e af2c f43e 8f44 ae3e
00000120: f35e 803e be3b 8c3e b2bf b33e e48c a13e
00000130: 03f7 9b3e 9bd4 df3e df4a c23e 1068 db3e
00000140: 080e cc3e e608 a33e cb09 9d3e 1d39 ca3e
00000150: f514 ac3e fbef ca3e 853f aa3e 01f7 ac3e
00000160: d0b2 b83e 9805 c63e f0db b13e 641c d43e
00000170: 1340 fd3e f877 953e 4126 903e 0c91 b73e
00000180: 1ac0 ae3e 84f0 b83e 45f5 993e 077f af3e
0.37699386 0.35095167 0.4376651 0.32138044 0.35222906 0.39647228 0.32942367 0.45175827
0.34706736 0.37790918 0.39894694 0.42991695 0.2708562 0.34726328 0.4275743 0.2762759
0.42220494 0.3074683 0.31943777 0.37000635 0.3852816 0.37119943 0.32920063 0.42130914
0.34379292 0.33346307 0.30657327 0.38805276 0.4048013 0.3713781 0.4180302 0.36588433
0.38921905 0.36942807 0.34620523 0.32985887 0.3523605 0.38839808 0.2837423 0.32884705
0.3721292 0.44098297 0.31241304 0.4038376 0.3681864 0.4836459 0.22399595 0.37701678
0.39654025 0.29757947 0.35326383 0.3972949 0.22513503 0.41957873 0.41474637 0.25350142
0.3505646 0.29728854 0.28999227 0.33349773 0.36748192 0.34644565 0.30775654 0.26730445
0.3085725 0.33303958 0.4240051 0.37844265 0.3764494 0.28865725 0.4769034 0.3403668
0.2507244 0.2738933 0.3510719 0.31552804 0.30461892 0.43716893 0.37947747 0.4285283
0.39854455 0.31842726 0.30671534 0.394967 0.3360974 0.39636216 0.33251587 0.337822
0.36073923 0.38676143 0.34738111 0.4142791 0.49462947 0.2919309 0.28154185 0.3585285
0.34130937 0.36121 0.30069938 0.34276602

running_var f4 [100]
00000000: 0cfc a83e 02bc b23e 9c42 273f 3029 543e
00000010: 034d 8b3e 72e4 fd3e 3c31 9e3e 7ecf ef3e
00000020: 1cdc e03e 0e3b 963e ae3f 153f 181c 823e
00000030: a02d 603e fb6d c53e 37d7 ee3e a74d a33e
00000040: 5295 013f e40b a33e 2ddc c43e 4fbf 853e
00000050: a5ff a13e 71b4 043f 348c 363f b7fc fe3e
00000060: d4e5 113f d4e1 513e 06e9 953e 1240 d53e
00000070: ec9d 923e c575 0a3f 644e d93e 1433 f23e
00000080: f8e9 d83e 8058 c63e f631 fa3e 3910 583e
00000090: 20e2 703e 18fe 4d3e fdd7 ba3e 8099 d23e
000000a0: 2270 0d3f c3eb 033f c32e a43e e53d 043f
000000b0: fe5a f43e 571d 463f cd7a 833e 49c0 953e
000000c0: aa0a e43e 8d76 9a3e fc11 213f e517 883e
000000d0: 5145 bc3e d5b9 1d3f 3939 f83e fbea 6b3e
000000e0: ea8a e63e 05dd 073f e081 4b3e 32e2 b43e
000000f0: f660 003f 31e1 db3e 9fae b03e f7e7 883e
00000100: fc5a 7e3e 289a 983e 96d1 2f3f 1bd5 823e
00000110: 80fd b63e ca18 c73e 289c 2b3f 6c93 dd3e
00000120: 233b 933e e30b 7f3e 54c5 c83e feee 5b3e
00000130: c3fc 3d3e 051c a33e c1d9 b23e a7a8 ba3e
00000140: 142e ed3e cc02 c53e c7a0 9c3e 79d0 b53e
00000150: fe37 4c3e 5555 fb3e a09f be3e d6e9 903e
00000160: f6d6 753e 5ff6 213f 80ef eb3e 110c 133f
00000170: 918e 413f c4e1 b33e 1450 fe3e 22a9 b33e
00000180: 1099 133f cee1 973e f307 843e f201 003f
0.33004797 0.34909064 0.6533601 0.20718837 0.27207193 0.49588352 0.30896938 0.4683799
0.4391793 0.2934193 0.5830029 0.2541206 0.21892405 0.3856047 0.4664857 0.31895182
0.5061847 0.3184501 0.3844923 0.2612252 0.31640354 0.5183783 0.71307683 0.4980218
0.56991315 0.20496303 0.29279345 0.41650444 0.2863611 0.5408595 0.4244262 0.47304595
0.42366004 0.38739395 0.48866242 0.21099938 0.2352376 0.2011646 0.3649291 0.41132736
0.55249226 0.5153162 0.32066926 0.51656944 0.47725672 0.7738852 0.25679627 0.29248264
0.44539386 0.30168572 0.62918067 0.2658073 0.36771634 0.6161168 0.48481157 0.23038857
0.45027858 0.53071624 0.19873762 0.35328823 0.5014795 0.42945245 0.34508225 0.26739475
0.24839395 0.29805112 0.6867918 0.25553212 0.3574028 0.388861 0.6703515 0.43276536
0.28756055 0.24906878 0.3921305 0.21477887 0.18553452 0.31857315 0.34931758 0.36456797
0.46324217 0.38478696 0.30591413 0.35510615 0.19943234 0.4908854 0.3723116 0.28303403
0.24007782 0.6326656 0.46081161 0.57440287 0.75608164 0.35133183 0.4967047 0.35089976
0.5765543 0.29664463 0.25787315 0.5000297

weight f4 [15, 100]
00000000: c108 563e b4c8 63be 9f67 10be 9fa2 023e
00000010: b841 433e 4e80 6cbe 7715 54be 8a82 d4bd
00000020: be69 afbd a9fc 6e3e 18dd 1b3e 703d 483e
00000030: c4a4 e03d 18f1 08be 9ede 0c3e f295 22be
00000040: a397 4b3e 521c 77be 74a2 bd3d ecb5 a13d
00000050: dc84 1c3e 0b45 c5bd f717 333e 6227 87bd
00000060: c715 0b3e a238 82bd d64d 6bbd 17e6 dc3d
00000070: 7acc 56be 6d3d 2ebe 4888 7e3d c213 6cbd
00000080: 5e2e cdbd 8c83 443e ec0f 3e3e 0a04 2a3e
00000090: 97fc 193e ec44 6c3e 2d2b 0cbe 8b66 523e
000000a0: 356c 823e 0a50 533e e180 b03d d511 673e
000000b0: 4e3d 81be 769c 31be 3119 f9bd 0dfe e23d
000000c0: 1787 43be 067c 473e 4e84 14be 2272 593e
000000d0: 9bb4 333e 63e1 20be afb9 8fbd 0d55 a4bd
000000e0: 36bf 4cbd 4fcd 8d3d a16c 2b3e 24df 30be
000000f0: 9d5d aa3d 059d ea3d 810b 343e 2aed e63d
00000100: 93fb 373e ae8b 093e 7f36 2c3e 6445 21be
00000110: 8baa 523e 45a1 223e 0c2b 51be 729a 39be
00000120: f39b ae3d 2a63 7abe cf00 82bd 1e12 4abe
00000130: fe9e 803d 0a16 b4bd 97b4 2ebe fa13 463e
00000140: bfac aebd 65f0 3b3e 2279 ef3d b223 023e
00000150: 11ba 4a3e d25e 363e 0d73 80be fdc7 9b3d
00000160: ee0d 57be 96cd 523e ec21 673e c932 403e
00000170: 3b8e ee3d 2f64 16be 8129 3fbe 5c6b 3dbe
00000180: fd04 e5bd 2c3c 213e a16b 56be 99fa 893d
00000190: 9f4b 163e 1b22 92bd 352b 993c b280 be3d
000001a0: cead 083e e3ed 85bd bd76 81bd 9ec9 2bbe
000001b0: 3910 09be 43bd 013e a688 f33d 0a53 163e
000001c0: fd4a 033d 846f 26bd 6b88 963d a01e e5bd
000001d0: 46a9 873d e599 08be 4800 ee3d f3bd 903d
000001e0: eacb a93d 4b03 02be df5d 2abc c3e5 f6bd
000001f0: 9643 fa3c 07fc 1ebe 2b38 3fbd a1f7 1a3e
00000200: 21d8 32be 80f8 d7bd e445 23bd 96d7 8ebd
00000210: 76f4 acbd 1e30 073e 0d70 173e 2923 4a3d
00000220: 67cb 573c c508 1f3d 04c6 2cbd 6add 28bc
00000230: b21d be3d 2e8b dc3d a38f 223e 0847 6abc
00000240: 73ab b9bd 63d7 09be ecec 51bd 4b84 b33d
00000250: f942 0cbe 9b2f 153e f4bc 42bd 3d14 163d
00000260: 18eb bebb b7b5 e33b aa9d 03be 5841 11be
00000270: 4db4 ffbd 1cc3 e23d b8e3 2e3d 9f10 09be
00000280: 6f84 0e3d 080b 5d3d 5b66 aa3d 4b14 9e3d
00000290: 3d79 c53d be03 0e3d d1e6 8d3d 9939 f1bd
000002a0: e761 e03d 049d 543d ff1e ecbd 9365 d4bd
000002b0: 7c55 263e f741 1cbe 862a aebc 7f83 b4bd
000002c0: 29ef f83d 3493 ccbd 372c c63b b2ee 9b3b
000002d0: 6777 97ba d6b3 43bc 93fb b43d 2707 d53d
000002e0: 9096 793c 0ce7 1a3e d6f7 a1bd a4a5 ab3d
000002f0: 8484 d0bd 011a 543c 95ab d73d 538b 853c
00000300: 80ef 1e3e 5e6d f6bc a73d e2bd 273f 0fbe
00000310: 23d8 86bd b82e 983c 6aac 15be 1136 103e
00000320: 9639 983d 804e bebc 21f4 8cbd 0c1c e63d
00000330: ab22 153d 192d 3cbc 19a4 7bbd 7f52 49bd
00000340: a2fd 0cbc 35f7 673d 477c cd3c 5067 023e
00000350: 61d9 dd3d 7632 9ebd 4e9c c43d 67ee ceba
00000360: 1d21 9f3d ede1 3e3d 1db5 cb3d d2fe 04bd
00000370: 98d1 243d 778a b73c 7ff0 06bc bc65 c0bc
00000380: f2e3 833d 4de3 423c df28 87bd dab8 9d3d
00000390: 7040 413c 4b21 b43b b62a 7ebb 56ba 21bd
000003a0: 47c5 bbbd 2b20 763d 361c b2bc 1949 743d
000003b0: 0155 913d 9b21 713d a0ce 20bd 88a2 da3c
000003c0: fd94 f63d bc9a 30bd 6b95 fe3c 822b 503d
000003d0: 2d16 3ebc b350 0dbe a779 febd 5597 823d
000003e0: 0b1b bdbc 7e85 9b3d 0d53 dfbd 7a48 223c
000003f0: 8014 083e 8230 0bbe fc46 10be 127b 12bd
0.20901777 -0.22244531 -0.14102028 0.12757348 0.19068038 -0.2309582 -0.20711313 -0.10376461
-0.085650906 0.2333857 0.1522106 0.19554687 0.109689265 -0.1337322 0.13756797 -0.15877512
0.19882064 -0.24131897 0.09259501 0.07896027 0.15285057 -0.096323095 0.1748961 -0.065993086
0.13582526 -0.06358458 -0.057447277 0.10786074 -0.20976439 -0.1701562 0.062141687 -0.05763603
-0.100186095 0.19190806 0.18560761 0.16603103 0.15037762 0.23073167 -0.13688345 0.2054693
0.2547318 0.20636001 0.08618332 0.22565396 -0.25242084 -0.17344841 -0.12163008 0.110836126
-0.19094501 0.19480905 -0.14503595 0.21234944 0.17549364 -0.15710978 -0.07017838 -0.08024035
-0.04998704 0.06923925 0.16740657 -0.17272621 0.083186366 0.1145573 0.17582513 0.11275704
0.17967062 0.1343219 0.16817664 -0.15749127 0.2057287 0.15881832 -0.20426577 -0.18125322
0.08525839 -0.2445189 -0.063478105 -0.19733474 0.06280325 -0.08793266 -0.17061077 0.19343558
-0.085290425 0.18353422 0.11693026 0.12708929 0.19797541 0.17809609 -0.25087777 0.07606504
-0.21001408 0.20586237 0.22571534 0.18769373 0.11648222 -0.14686655 -0.18668176 -0.18497986
-0.11182592 0.1574561 -0.20939495 0.06737251 0.14677285 -0.07135411 0.01869736 0.093018904
0.13347551 -0.06539514 -0.06321476 -0.1677613 -0.13385095 0.12669854 0.11891298 0.14680114
0.032053936 -0.040633693 0.073502384 -0.11187482 0.06624083 -0.13339956 0.116211474 0.0706748
0.08290847 -0.12696569 -0.010398357 -0.12055542 0.030549806 -0.15525828 -0.046684425 0.15133525
-0.17465259 -0.105454445 -0.039861575 -0.069747135 -0.08445065 0.13201949 0.14788838 0.049349938
0.0131710535 0.038826723 -0.04218103 -0.0103066955 0.09283008 0.10768734 0.15875106 -0.014299162
-0.090659045 -0.1346107 -0.051251337 0.08765467 -0.13697423 0.14568941 -0.04754348 0.036640394
-0.005826365 0.0069491523 -0.12853113 -0.14185083 -0.124855615 0.110723704 0.04269764 -0.13385247
0.034794267 0.0539656 0.08320304 0.07718714 0.09642265 0.034671538 0.0692879 -0.11778564
0.109561734 0.051907554 -0.115293495 -0.10370936 0.16243547 -0.15259539 -0.021260511 -0.088141434
0.12154991 -0.09989014 0.0060477513 0.0047586793 -0.001155597 -0.011944732 0.088370465 0.10401755
0.015233651 0.151272 -0.07908599 0.08381203 -0.10181525 0.012945653 0.105307736 0.016301787
0.1552105 -0.030081447 -0.110469155 -0.13988934 -0.065841936 0.018576965 -0.14616552 0.14083125
0.07432859 -0.023230791 -0.068825014 0.11235818 0.036410015 -0.0114853615 -0.061435793 -0.04915094
-0.008605393 0.05663224 0.025083674 0.12734723 0.10832477 -0.077244684 0.09600125 -0.0015787602
0.07769988 0.04660218 0.09946654 -0.032469578 0.040238947 0.022404892 -0.00823605 -0.02348601
0.064399615 0.011895013 -0.065995924 0.07701273 0.011795148 0.005497133 -0.0038782782 -0.039484344
-0.09168487 0.06008927 -0.021741968 0.059640024 0.07096291 0.05886994 -0.039259553 0.026688829
0.12040136 -0.043116316 0.031077107 0.050822742 -0.011601967 -0.13800316 -0.12425547 0.063765205
-0.023084184 0.07593821 -0.109045126 0.009904975 0.1328907 -0.13592723 -0.14089578 -0.0357619

bias f4 [15]
00000000: e38f 9cbd 8b77 1cbe e0f1 4bbe 5307 bebd
00000010: 3925 bebd 2b86 a8bd 5f8a 45be 1ed8 50be
00000020: 2d09 00be 6614 30be ce43 61bd e5dc 28bd
00000030: 3f4b 56bd 995f 00be dbb7 a6bd
-0.07644632 -0.15279977 -0.19916487 -0.09278741 -0.092844434 -0.082287155 -0.19291066 -0.20394942
-0.125035 -0.17195281 -0.054996304 -0.041226286 -0.052317854 -0.12536468 -0.081405364
