male_model_religion.pkl (torch, 154755 bytes, 16 tensors)

weight f4 [13]
000000 25 10 6e 3f b2 65 6a 3f 49 7b 67 3f 0a 6b 68 3f
       0.92993385 0.91561425 0.90422493 0.9078833
000010 48 b0 6c 3f b6 96 6c 3f 8f 93 6f 3f 1a 16 70 3f
       0.92456484 0.92417467 0.9358453 0.93783724
000020 08 0b 69 3f a3 f3 6c 3f 70 49 69 3f f7 03 6f 3f
       0.9103246 0.9255926 0.9112768 0.93365425
000030 13 33 6a 3f
       0.91484183

bias f4 [13]
000000 ff 25 5e bd 54 e5 91 bd 24 c0 93 bd 58 f2 88 bd
       -0.054235455 -0.07123819 -0.07214382 -0.066868484
000010 61 f5 a0 bd 9f 5c 74 bd 04 ce 82 bd f5 05 65 bd
       -0.07859302 -0.059658643 -0.063869506 -0.055913884
000020 b6 65 a1 bd 07 f9 81 bd b7 d8 a8 bd 00 dc 43 bd
       -0.07880728 -0.06346326 -0.0824446 -0.04781723
000030 6a 4f 6a bd
       -0.05720464

running_mean f4 [13]
000000 09 5e ca 3c 7c 8d c4 3b e0 0a 5a 3d f4 e5 96 bc
       0.024703043 0.0059983116 0.053233027 -0.018420197
000010 ac 3b 73 3b 2e f4 c3 3b 67 bb 18 3c 35 65 04 3d
       0.0037114425 0.005980036 0.009322024 0.03232308
000020 d8 de 8c 3c 08 c7 9a 3b c4 b2 96 bc 71 df 61 bd
       0.017196104 0.0047234334 -0.018395789 -0.05514473
000030 56 59 a6 bc
       -0.02030627

running_var f4 [13]
000000 ae 93 85 3f 41 bc 84 3f 14 40 8f 3f 5a e1 76 3f
       1.0435693 1.036995 1.119143 0.9643761
000010 ea 54 81 3f e6 93 81 3f 22 66 80 3f fa 72 88 3f
       1.0104039 1.012326 1.0031168 1.0660088
000020 f8 42 8a 3f 4e a1 83 3f ca fe 68 35 cb aa 76 3f
       1.0801687 1.0283601 8.67975e-07 0.9635436
000030 2e a4 69 3f
       0.91266143

weight f4 [200, 13]
000000 e7 d7 70 3d 2f 5a 3a bc 29 b6 b7 3b 92 69 45 3d
       0.05879965 -0.0113740405 0.005606432 0.048196383
000010 f6 e0 59 be a4 b3 55 be 4d 82 41 be c4 0b 75 3e
       -0.21277222 -0.20869309 -0.18897362 0.2393027
000020 e2 ca 7e be 05 da f9 bd a8 c8 43 bd ab 31 7e be
       -0.24882081 -0.12199787 -0.047798783 -0.24823634
000030 be 66 5d 3e ac cb 3c 3e de 05 1c be 8a 3b 3d 3e
       0.21621224 0.1843707 -0.15236613 0.18479744
000040 d9 fa be 3d 1a 02 4f be be 11 e5 3c d8 0e 8a 3e
       0.09325189 -0.20215645 0.027962562 0.2696445
000050 e5 34 a8 bd f9 d8 85 bd ae 5b df bd 9f 89 46 3d
       -0.08213214 -0.06535525 -0.109061584 0.04847109
000060 53 0f 82 3d fa e2 09 3e 9f df 3f 3e 55 54 f9 3d
       0.06350579 0.13465491 0.18737648 0.12174288
000070 7b 44 19 bd 31 81 2c 3e 41 ab 30 be 40 72 3d 3e
       -0.037418824 0.16846158 -0.17252828 0.18500614
000080 90 ce c4 3d 73 40 ce bc 59 26 2a be a0 3d 79 be
       0.09609711 -0.025177216 -0.16616191 -0.24339914
000090 ed 75 87 be 1e d1 60 be 3b 34 f8 bc 94 2c 6e bd
       -0.26457158 -0.21954772 -0.030298343 -0.05814798
0000a0 5e 12 e2 3d bd 1f 0a 3e 49 51 ba 3d 94 b4 3e 3c
       0.110386595 0.1348867 0.09097535 0.011639733
0000b0 1d b7 53 3e a0 fa ba bd c2 95 53 be 1e 5b 2d be
       0.20675321 -0.09129834 -0.20662597 -0.1692929
0000c0 05 fd 88 3e 41 d6 75 bd 03 79 f2 bd ec 0b 04 3b
       0.2675554 -0.06001878 -0.118394874 0.0020148708
0000d0 04 5c c5 3d c7 bb 0a 3e f2 d3 5b be 16 b0 93 bc
       0.09636691 0.13548194 -0.2146757 -0.0180283
0000e0 6b 73 f8 bc f7 4d 52 3d 7c 96 5a be 63 22 8e 3e
       -0.030328473 0.051343884 -0.21346468 0.2776061
0000f0 43 32 7f 3e 81 74 00 3e 52 c0 72 3e af 19 65 3e
       0.24921517 0.12544443 0.23706177 0.22373079
000100 d9 cb 5b be 69 66 e8 3c 8a 07 15 3e ba 5f ac 3d
       -0.2146448 0.028369145 0.14553657 0.08416696
000110 ee 9e 7b be ed 27 23 be ae 3c 81 3e e9 06 a7 bd
       -0.24572346 -0.15933199 0.25241607 -0.08155615
000120 5b ce 47 3e 15 53 0b be 47 2d 75 3e 05 9a c7 3d
       0.19512312 -0.13605912 0.23943053 0.09746174
000130 0c d3 72 be 5e c0 6d be 42 a3 f2 3d ea 94 8a 3e
       -0.2371332 -0.23217914 0.11847545 0.27066737
000140 9e 18 3b 3e 52 ab 16 3d 96 e6 79 3e e0 e9 7d 3d
       0.1827111 0.036784478 0.24404368 0.06199062
000150 02 7d 06 3e 48 f0 ed bc 45 bd f1 3d 0f ff 35 be
       0.13133624 -0.02904524 0.118036784 -0.17773078
000160 68 cc 7d be f5 88 4f bd 19 87 7c be 01 b3 11 bd
       -0.24785006 -0.05066772 -0.2466091 -0.035571102
000170 3c b6 63 be 6e 66 df bc 8a 33 1e be 3d a9 8e bd
       -0.22237486 -0.027270522 -0.15449348 -0.069658734
000180 1f a7 01 be d7 9f 42 3e e5 9c 6b 3e 36 d9 79 bd
       -0.12661408 0.19006287 0.2300907 -0.060998164
000190 f5 e7 24 be 81 68 c9 3c 29 f8 23 3e a7 dd f9 3d
       -0.1610411 0.024585964 0.16012634 0.1220048
0001a0 fc 06 0e be a7 d0 87 3e 9d 1b 5c be 87 97 33 be
       -0.13869852 0.26526377 -0.21494909 -0.17538272
0001b0 5c 36 55 bd bc 86 7b be 4f 1a 62 3e a8 c7 56 bd
       -0.052053794 -0.24563116 0.22080348 -0.0524365
0001c0 b0 a6 c3 3d 2e b3 7f be b5 db 40 3d e1 c5 3b 3d
       0.095532775 -0.24970695 0.04708453 0.04584301
0001d0 e2 47 d9 3d 3a dc f1 bd f4 1c 3b 3e ce a1 d0 3d
       0.10609414 -0.11809583 0.18272763 0.10187112
0001e0 c6 b5 cc 3d 70 b9 ed 3d 79 a6 10 3e db d6 01 bd
       0.09995608 0.11607635 0.14126004 -0.031699043
0001f0 13 47 22 be c4 72 13 3e 44 25 ac bc 75 88 26 3e
       -0.15847425 0.14399248 -0.021013863 0.16262992
000200 cf 84 78 be 4e e4 84 3e 01 f7 79 be b5 f8 7e bc
       -0.24269412 0.25955433 -0.24410631 -0.015562226
000210 26 b8 86 be 27 f8 30 3e 08 ab 56 3d f0 be 3a be
       -0.2631237 0.17282163 0.0524092 -0.182369
000220 cb 7f 8b be 5f 2d e0 3d c3 41 2f 3e a7 d9 6c 3e
       -0.27245936 0.10946154 0.1711493 0.23129903
000230 2d bd 87 be 64 ea 58 3e 74 1a ed bd 0d b2 4e bc
       -0.26511517 0.21183163 -0.11577311 -0.012615693
000240 ca 6a 37 3e 53 db 86 3e 14 62 3f bc a1 2c c6 bd
       0.1791183 0.26339206 -0.0116810985 -0.09676481
000250 76 28 2f 3d 43 77 6b 3e 6e b5 3e bd ad 29 17 3e
       0.042763196 0.22994713 -0.046559744 0.14761992
000260 79 3d cc 3c 89 b3 1b 3e dd 0f 63 bc 90 03 22 be
       0.024931656 0.15205206 -0.013858763 -0.15821671
000270 a1 a7 ee bd d0 e8 66 3e 1f 27 0c 3e 83 82 d1 3d
       -0.116530664 0.22549748 0.13686799 0.10229971
000280 95 ee b9 bb 3b f3 d1 3d 8d 9c 9d 3d f4 fb bb bd
       -0.005674193 0.10251471 0.07695875 -0.091789156
000290 44 63 04 3e 1d 6c d6 3d 6d 54 fd bc 4d ca 6c bd
       0.12928492 0.1046984 -0.030924046 -0.057810117
0002a0 63 8f 8c 3e 78 50 14 be 04 b8 63 3e 6a fc 6e 3e
       0.27453145 -0.14483821 0.22238165 0.23338476
0002b0 54 42 34 be 94 1e 59 3e 1c 54 75 be 75 70 73 3e
       -0.17603427 0.21203071 -0.23957866 0.23773368
0002c0 3c 67 01 be 75 90 f0 37 b2 05 9a bd 48 4e 30 be
       -0.12637037 2.8677498e-05 -0.075206175 -0.17217362
0002d0 5f 65 65 3e 34 0f 77 3d 3c 35 33 3e 45 f4 8d 3d
       0.22401951 0.060317233 0.17500776 0.06931356
0002e0 e8 f3 5a 3c 23 d6 84 3e 31 60 50 be 9b 99 44 3e
       0.013363816 0.25944623 -0.20349194 0.19199221
0002f0 1a 57 09 3d ba 34 60 3e 88 77 6e 3d 8b ab e1 bd
       0.033530332 0.21895114 0.058219463 -0.11019047
000300 da 2b 49 be ed d6 fb bd 5b 36 48 3e 35 72 97 3b
       -0.19645634 -0.12296853 0.19551985 0.004621769
000310 87 fd 5e be e2 8b 7f 3e 69 00 a0 3d d4 74 fe bd
       -0.217764 0.24955705 0.07812578 -0.12424627
000320 23 f1 89 3d b6 dd 5e 3e be 4d 3a be 26 2f 47 3d
       0.06735446 0.21764264 -0.18193719 0.04862895
000330 43 e2 30 be 68 10 7a 3d eb bb 29 be f9 6f 8e be
       -0.17273812 0.061050802 -0.16575591 -0.27819803
000340 62 14 57 3e c9 af a9 3d 56 7e 7b 3e b6 80 20 bd
       0.21003869 0.082854815 0.24559912 -0.03918525
000350 27 32 46 3e 1d 40 f3 3d 4d 60 69 3e 1d b4 73 be
       0.19355069 0.11877463 0.22790642 -0.23799177
000360 85 b7 34 be db 6a 89 be 0f a4 87 bd 44 80 00 be
       -0.17648132 -0.26839337 -0.066230886 -0.1254893
000370 57 1f 6b 3c ec 19 43 be 19 5b e4 3d 0a 49 89 bd
       0.014350734 -0.19052857 0.11150188 -0.06703384
000380 3a 24 9b 3d d6 45 a1 bd f2 ef e9 3c 0d 34 77 bd
       0.07575269 -0.07874648 0.028556798 -0.060352374
000390 dd b2 85 be 58 87 0f be ee 8e 92 bb 3b 48 3b 3d
       -0.26113024 -0.14016473 -0.004472605 0.04572318
0003a0 75 40 73 3d e4 db 4b 3e 67 f8 02 3c 11 8a fd 3d
       0.059387643 0.199081 0.007993794 0.1237985
0003b0 3b 1d 82 be ef fc 73 3e 5b a6 ee 3d e0 09 3c be
       -0.25412926 0.23826955 0.116528235 -0.18363142
0003c0 3b 53 8c be 06 8e 41 be 39 0b 11 be 67 3b 13 bc
       -0.2740725 -0.18901834 -0.14164437 -0.008986331
0003d0 fd cc 4a 3e b5 0f 2e 3e 8e eb 61 be 12 b5 bf bd
       0.1980476 0.1699818 -0.22062513 -0.09360708
0003e0 5c 11 8e bd 88 89 4f 3e f5 54 ab bc 79 2e 74 be
       -0.06936905 0.20267308 -0.020914534 -0.23845853
0003f0 4f 46 0e 3e 17 fa fb 3d 9b 97 e7 bd 01 3b 48 bd
       0.13894008 0.1230356 -0.11308213 -0.048884396

weight f4 [200]
000000 28 56 81 3f 5d 64 7d 3f 3a 4f 80 3f 22 bf 7a 3f
       1.0104418 0.9898127 1.0024178 0.97947896
000010 ca 38 7f 3f 35 8c 82 3f ad b2 80 3f f8 ed 7f 3f
       0.9969603 1.0199038 1.0054528 0.99972486
000020 8e 81 7b 3f d3 dc 80 3f 7b 8d 80 3f 5e 58 80 3f
       0.9824456 1.006739 1.0043176 1.0026968
000030 25 5a 80 3f ce f9 81 3f a7 a1 7e 3f a3 69 7f 3f
       1.002751 1.0154359 0.9946541 0.99770564
000040 3f e7 7c 3f 48 a2 80 3f e1 e8 7f 3f 11 10 80 3f
       0.98790354 1.0049524 0.9996472 1.0004903
000050 ec f0 82 3f bf ea 7d 3f 1b e5 7f 3f d4 3e 80 3f
       1.0229774 0.9918632 0.9995896 1.0019174
000060 fe dd 7f 3f 53 17 7d 3f 58 49 7e 3f a6 7c 7d 3f
       0.9994811 0.98863715 0.99330664 0.99018323
000070 5d ca 80 3f f2 b5 7f 3f df a1 80 3f 69 82 7e 3f
       1.0061756 0.99887 1.0049399 0.9941774
000080 80 fa 7c 3f bf b0 7c 3f c0 db 7e 3f 1a 18 7f 3f
       0.9881973 0.98707193 0.9955406 0.9964615
000090 78 d8 7f 3f d9 c7 80 3f 16 ac 7f 3f 25 d1 7f 3f
       0.9993968 1.0060989 0.9987196 0.99928504
0000a0 42 b5 81 3f 20 48 7d 3f d0 b9 7d 3f 00 2a 80 3f
       1.013344 0.9893818 0.9911165 1.0012817
0000b0 b1 cb 7d 3f fd eb 7b 3f 42 ec 80 3f db c3 80 3f
       0.99138933 0.98406965 1.00721 1.005977
0000c0 33 3e 81 3f 56 37 80 3f aa 75 7f 3f ab f7 7f 3f
       1.0097107 1.0016887 0.99788916 0.99987286
0000d0 0c 75 80 3f b3 54 81 3f df 30 80 3f e2 30 81 3f
       1.003572 1.0103973 1.0014914 1.0093043
0000e0 61 bc 80 3f 41 4d 7f 3f b8 54 80 3f 64 a6 7f 3f
       1.0057489 0.99727255 1.0025854 0.99863267
0000f0 91 1e 7e 3f 8c 29 7d 3f fc 6b 7d 3f a7 d5 81 3f
       0.9926539 0.9889152 0.98992896 1.0143327
000100 9b 5b 7f 3f 2e 49 80 3f 59 5e 7e 3f ed 42 7f 3f
       0.99749154 1.0022333 0.99362713 0.99711496
000110 5d f2 7d 3f e3 63 7c 3f 78 ed 7d 3f c4 c1 81 3f
       0.9919794 0.98589915 0.99190474 1.0137258
000120 17 c6 7c 3f 93 28 82 3f 12 79 81 3f bb 8e 7d 3f
       0.9873976 1.0168632 1.0115073 0.99045914
000130 ee 00 7f 3f c6 78 82 3f 94 12 80 3f 76 bd 7d 3f
       0.99610794 1.0193107 1.000567 0.9911722
000140 f5 6d 7f 3f a8 7d 7c 3f c9 b9 7f 3f d1 34 80 3f
       0.99777156 0.98629236 0.9989286 1.0016118
000150 77 63 7d 3f de cf 80 3f 6b 09 7e 3f f1 4d 82 3f
       0.98979896 1.0063436 0.9923312 1.0180036
000160 57 80 7f 3f 4e fc 80 3f 6a 1e 7f 3f e5 ac 7d 3f
       0.99805206 1.0076997 0.99655783 0.9909194
000170 6e 70 80 3f c8 d6 7f 3f 22 36 82 3f 0c db 81 3f
       1.0034311 0.99937105 1.017277 1.0144973
000180 a4 35 80 3f 43 a1 7f 3f 46 6e 80 3f f8 38 80 3f
       1.001637 0.9985544 1.0033653 1.0017385
000190 99 d7 80 3f 3f 30 80 3f 0a 5e 7e 3f ed a5 80 3f
       1.0065795 1.0014724 0.9936224 1.0050637
0001a0 df 4a 80 3f b7 b5 7f 3f 5e 36 80 3f aa a9 7d 3f
       1.0022849 0.9988665 1.0016592 0.9908701
0001b0 3e 97 81 3f ef da 7c 3f 80 67 80 3f 0b 4c 80 3f
       1.012428 0.98771566 1.0031586 1.0023206
0001c0 41 a9 81 3f 05 42 80 3f 98 3b 80 3f 0a f4 7e 3f
       1.0129777 1.0020148 1.0018187 0.99591124
0001d0 51 f0 7c 3f 8c cd 7e 3f 5c 6d 7e 3f 39 12 81 3f
       0.98804194 0.9953239 0.9938562 1.0083686
0001e0 ca 3b 80 3f 8d 7c 80 3f fa b1 7f 3f 92 fe 7a 3f
       1.0018246 1.003801 0.99880946 0.98044693
0001f0 81 a7 7f 3f 39 8e 81 3f 4c a6 7c 3f ed 99 7c 3f
       0.99864966 1.0121528 0.9869125 0.9867237
000200 c0 32 7f 3f 44 49 81 3f 75 00 80 3f 1f d8 7c 3f
       0.99686813 1.0100484 1.000014 0.98767275
000210 1b 69 80 3f 11 2b 7f 3f ad ed 80 3f ea 1d 7e 3f
       1.0032076 0.9967509 1.0072533 0.99264395
000220 99 5e 81 3f ea 55 81 3f c2 1f 7f 3f b3 dc 7f 3f
       1.0106994 1.0104344 0.99657834 0.99946135
000230 86 ba 7e 3f 3d 4e 7f 3f ed 31 7e 3f b9 d5 7c 3f
       0.9950336 0.9972876 0.9929493 0.98763615
000240 89 57 7f 3f 79 34 80 3f c9 42 81 3f 86 8e 81 3f
       0.99742943 1.0016013 1.0098506 1.012162
000250 59 90 80 3f 5a 91 80 3f dd 0c 80 3f b5 db 81 3f
       1.0044051 1.0044358 1.0003926 1.0145174
000260 f1 c2 80 3f 8e 96 80 3f d2 e1 81 3f df 85 7d 3f
       1.0059491 1.0045946 1.014704 0.99032396
000270 d4 dd 7e 3f b8 21 80 3f ea 41 7c 3f 3d bb 80 3f
       0.9955723 1.001029 0.98538077 1.005714
000280 17 64 7c 3f d1 15 7f 3f 06 e9 81 3f 2c ea 7c 3f
       0.98590225 0.99642664 1.0149238 0.9879482
000290 9f e2 7c 3f ff 45 81 3f 96 b8 80 3f c5 79 80 3f
       0.98783296 1.0099486 1.0056331 1.0037161
0002a0 f4 96 81 3f 8b df 81 3f e0 86 81 3f 91 2b 81 3f
       1.0124192 1.0146345 1.0119286 1.009142
0002b0 ea 67 7e 3f f2 04 80 3f 7e d7 80 3f 21 fe 81 3f
       0.9937731 1.0001509 1.0065763 1.0155679
0002c0 9e f7 80 3f b2 55 81 3f d7 ce 7f 3f 9b ad 7d 3f
       1.0075567 1.0104277 0.9992499 0.99093026
0002d0 b4 ee 7b 3f 91 3e 80 3f b4 33 81 3f 85 85 7b 3f
       0.9841111 1.0019094 1.0093904 0.9825061
0002e0 f5 66 7e 3f 11 4a 7f 3f 37 1d 7d 3f 64 4c 7f 3f
       0.9937585 0.9972239 0.98872703 0.9972594
0002f0 54 07 81 3f 77 04 7f 3f 4e 4e 82 3f 26 9e 7e 3f
       1.0080361 0.9961619 1.0180147 0.99460065
000300 71 1e 7e 3f 1f ab 80 3f d1 67 82 3f 1b d5 7f 3f
       0.992652 1.0052222 1.0187932 0.9993455
000310 39 a5 7d 3f a1 ea 7b 3f 49 9f 7e 3f 56 a4 7d 3f
       0.99080235 0.9840489 0.994618 0.9907888

bias f4 [200]
000000 7a c1 9a 3c 2f 22 bc bc 4f eb 6c 3b 6e 48 fe bc
       0.018891085 -0.022965519 0.0036150997 -0.031040397
000010 02 ba 37 3c 95 e0 cf 3b e7 7f 00 3a b0 23 bd bb
       0.011213781 0.006343911 0.00049018714 -0.0057720765
000020 42 b4 92 bc 43 c6 7c 3c a0 6d 6e 39 cc 6b a9 bb
       -0.01790822 0.015428129 0.00022738287 -0.005170321
000030 a9 0f 5e 3c 0d f2 90 3c 90 5c 99 3c 4f af 11 bc
       0.013553538 0.017693544 0.018720895 -0.0088918945
000040 17 63 ef 3c 5a 49 34 bc db 72 ac bb 46 b3 18 3c
       0.029222054 -0.0110038165 -0.0052627153 0.009320086
000050 7a 90 b0 3c 49 48 1b bc cd 02 88 b9 d0 17 47 3c
       0.021553267 -0.009477683 -0.00025942028 0.012151673
000060 99 8a 8f bc 40 48 cb bb 7a 68 67 ba db 97 89 3c
       -0.017522143 -0.006203681 -0.0008827519 0.016796043
000070 13 1f 95 bb 62 15 4b bc 25 81 70 bc 92 40 27 3c
       -0.0045508235 -0.012395235 -0.014679228 0.010208266
000080 9b bb 00 3d 8c d6 a9 3c 60 db a1 3c 30 52 44 bc
       0.031428915 0.020732187 0.019757926 -0.011982486
000090 ba 71 dd 39 b4 b1 5c 3c b5 bc 5e bb b1 1b 7e 3c
       0.00042237138 0.013470102 -0.003398699 0.015509532
0000a0 f8 af 1e bc c0 f9 46 3c 12 fb 38 3c bf be 20 3c
       -0.009685509 0.012144506 0.011290329 0.009811102
0000b0 c2 60 2f 3a 04 93 d5 bb 9e cd be bb 3d 43 50 3c
       0.0006690138 -0.00651777 -0.0058228513 0.012711343
0000c0 dc 59 71 3c bb 5b a2 3c 39 5a a4 bc af ca 9b ba
       0.014730897 0.019819131 -0.020062553 -0.0011885966
0000d0 53 4c 48 bc 55 1b 1d 3c 5b b6 bd bc ef 39 62 bb
       -0.012225228 0.009589036 -0.023158243 -0.0034519394
0000e0 3a 66 96 3a 92 4b d0 3b e9 e8 66 3b 88 bf 96 3b
       0.0011474558 0.006356665 0.003523404 0.004600469
0000f0 44 5e 41 bc 3b 14 c8 ba 92 e6 ae 3c 8c c7 1c bc
       -0.01180226 -0.0015264818 0.021350179 -0.00956906
000100 50 aa b3 3c d4 f3 38 3a 44 a1 90 3c d9 74 b9 3b
       0.021931797 0.0007055376 0.017655022 0.0056596813
000110 84 48 92 bc e2 94 1c 3c 18 67 26 bc 55 0b 35 3c
       -0.017856844 0.009556981 -0.010156415 0.011050065
000120 9d a9 bc 3c 48 78 5e 3b 8e 9c 73 3c 72 26 2c 3c
       0.023030097 0.0033946205 0.0148688685 0.010507213
000130 97 bb 96 3c 37 81 5a 3b c4 c5 13 bc 7a 99 7f bc
       0.018399997 0.0033341178 -0.009019319 -0.0156005565
000140 8a a5 a3 bb 3a 06 06 bc ab 73 11 3c 3f a8 31 bc
       -0.004994099 -0.0081801955 0.008877675 -0.010843336
000150 27 1c 92 3c a7 1a 83 3b 75 be c7 3b d1 6b 62 bc
       0.01783569 0.00400098 0.0060957023 -0.013819651
000160 c6 6e fd 39 cb e0 a0 bc 17 d1 8e ba 80 25 49 bc
       0.00048338453 -0.01963844 -0.0010896054 -0.012277007
000170 1f 76 cc 3c 10 b6 8a bb 06 68 a7 3c c1 2b a3 3c
       0.024958668 -0.0042331293 0.020435344 0.019918324
000180 af 69 58 bc 5c d6 50 bc ad 4d 08 bc 18 13 b1 3c
       -0.013208791 -0.01274642 -0.008319301 0.02161555
000190 ef 1e da bc 91 02 3c bc d7 70 0f bc d4 7d d4 bc
       -0.026626078 -0.011475221 -0.00875493 -0.025938906
0001a0 3f bc ce 3a a6 8e ef 3c 00 35 af 3c 6b 6d b6 39
       0.0015772654 0.029242825 0.021387577 0.00034795268
0001b0 f7 ac 66 bc 7f 81 fa 3b df c2 5f 3c 4f dd 91 bb
       -0.014079324 0.0076448317 0.013657301 -0.004451431
0001c0 38 57 86 3b ee 2b b0 3b f9 17 50 3c a7 8f f9 bc
       0.0040997528 0.0053763306 0.012701028 -0.030464007
0001d0 18 33 23 3b 82 ce 5f bc eb ea 80 3c c6 ae 94 bb
       0.002490228 -0.013660075 0.015737018 -0.004537436
0001e0 d1 86 42 bb 58 18 7b 3c b8 86 8a bc 38 f1 10 bb
       -0.0029682408 0.015325628 -0.016909942 -0.0022116434
0001f0 99 cd 4c 3b 0d 54 9b bb b5 fa ce 3b 57 c7 98 bb
       0.0031250475 -0.0047402442 0.0063165077 -0.004662435
000200 6f 76 9f bc 9f 30 21 3c 06 f7 ef 39 ad c4 49 bc
       -0.019465653 0.009838252 0.0004576968 -0.012314958
000210 e6 36 6b 3b 53 8f 73 3c 38 c0 f4 ba 6d 76 a7 3c
       0.0035890876 0.014865714 -0.0018673008 0.020442212
000220 ab ba 05 bc 5a 41 98 39 02 4c 6a 3c 5d 81 8c bc
       -0.008162181 0.0002904039 0.014300348 -0.017151529
000230 46 b8 6e 3a b9 aa e3 ba 2a 74 ae 3c e5 a6 c3 bc
       0.00091064384 -0.0017369605 0.021295626 -0.023883292
000240 e0 3f 90 bc d0 72 7b 3a 03 2e bb 39 76 94 da 3b
       -0.017608583 0.00095919985 0.000357017 0.00667053
000250 5a 1d 69 bc a0 5a 06 bc 69 63 4e bb 54 73 79 3c
       -0.014228189 -0.008200318 -0.0031492359 0.01522525
000260 e5 dc eb bb 1c 16 85 3c a1 f5 0e bc 56 be 71 3c
       -0.0071979635 0.016245894 -0.008725555 0.014754852
000270 28 b1 b5 3c f9 c0 72 3c 4e ee 45 bb 56 77 1d bc
       0.022179201 0.014816516 -0.0030201855 -0.009610971
000280 cb 6b 32 3c d2 a8 21 3c 7a 93 47 3b 86 6a 18 bc
       0.010889958 0.00986691 0.0030452893 -0.009302741
000290 c6 c8 dd 3c 1e 5d a3 bc ec ee 09 3c 2a 9c 1c 3c
       0.027073275 -0.019941863 0.00841878 0.009558717
0002a0 5f a1 8c 3c 02 1a c4 3c a7 04 4e 3b 60 b6 dc 3b
       0.017166791 0.023938183 0.0031435878 0.006735608
0002b0 ff 6a bb 3c 18 19 79 3c 66 c4 64 3b 67 99 81 3c
       0.022878168 0.015203737 0.0034907102 0.015820218
0002c0 2c 32 9d bc 5a 36 9b bb 26 20 42 bc 3e 05 f5 3b
       -0.019188963 -0.004736704 -0.011848485 0.0074774316
0002d0 57 4e d9 bc 59 c0 21 3c 59 2d c3 bb 39 5d a2 bb
       -0.026526613 0.009872519 -0.0059563336 -0.0049549607
0002e0 fe 5d 09 bd ff 0c f8 bb 68 1c da bb 72 24 49 3c
       -0.033536904 -0.0075699086 -0.0066562183 0.012276756
0002f0 66 65 5b bb 56 31 55 bc 28 40 c2 bc 82 f7 0d bb
       -0.0033477186 -0.013012251 -0.023712233 -0.0021662419
000300 bd f3 76 3b 53 2a 2d bc 09 99 b1 ba 8d 05 4c bc
       0.00376819 -0.010569173 -0.0013549636 -0.012452495
000310 7b a8 78 3c 19 ff 99 3c 1b 75 44 bc 75 dc 5a bc
       0.015176888 0.018798398 -0.011990811 -0.013358225

running_mean f4 [200]
000000 45 8f 65 3e 16 22 29 3e 3c 79 49 3e ce 34 2b 3e
       0.22417934 0.16516909 0.19675153 0.16719362
000010 84 6c 6e 3e 50 42 47 3e fb 49 58 3e 85 bf 41 3e
       0.23283583 0.1945889 0.21121971 0.18920715
000020 94 0f 80 3e 75 db 3c 3e f8 63 8f 3e e1 3e 11 3e
       0.25011885 0.18443091 0.28005958 0.14184143
000030 61 f1 19 3e c6 4e 40 3e f7 0e 32 3e fd 5a 7a 3e
       0.15033485 0.1878005 0.17388521 0.24448772
000040 bf ff 80 3e 84 11 33 3e 09 31 73 3e 2c 31 09 3e
       0.2519512 0.1748715 0.23749174 0.13397664
000050 26 87 27 3e 48 bb 2e 3e fc 4f 8f 3e 64 d0 94 3e
       0.16360149 0.1706363 0.2799071 0.2906524
000060 e8 fe 8e 3e 14 88 74 3e 47 9a 7b 3e 85 8c 6b 3e
       0.27928853 0.23880035 0.24570571 0.23002823
000070 34 f6 64 3e 9c f5 31 3e a4 3f 57 3e bc ae f1 3d
       0.22359544 0.17378849 0.2102037 0.11800906
000080 77 61 5a 3e 13 e4 28 3e 2e 81 40 3e 96 7c 38 3e
       0.21326242 0.16493253 0.18799278 0.18016276
000090 f3 fd 92 3e 7e 04 83 3e 1c cd 5c 3e eb 35 3d 3e
       0.28709373 0.25589365 0.21562618 0.184776
0000a0 d1 01 42 3e c0 01 4e 3e fd 88 41 3e 19 49 53 3e
       0.18946005 0.20117855 0.18899913 0.20633353
0000b0 07 46 18 3e c6 26 ec 3d 5d ae 3c 3e b0 4e 76 3e
       0.14870463 0.11530833 0.1842589 0.24053454
0000c0 3b 75 76 3e 43 78 16 3e 2a 2e 44 3e f5 7b d7 3d
       0.24068157 0.14694314 0.19158235 0.1052169
0000d0 c4 0a 5c 3e bb d7 3a 3e 2b 30 36 3e 14 79 fa 3d
       0.21488482 0.18246357 0.17791812 0.12230125
0000e0 c2 7a 1c 3e 00 d0 46 3e 95 2f 3e 3e 1e 7e 27 3e
       0.15281203 0.19415283 0.18572839 0.16356704
0000f0 b5 a3 58 3e ca 37 5e 3e 0d 0a 17 3e d0 35 56 3e
       0.211562 0.2170097 0.14749928 0.20918965
000100 36 8e 72 3e 03 8a 3d 3e 50 56 6b 3e ca 14 45 3e
       0.23687062 0.18509679 0.22982144 0.19246212
000110 e7 73 42 3e 53 9f 8d 3e a3 66 4e 3e f4 be 3a 3e
       0.18989526 0.27660617 0.2015634 0.18236905
000120 7f 07 52 3e e9 fb 3c 3e 46 7b 60 3e 17 a2 37 3e
       0.20510672 0.18455471 0.21922025 0.17932926
000130 5e 48 73 3e 27 9b 4d 3e 12 14 5c 3e d0 ea 5a 3e
       0.23758075 0.20078717 0.21492031 0.21378636
000140 71 d1 68 3e 09 f9 70 3e 69 23 2e 3e 93 9f 5e 3e
       0.22736146 0.235325 0.17005695 0.2174056
000150 5e 35 4e 3e 49 f4 33 3e 7c 26 70 3e 0a 32 48 3e
       0.20137545 0.17573656 0.2345218 0.19550338
000160 97 69 1d 3e 67 8a 7c 3e 52 b2 4b 3e ae ba 60 3e
       0.1537231 0.24662171 0.19892243 0.21946213
000170 13 6b 1a 3e ec a4 51 3e 39 61 2a 3e 1d 68 2a 3e
       0.15079908 0.20473069 0.1663865 0.16641279
000180 22 e2 03 3e 6b 3d 14 3e 4d 83 f1 3d b5 9a 4d 3e
       0.12879232 0.14476554 0.11792622 0.20078547
000190 1c 22 61 3e d3 25 62 3e dc 76 52 3e d6 94 59 3e
       0.21985668 0.22084741 0.20553154 0.21248183
0001a0 9d 62 69 3e 59 fe 3e 3e 24 f5 31 3e c8 0c 17 3e
       0.22791524 0.18651713 0.1737867 0.1475097
0001b0 38 5e 5c 3e 26 0b 5e 3e f1 2d 5f 3e c5 47 44 3e
       0.21520317 0.2168394 0.21794869 0.19168003
0001c0 5a 63 07 3e 03 58 34 3e 47 d0 ee 3d 0e 0e 3f 3e
       0.13221493 0.17611699 0.116608195 0.18657705
0001d0 d0 6e 88 3e 98 86 35 3e 5d 54 5c 3e 4e a5 b6 3e
       0.26647043 0.17727125 0.21516557 0.35672992
0001e0 cb cd 1a 3e 45 91 77 3e 2d 55 92 3e 5c b4 a7 3d
       0.15117566 0.2417651 0.2858061 0.08188698
0001f0 31 91 33 3e 45 37 8d 3e 83 e6 15 3e 3a 58 25 3e
       0.17535855 0.2758123 0.14638714 0.16146937
000200 26 77 68 3e 33 0e 2b 3e 10 da 11 3e 08 62 66 3e
       0.22701702 0.16704635 0.1424334 0.22498333
000210 0d c3 32 3e d8 f6 09 3e 7d 6c 29 3e f7 b9 71 3e
       0.17457218 0.1347307 0.16545291 0.23606096
000220 fe 49 30 3e 6b 1d 24 3e 2f cc 34 3e 13 f3 f7 3d
       0.17215726 0.16026847 0.17656015 0.121069096
000230 28 47 66 3e 52 9f 6c 3e 8a 19 04 3e b7 56 ca 3d
       0.22488081 0.23107651 0.12900367 0.09879821
000240 ea fb 7c 3e a6 d0 29 3e 00 8d 7b 3e 07 54 5e 3e
       0.24705473 0.165835 0.24565506 0.21711741
000250 d6 42 3c 3e 55 e1 6c 3e a1 d7 8b 3e 3e df 8c 3e
       0.18384871 0.23132832 0.2731295 0.2751407
000260 4d 34 5a 3e 9e 93 20 3e 65 68 80 3e e6 ca 22 3e
       0.21309014 0.15681311 0.25079647 0.15897712
000270 9b 56 60 3e 0d 2c 86 3e 63 34 19 3e 9a 53 3c 3e
       0.21908037 0.26205483 0.1496139 0.18391266
000280 4e 2a 48 3e 7c 2b 63 3e 66 58 8c 3e c9 82 68 3e
       0.19547388 0.22184557 0.27411193 0.2270614
000290 0e 83 6f 3e a2 57 2c 3e 39 16 20 3e 6f 2a 56 3e
       0.23389837 0.16830304 0.15633477 0.20914625
0002a0 dc fb 21 3e 78 a2 1b 3e 59 9e 84 3e 7f 42 60 3e
       0.15818733 0.15198696 0.2590206 0.21900366
0002b0 2f cd 58 3e 5b 1c 25 3e 6b a9 1e 3e ee e7 96 3e
       0.21172021 0.16124098 0.15494315 0.29473823
0002c0 12 81 51 3e e9 51 4c 3e 44 c4 0e 3e 03 7b 37 3e
       0.20459393 0.19953121 0.13942057 0.17918019
0002d0 f8 cc 38 3e 8a 4a 49 3e ad 69 90 3e 68 72 43 3e
       0.1804694 0.1965734 0.28205624 0.19086611
0002e0 3e cd 36 3e 5a 2a 63 3e ff 68 4e 3e 17 81 18 3e
       0.17851731 0.22184125 0.2015724 0.14892994
0002f0 ce 81 30 3e fc 36 67 3e 49 16 62 3e 71 ba 5a 3e
       0.17237017 0.22579569 0.22078814 0.21360184
000300 70 48 3c 3e 0a 1b 53 3e 9c 59 5b 3e df 4a 36 3e
       0.18387008 0.20615783 0.21420902 0.17801999
000310 bb 27 20 3e 3b 1d 2d 3e 6e 35 85 3e 5b d0 4b 3e
       0.15640156 0.16905682 0.26017326 0.199037

running_var f4 [200]
000000 05 dd 22 3e 92 70 6c 3d c4 c5 93 3d d7 d2 fd 3d
       0.15904625 0.057724543 0.07215455 0.1239373
000010 f0 d0 bb 3d f0 d7 f4 3d e2 fc f9 3d f9 fe 33 3d
       0.09170711 0.11955249 0.12206437 0.043944333
000020 e1 ed b9 3d 0a a7 0e 3e aa 3c 06 3e 3d 71 6c 3d
       0.09078575 0.13930908 0.13109079 0.05772518
000030 fd 0a ca 3d 08 a2 a3 3d 8a ae c1 3d 63 a5 d7 3d
       0.09865377 0.079898894 0.09457119 0.10529592
000040 15 b0 1c 3e 73 6c 92 3d 8c 8b ec 3d 3d fc 1e 3d
       0.15301545 0.07149591 0.11550054 0.038814772
000050 3a c6 ad 3d 9c 90 70 3d 72 a1 fc 3d 3d 4c 11 3e
       0.08485074 0.05873166 0.12335481 0.14189239
000060 d6 1c d1 3d d7 d4 8a 3d 99 ec 19 3e 3d 63 a2 3d
       0.10210578 0.06778877 0.15031661 0.079290845
000070 f8 24 db 3d 23 da 65 3d 7f f9 b1 3d 95 76 63 3d
       0.107004106 0.056116235 0.08690166 0.05553301
000080 8c 2a c9 3d a9 1e 6d 3d 65 1a 5e 3d db c2 92 3d
       0.09822568 0.057890568 0.05422439 0.07166072
000090 03 91 03 3e 74 0d e7 3d de 6e de 3d 11 10 e2 3d
       0.12848286 0.11281863 0.1086099 0.11038221
0000a0 22 b3 b2 3d 02 31 96 3d 80 2c c8 3d 4a 6a c2 3d
       0.08725573 0.07333566 0.09774113 0.09492929
0000b0 a9 18 6c 3d 00 7a 1a 3d a5 3b 0c 3e af b4 ac 3d
       0.057640705 0.037714005 0.13694628 0.084329
0000c0 54 0f f1 3d 8e fc b2 3d 16 f3 bb 3d e2 a5 f2 3c
       0.11770502 0.08739577 0.09177224 0.029620115
0000d0 3c f3 be 3d 3c c4 ba 3d e6 60 cc 3d ab d5 68 3d
       0.09323737 0.0911946 0.099794194 0.056844395
0000e0 3f b4 42 3d 52 ec eb 3d 34 42 57 3d c5 43 76 3d
       0.047535177 0.11519684 0.05255337 0.060123224
0000f0 6e bf 03 3e 27 be c5 3d 89 6e ab 3d 44 04 9b 3d
       0.12865993 0.09655409 0.08370692 0.07569173
000100 e4 6d 1d 3e a5 d8 e8 3d 3b 8b 97 3d e6 48 d0 3d
       0.15373951 0.11369447 0.07399603 0.10170154
000110 36 02 b6 3d 14 b9 ad 3d 64 9a 9e 3d 52 35 1e 3e
       0.088871405 0.084825665 0.077442914 0.15450028
000120 ee 23 c9 3d 3f 23 8d 3d d2 b0 eb 3d c6 9a de 3d
       0.09821306 0.06891488 0.11508335 0.108693644
000130 34 c3 9e 3d a5 8f 8d 3d d3 31 c6 3d 22 f8 df 3d
       0.07752076 0.06912164 0.09677472 0.109359995
000140 d9 fa 1b 3e 3e ac 59 3d 4d fb 6f 3d 3c b6 ff 3d
       0.1523241 0.05314278 0.05858927 0.1248593
000150 87 1b 98 3d 52 fd c5 3d b5 4c d6 3d ca ea dd 3d
       0.074271254 0.09667458 0.104638495 0.10835798
000160 5c 96 8f 3d cc 2c ff 3d d2 f6 75 3d f0 d6 12 3e
       0.07011101 0.12459716 0.06004984 0.14339805
000170 d6 b9 60 3d b4 0e c2 3d c4 83 7c 3d 8f bc 9b 3d
       0.054864727 0.09475461 0.0616491 0.07604324
000180 00 e3 7d 3d ca eb fb 3c 84 d5 3b 3d f0 7d ab 3d
       0.061984062 0.030752081 0.04585792 0.0837363
000190 76 0c 07 3e 2d db 09 3e a0 a8 ad 3d 95 43 ce 3d
       0.13188347 0.13462515 0.08479428 0.10071484
0001a0 68 3d e3 3d 5e 22 b4 3d c6 75 b9 3d 81 fe ba 3d
       0.11095697 0.087956175 0.090556666 0.09130574
0001b0 f0 75 b3 3d b6 97 89 3d 5a 99 93 3d 9c d8 f5 3d
       0.08762729 0.0671839 0.07206984 0.120042056
0001c0 b6 a2 7d 3d 9a 0d dc 3d de ab 56 3d 17 0e c7 3d
       0.06192275 0.10744782 0.05241 0.09719484
0001d0 9e 6a fd 3d 3a 6b f8 3d 51 99 f0 3d 31 1b 27 3e
       0.12373851 0.12129827 0.11747993 0.16318966
0001e0 f7 f4 6f 3d 16 59 04 3e f8 85 f1 3d cc 68 ce 3c
       0.058583226 0.12924609 0.11793131 0.025196455
0001f0 87 9e a7 3d f4 d5 37 3e 41 34 95 3d 37 e2 87 3d
       0.081845336 0.1795271 0.07285357 0.06634944
000200 4c 2e 30 3e 52 b6 ef 3d 59 07 2a 3d 09 4a 1d 3e
       0.17205161 0.11704697 0.041510914 0.15360273
000210 65 5c de 3d bc 82 15 3d 88 b1 76 3d ae be ae 3d
       0.108574666 0.03650163 0.0602279 0.08532463
000220 26 08 34 3d 72 9d a8 3d fd 2e d8 3d db 20 66 3d
       0.043953083 0.08233155 0.10555837 0.056183677
000230 9a a5 1c 3e 87 dc f5 3d 1f 3c 46 3d f4 c5 d8 3c
       0.15297547 0.12004953 0.04839718 0.026461579
000240 dd fd bc 3d 9c 7b 36 3d 6f 26 05 3e ec bc b9 3d
       0.09228108 0.044551477 0.13002943 0.09069237
000250 9a 47 a8 3d 31 1f 48 3d a1 13 16 3e 09 ee 2b 3e
       0.08216782 0.04885787 0.14655925 0.16790022
000260 6e b6 20 3e 65 e5 b5 3d 8c 5e 0a 3e e9 a0 8c 3d
       0.15694591 0.08881644 0.1351263 0.06866629
000270 fd 29 9e 3d 12 c8 ed 3d 3f f0 a9 3d 08 8d 79 3d
       0.077228524 0.11610426 0.082977764 0.060925514
000280 da 68 8f 3d ac b5 55 3d 56 60 5c 3e a7 8f e6 3d
       0.07002421 0.05217521 0.21521124 0.11257868
000290 0a e7 87 3d 09 b3 c3 3d 6a b3 e8 3d 6a cb af 3d
       0.06635864 0.095556326 0.113623455 0.0858372
0002a0 ab 78 cb 3d 12 2d 8f 3d 6c 2b 11 3e f6 8f e1 3d
       0.09935125 0.06991018 0.1417672 0.110137865
0002b0 5f 02 ce 3d e1 93 b3 3d b2 b8 51 3d cb 40 9d 3d
       0.10059046 0.0876844 0.05120153 0.07678374
0002c0 16 67 1a 3e 17 0f 99 3d cb 7e 46 3d 32 0d b5 3d
       0.15078387 0.07473581 0.048460763 0.088404074
0002d0 01 43 aa 3d f1 2c 8d 3d c8 95 0b 3e 0e d7 19 3d
       0.08313561 0.068933375 0.13631356 0.037558608
0002e0 2b c0 8c 3d 4f 49 ef 3d e9 d7 c8 3d 76 b0 a7 3d
       0.06872591 0.116839044 0.098068066 0.08187954
0002f0 0c c2 f2 3d de 70 a9 3d 51 80 14 3e b3 0c 8a 3d
       0.11853418 0.08273481 0.14502074 0.067407034
000300 94 d3 bd 3d 03 5a ae 3d 70 ff d9 3d 96 77 36 3d
       0.09268871 0.08513262 0.10644424 0.04454764
000310 29 62 9f 3d a8 dd b7 3d 3e 07 a4 3d b8 d5 ce 3d
       0.077823944 0.089778244 0.08009194 0.10099357

weight f4 [100, 200]
000000 e6 9c 19 3d d5 2c 46 bd 7a b9 ea bc 5d 61 63 ba
       0.037503146 -0.0483826 -0.028652895 -0.0008673871
000010 df 26 69 bd 53 2d 28 3d 9c ac 9d bc b4 02 61 bd
       -0.056921836 0.04105885 -0.019247346 -0.05493422
000020 17 01 fb bc b2 8c 41 bd 46 3a a2 3c a7 9f b0 bc
       -0.030640168 -0.047253318 0.019803178 -0.021560503
000030 64 ed c8 bc 0f 74 30 3d f3 b7 6d b9 c4 02 9a bd
       -0.02452726 0.043079432 -0.00022670608 -0.07520059
000040 80 15 34 3d 0b de 23 3c b0 c9 a2 3d 70 9f ab 3c
       0.043965816 0.01000167 0.07948625 0.02095005
000050 78 e9 f2 bc 90 cb 97 bd 01 53 d7 bc ab 20 58 3d
       -0.029652342 -0.07411873 -0.026284697 0.05276553
000060 98 a3 31 bd e5 f4 05 bc a9 0e 0e 3d c3 9a 9e 3b
       -0.043368906 -0.008176063 0.03468195 0.0048402264
000070 4d 49 2b 3d 77 fa 82 bc 68 76 88 3d c9 d3 a0 3d
       0.041817952 -0.015988572 0.06663209 0.07852895
000080 7f 5c 8f bd bf 5f e5 3c 5a d9 80 bd 19 07 05 bd
       -0.07000064 0.027999757 -0.062914565 -0.032477472
000090 5f ec c0 bb f9 c9 0f 3d 33 e8 69 bd c1 00 41 bc
       -0.0058875526 0.035104726 -0.057106208 -0.011779965
0000a0 4b a3 90 3d c9 d0 0e bd 6d 39 26 bd a5 92 4a 3d
       0.07062396 -0.03486708 -0.04058211 0.049456257
0000b0 2c a7 0e bd 81 73 25 bd 8b 7b 8a 3d 8b 52 3f bd
       -0.034827396 -0.040393356 0.06761845 -0.04670958
0000c0 6e 49 45 3c e0 92 04 3d f2 48 15 bd de 34 a5 bc
       0.012041433 0.032366633 -0.03644652 -0.02016681
0000d0 5d 69 6a b8 d7 45 39 bd b9 c6 b1 bc 9e fa 14 bd
       -5.5888075e-05 -0.04523262 -0.021701204 -0.03637182
0000e0 ed f2 ad bc 29 cc 35 bc af 1f e7 bc 9a f4 68 bd
       -0.021234 -0.011096039 -0.02821335 -0.056873895
0000f0 8a 4e 73 bd 63 0e 28 bc 57 89 07 3d c8 66 14 bd
       -0.059401073 -0.010257336 0.03308996 -0.036230832
000100 10 ac 0e bc 15 b3 20 3d c4 59 75 3d c6 15 84 bd
       -0.008708015 0.039233286 0.05990006 -0.064494655
000110 17 09 23 bd 67 e1 95 bd 7c d4 27 3d 4b 59 0c bd
       -0.03980359 -0.07318383 0.040974125 -0.034264844
000120 06 5f 5e bc 56 2f 05 3d 2f be 4c 3d 52 3a d7 bc
       -0.01357246 0.032515846 0.04998606 -0.026272926
000130 48 b5 1e bd c1 05 e0 ba 79 47 d7 bc c3 0b 6a bd
       -0.038747102 -0.0017091559 -0.026279198 -0.057140123
000140 d9 0c 9a 3d 09 22 8e bd ac ba ef 3c 51 36 88 3d
       0.07521982 -0.069400854 0.029263817 0.06650985
000150 33 b9 f7 3c 22 3b 63 bc 19 a4 9e b8 11 89 d3 3c
       0.030239677 -0.013869079 -7.564593e-05 0.025822194
000160 6a 42 5a bc 03 f4 5b 3d 0d 3b 83 bd 02 17 96 bc
       -0.013321498 0.053699505 -0.064077474 -0.018321518
000170 7e 5a 94 3d dc cf 80 3d 16 16 ca 3a 92 ec a2 3c
       0.072438225 0.06289646 0.0015417959 0.019888196
000180 c7 db 0b bd 7f 0f 00 bd 13 a9 18 3d 5f b8 41 bd
       -0.034145143 -0.03126478 0.037270617 -0.04729497
000190 bd 37 b1 3d ac 19 59 3c 67 af c4 bc bb e5 ea bc
       0.08653209 0.01325075 -0.02400942 -0.028673997
0001a0 eb 24 86 3c e2 93 18 bd d7 3b 9a bc 12 cd fb 3b
       0.016375026 -0.037250407 -0.018827362 0.0076843584
0001b0 88 ba 8f 3c 54 34 19 3d 82 df 82 bd 9c 51 68 bc
       0.017545 0.03740342 -0.06390287 -0.014179613
0001c0 2d 32 3a bd 83 c5 36 bd e9 b3 60 3d 3a ca 16 3d
       -0.045458008 -0.044621956 0.054859076 0.036813952
0001d0 34 23 10 3d 9e b5 54 3d 8e 80 38 bb 85 b9 91 bd
       0.035189822 0.051931016 -0.0028152796 -0.07115463
0001e0 bc 40 e0 3c 2d 79 4c bd 78 8f 84 3d f7 23 cc 3b
       0.027374618 -0.04992025 0.06472677 0.0062298733
0001f0 05 7f ce 3c 8a 6b 3e 3d cd 5d f1 bc 45 02 32 3d
       0.025207052 0.046489276 -0.029463673 0.043459196
000200 02 b5 97 bc 31 2f 71 3d 86 e7 36 3c 74 1b f2 3c
       -0.018518928 0.058882896 0.011163598 0.029554106
000210 32 23 20 bb d8 9e 61 3d 17 b6 ac 3c 2a ca 0f bc
       -0.002443504 0.055083126 0.021082921 -0.008776227
000220 c0 59 94 3d 70 cf 5e bd e0 9e 23 bd dc 06 57 ba
       0.07243681 -0.054397047 -0.039946437 -0.0008202621
000230 fd cb 81 bc 2e c8 89 3d ee cf 1b bd 8d 8f d9 bc
       -0.01584434 0.06727634 -0.038040094 -0.026557708
000240 9d fe 8f bd 75 93 27 3d 47 49 c8 3c 48 a7 fd bc
       -0.070309855 0.04091211 0.024449004 -0.030963555
000250 08 36 5e bc ff 1c 7b bd 24 57 7d 3c ab 84 f0 3c
       -0.013562687 -0.06130695 0.0154626705 0.029360136
000260 a6 6f 07 bc ab d5 48 bc 07 07 6c bd 48 b0 35 bd
       -0.008266365 -0.012257974 -0.05762389 -0.044357568
000270 7b 55 9c bc 57 0b 1c bc f1 39 7f 3d 1b b4 32 3d
       -0.019083729 -0.009524188 0.062311117 0.043628793
000280 df d0 83 bd c2 e4 86 bd 7c 0c a3 3d e3 06 0d 3d
       -0.064363234 -0.06586601 0.079613656 0.034430396
000290 89 b8 8e bc b8 67 2d 3d 40 47 25 bd bb b4 51 bd
       -0.017421978 0.042335242 -0.040351152 -0.05119775
0002a0 5b 56 c0 3b 74 2f 46 3d 92 54 2a 3d 23 10 1e 3d
       0.0058696694 0.0483851 0.04158456 0.038589608
0002b0 12 87 0d bc bc c9 1b 3b 70 be d3 3c 6b 17 25 3d
       -0.00863816 0.0023771366 0.025847644 0.040305536
0002c0 ee c0 35 3d 8c 03 9c bc 3d d1 1c bd 2a dc 38 bd
       0.044373445 -0.01904466 -0.038285483 -0.04513184
0002d0 bf 40 1e 3d e9 66 bd bc 3b 0d 49 3d 80 66 44 3d
       0.038635965 -0.02312036 0.049084883 0.047949314
0002e0 8b e2 9a 3d 42 07 00 bd 2e 23 3d 3d b3 e9 35 3d
       0.07562741 -0.03125692 0.046176128 0.044412326
0002f0 46 d8 09 bd 20 93 55 ba 6c fe 85 3d 85 51 22 bc
       -0.03365352 -0.00081472285 0.06542668 -0.009907131
000300 36 70 43 3d 90 11 16 3d 96 ea 49 bd eb 06 53 3c
       0.047714435 0.036637843 -0.049295984 0.012880067
000310 e6 89 65 3d 27 25 16 bd 8c 35 0c bd 59 72 05 3d
       0.056039713 -0.036656525 -0.034230754 0.032579754
000320 f5 be 39 3d a7 bf 3d 3c f5 37 76 bd e9 c8 89 3c
       0.045348126 0.011581338 -0.06011196 0.016819434
000330 8e 57 7f bb 29 42 20 3d 67 50 54 bd ba 54 58 bd
       -0.0038962099 0.039125595 -0.05183449 -0.052815177
000340 9d 2c 71 bd 7c c7 51 3a 36 c3 f2 bc 50 f6 19 3c
       -0.058880437 0.0008002443 -0.0296341 0.009397104
000350 bb bd 57 bd 75 2c 91 bc 19 6c bc bc 53 a0 71 3d
       -0.052671175 -0.017721394 -0.023000764 0.058990788
000360 49 d4 85 3d b8 05 97 3c 6c 1d 8e 3d 8d 93 61 3d
       0.06534631 0.018435344 0.069392055 0.055072356
000370 a7 87 c4 bc ed 23 8d bc ed 8c 54 bd 43 b8 49 3d
       -0.023990465 -0.017229045 -0.05189221 0.04924799
000380 55 fc 8f bc e2 fa c3 bc 4e df 47 3d 5d c5 2f bd
       -0.017576376 -0.023923341 0.048796944 -0.04291283
000390 99 97 96 3c c9 00 dc 3c 98 ee 93 bd 09 32 9e 3d
       0.018382834 0.026855843 -0.072232425 0.07724387
0003a0 0f fb 18 3d 42 77 f7 bb 7d 7a 4c 3d 6b 7e 86 3d
       0.037348803 -0.0075520584 0.0499215 0.06567081
0003b0 8e 2d 97 bd f8 f9 83 3c e3 41 1c bb c8 2e 43 3d
       -0.07381736 0.016110405 -0.0023842982 0.047652036
0003c0 27 24 b3 bb 71 51 dd 3c 9f a4 61 3d d5 81 6b bd
       -0.005466956 0.027016373 0.055088636 -0.057496864
0003d0 c9 e2 5c bd ab f1 27 bc be 63 60 bd c4 15 93 bd
       -0.053927217 -0.010250489 -0.05478262 -0.07181886
0003e0 b2 2d 31 3d 8a b5 b2 3a 00 e0 4e 3d d0 73 23 bd
       0.04325647 0.0013634425 0.05050659 -0.03990537
0003f0 04 35 8b bd b2 1c 5b 3d 5d b7 58 bc 76 4e 8a 3d
       -0.06797221 0.053494163 -0.013227311 0.067532465

weight f4 [100]
000000 4c 06 79 3f 2f 48 7a 3f fe e0 77 3f fb 9b 7b 3f
       0.97275233 0.97766393 0.96827686 0.9828488
000010 3a 5f 79 3f 9d 3b 76 3f c5 f9 79 3f bf f8 7c 3f
       0.9741093 0.9618471 0.97646743 0.98817056
000020 bc 0f 7b 3f 21 47 79 3f ec 11 76 3f 95 25 78 3f
       0.98070884 0.9737416 0.96121097 0.96932346
000030 69 2b 7c 3f 9b fd 77 3f c4 37 79 3f d7 af 79 3f
       0.9850374 0.96871346 0.97350717 0.97533935
000040 50 f2 78 3f f2 e4 78 3f 7f be 78 3f 5b 27 79 3f
       0.9724474 0.9722434 0.97165674 0.97325677
000050 d1 55 77 3f c7 58 79 3f 70 83 7a 3f 8b da 7a 3f
       0.9661532 0.9740109 0.9785681 0.9798972
000060 49 4b 77 3f e2 79 77 3f fb 68 77 3f 13 9e 78 3f
       0.9659925 0.96670353 0.9664456 0.971162
000070 09 02 7a 3f 30 fd 78 3f 9a 8d 7b 3f 89 dc 7b 3f
       0.97659355 0.97261333 0.9826294 0.98383385
000080 ec 72 7a 3f 37 a2 77 3f 4a b7 7c 3f 8a 7f 79 3f
       0.97831607 0.96731895 0.98717177 0.97460234
000090 85 31 79 3f 9c 03 7b 3f 3f 6a 7a 3f 9f 5b 7b 3f
       0.97341186 0.9805238 0.9781837 0.9818668
0000a0 f0 b0 79 3f 0a 8a 79 3f f3 63 7a 3f 28 90 7b 3f
       0.9753561 0.97476256 0.9780876 0.9826684
0000b0 c7 54 7b 3f 77 1c 7c 3f 3c d1 7b 3f d6 77 7d 3f
       0.98176235 0.98480934 0.9836614 0.9901098
0000c0 81 e7 7b 3f 7c eb 7a 3f ba d5 79 3f ac 92 7a 3f
       0.9840012 0.9801557 0.97591746 0.97880054
0000d0 37 35 78 3f 3a c7 79 3f 5c dd 78 3f af a2 77 3f
       0.969562 0.9756962 0.9721277 0.9673261
0000e0 29 07 79 3f dd 69 7a 3f cc 3e 78 3f 57 dc 78 3f
       0.9727655 0.97817785 0.9697082 0.9721121
0000f0 e7 ac 7a 3f f5 22 7b 3f bd a1 78 3f 13 cd 7a 3f
       0.9792008 0.98100215 0.97121793 0.9796917
000100 bc e2 75 3f fd ab 78 3f de c0 79 3f 24 f4 78 3f
       0.96049094 0.97137433 0.97559917 0.9724753
000110 6f 45 79 3f 24 44 7a 3f db 5a 7a 3f f3 aa 7a 3f
       0.9737157 0.97760224 0.97794884 0.979171
000120 e5 78 77 3f 4f 9b 7c 3f 82 d3 7a 3f 20 e5 78 3f
       0.96668845 0.9867448 0.97978985 0.97224617
000130 76 4e 7c 3f f8 98 7a 3f f6 c0 7a 3f 16 d3 7c 3f
       0.9855722 0.9788966 0.97950685 0.9875959
000140 3a b8 7b 3f b9 68 7b 3f e0 d2 76 3f 22 5a 77 3f
       0.9832798 0.9820667 0.9641552 0.96621907
000150 74 09 79 3f db 98 79 3f 6c f5 7a 3f 0b dc 78 3f
       0.9728005 0.97498864 0.98030734 0.9721076
000160 fe e8 7a 3f b0 82 7b 3f 93 6a 7d 3f 68 ba 7b 3f
       0.9801177 0.9824629 0.98990744 0.9833131
000170 bc 4d 79 3f 4a 9a 78 3f 1e ed 7c 3f 14 12 79 3f
       0.9738424 0.97110426 0.9879931 0.9729321
000180 ed ee 7a 3f 3c df 77 3f e1 5b 7a 3f 9b 2c 7b 3f
       0.9802082 0.96825004 0.97796446 0.9811494

bias f4 [100]
000000 88 a8 12 be 8f 55 12 3e 7d 19 05 3e 13 2d 2e 3e
       -0.14322102 0.1429045 0.12998004 0.17009382
000010 d0 7a 1e 3e f1 7e 19 3e 05 86 03 3e 07 9d 18 be
       0.15476537 0.1498983 0.12844093 -0.14903651
000020 5d e6 07 be fa cb 1c 3e 25 33 19 3e 15 f4 2e 3e
       -0.1327147 0.15312186 0.14960916 0.17085297
000030 41 95 10 3e 36 6f 20 3e 67 6f 07 3e e8 8d 07 3e
       0.14119436 0.15667424 0.1322609 0.13237727
000040 7c 93 30 be 3d e9 24 be 20 e7 31 3e 86 db 0b be
       -0.17243761 -0.16104598 0.17373323 -0.1365796
000050 04 b7 23 3e b3 3d 14 3e c8 03 19 3e ce 10 14 be
       0.15987784 0.14476661 0.14942849 -0.14459535
000060 2e 1f 2a 3e e1 c7 27 3e c2 45 22 3e 77 80 01 3e
       0.16613457 0.16384842 0.15846923 0.12646662
000070 06 c1 10 be 69 67 22 3e 8c 49 07 3e ce fb 28 3e
       -0.14136133 0.1585976 0.1321165 0.16502306
000080 52 a9 26 3e b0 fb 0d 3e 92 52 02 be 96 65 22 be
       0.16275528 0.13865542 -0.1272681 -0.15859064
000090 3a ee 10 3e 5d 5b 08 be be a3 06 be 24 80 0e be
       0.14153376 -0.13316102 -0.131484 -0.1391607
0000a0 a4 98 1b 3e d2 24 14 3e f4 a8 13 3e aa 8f 19 be
       0.15194947 0.14467171 0.14419919 -0.1499621
0000b0 43 c2 06 3e e8 02 1c be 31 34 2c be c0 a0 13 be
       0.13160042 -0.15235484 -0.16816784 -0.1441679
0000c0 bc 8e 24 3e b8 95 03 3e 6b d1 22 be 89 23 20 be
       0.16070074 0.12850082 -0.15900199 -0.15638556
0000d0 01 c0 07 3e 48 20 30 3e 00 54 0e 3e 63 d7 04 3e
       0.13256837 0.17199814 0.13899231 0.12972789
0000e0 7b 58 30 3e db 8c 0e 3e e3 3a 07 be f5 d4 07 3e
       0.17221253 0.1392092 -0.13206057 0.1326483
0000f0 0b 01 2b 3e ca d3 20 3e 53 1c 17 3e 3c f6 10 3e
       0.16699617 0.15705791 0.14756899 0.14156431
000100 30 93 0d be c0 68 0c 3e 9b 5d 1a 3e 01 35 02 3e
       -0.13825679 0.13711834 0.1507477 0.12715532
000110 68 f0 04 3e 38 36 f7 bd c0 f4 0a be f4 80 0f be
       0.12982333 -0.12070888 -0.13569927 -0.14014035
000120 7b cc 13 3e 57 ab 00 be 5d a3 19 3e 33 46 22 3e
       0.14433472 -0.12565361 0.15003724 0.15847091
000130 ac 12 1e be 58 85 28 be fb e5 1c be 69 a6 20 3e
       -0.1543681 -0.16457117 -0.15322106 0.1568848
000140 be bf 05 be 2d fe 08 be 59 6e 11 3e d6 36 05 be
       -0.13061425 -0.1337821 0.1420225 -0.130092
000150 2a f6 18 be fa fc f4 bd dd 4a 16 3e b9 0b 0d be
       -0.14937654 -0.11962314 0.14676996 -0.13774003
000160 3c 76 fe bd 2e cc fe bd 70 26 09 be a3 be 12 be
       -0.12424895 -0.12441288 -0.13393569 -0.14330535
000170 06 2c 1e be 40 48 0f 3e 58 ab 0f be b4 76 ff bd
       -0.15446481 0.13992405 -0.14030206 -0.12473813
000180 a2 c5 25 3e 8f a1 11 3e 8f dc 2a be 4c 13 0f be
       0.16188672 0.14221786 -0.16685699 -0.13972205

running_mean f4 [100]
000000 e3 8b 7e 3e 11 72 91 3e bf e5 c1 3e 4a 8c ba 3e
       0.2485805 0.28407338 0.37870595 0.36435157
000010 90 7d 97 3e 56 33 90 3e 53 b2 6f 3e ca 31 91 3e
       0.29587984 0.28164166 0.23407869 0.283583
000020 1c 7b af 3e c8 e7 96 3e c5 2d 98 3e c7 81 8a 3e
       0.34273612 0.2947371 0.2972242 0.27052137
000030 be 58 b7 3e 27 9b 93 3e 4a 79 91 3e 85 8e a2 3e
       0.35809892 0.2882931 0.2841285 0.3174936
000040 16 ed c6 3e 93 b4 86 3e 75 db c2 3e 6c be a4 3e
       0.38852757 0.26309642 0.38058057 0.3217653
000050 e7 63 98 3e 64 10 b5 3e f4 8e af 3e fe 8a d7 3e
       0.2976372 0.35364068 0.34288752 0.4209823
000060 59 c0 a0 3e 47 1d 82 3e 6d 88 a9 3e 37 20 8c 3e
       0.3139675 0.25412962 0.33111897 0.27368328
000070 d2 81 bd 3e f6 7e bb 3e 11 75 bb 3e 5f 8e c1 3e
       0.37013108 0.366203 0.36612752 0.37803933
000080 26 ef 99 3e 2c be 6f 3e 8f 08 b4 3e 8a c8 9a 3e
       0.30065268 0.23412389 0.3516278 0.30231124
000090 10 d6 c9 3e 3d 57 6b 3e 9f eb b4 3e 65 d8 ce 3e
       0.3942113 0.22982498 0.35336015 0.4039947
0000a0 cb 41 bf 3e 3c 67 8a 3e 08 62 9d 3e b8 be c3 3e
       0.37354884 0.27031887 0.30738854 0.38231444
0000b0 25 54 a7 3e ac be 92 3e 50 a1 ce 3e 2d 42 ad 3e
       0.32681385 0.28661096 0.40357447 0.3383955
0000c0 84 6e a9 3e 3f 51 cf 3e 89 59 ab 3e 9a ff 98 3e
       0.3309213 0.40491673 0.33466747 0.2988251
0000d0 4d b2 a1 3e 9d ce a9 3e ce 16 89 3e 20 68 cd 3e
       0.31581345 0.33165446 0.2677521 0.40118504
0000e0 31 e2 93 3e 5e 8c 9f 3e 1f 8f 8a 3e b1 1f 90 3e
       0.28883508 0.3116178 0.27062318 0.2814918
0000f0 2b 66 ab 3e f7 4d b1 3e 33 ad b5 3e a1 94 b7 3e
       0.33476385 0.34629795 0.35483703 0.35855582
000100 e6 80 ad 3e 22 ac a7 3e 8f 87 8e 3e e1 68 a0 3e
       0.33887404 0.32748514 0.27837798 0.31330016
000110 06 d1 9e 3e 31 08 a2 3e 30 01 ab 3e 26 d4 85 3e
       0.31018847 0.31646875 0.33399343 0.2613842
000120 63 4f a6 3e 2e 62 9c 3e 37 4b cd 3e 18 05 a9 3e
       0.32482442 0.30543655 0.40096447 0.330117
000130 a3 1d 90 3e 47 31 a9 3e 5d e6 bf 3e 30 dc a3 3e
       0.2814761 0.33045408 0.3748044 0.32003927
000140 06 fc 8a 3e c8 bc b5 3e fb d4 c6 3e a9 f8 ca 3e
       0.27145404 0.3549559 0.38834366 0.39642838
000150 bf 17 a7 3e b8 24 70 3e 60 02 b0 3e 12 13 9f 3e
       0.32635304 0.23451507 0.34376812 0.31069237
000160 94 32 ae 3e 46 1c c3 3e ad 9f a4 3e 93 d3 a9 3e
       0.34022963 0.38107508 0.32153073 0.3316923
000170 31 4e e5 3e 3f a1 99 3e 88 d5 a9 3e 43 0f 84 3e
       0.44786218 0.30005834 0.33170724 0.25792894
000180 38 2f a8 3e 73 d5 cc 3e f3 2a 97 3e b2 e1 af 3e
       0.32848525 0.400066 0.29524955 0.3435188

running_var f4 [100]
000000 6e 86 97 3e f3 d1 86 3e 36 73 95 3e d0 fc 9c 3e
       0.2959475 0.26332054 0.2918946 0.3066163
000010 b8 10 a2 3e 07 a8 34 3e 32 94 da 3d 19 c1 1d 3e
       0.3165338 0.17642222 0.10672797 0.15405692
000020 2c 95 ac 3e cc a1 7e 3e af c5 68 3e 14 aa 9c 3e
       0.3370756 0.24866408 0.2273166 0.3059851
000030 3b df 70 3e f3 3b 88 3e 9f d6 a9 3e 68 fc b2 3e
       0.23522656 0.26608238 0.33171555 0.34958196
000040 e7 09 87 3e 0a f0 50 3e 0f b5 4e 3e 91 a9 32 3e
       0.26374742 0.20404068 0.20186256 0.17447497
000050 96 40 e2 3e bd fc e2 3e ed d8 8e 3e 69 60 dd 3e
       0.441899 0.4433345 0.27899876 0.43237618
000060 d8 88 d8 3e c1 96 96 3e e0 ac 4b 3e 8c e2 92 3e
       0.42291903 0.2941189 0.19890165 0.28688467
000070 1e 6f ae 3e fa ca a1 3e 93 69 02 3f 78 9b 85 3e
       0.3406915 0.3160017 0.50942343 0.26095176
000080 3b 7f a6 3e 76 3b 40 3e 2e cb f4 3e e0 b6 a3 3e
       0.32518944 0.18772683 0.47811264 0.3197546
000090 06 7e af 3e fd a9 9e 3e b8 4f c2 3e 8f 24 01 3f
       0.34275836 0.30989066 0.37951446 0.5044641
0000a0 74 ca 46 3e 53 74 a9 3e 6c ca 32 3e 9a 60 ce 3e
       0.19413167 0.3309656 0.1746003 0.40308076
0000b0 b1 50 da 3e d2 f5 85 3e 91 5c f4 3e 5c 8b a6 3e
       0.42639688 0.2616411 0.47726873 0.32528198
0000c0 5c ca 41 3f ce 1b c1 3e ca 5a c7 3e 5a 90 bd 3e
       0.756994 0.37716526 0.38936454 0.37024194
0000d0 59 38 e3 3e 4c 66 de 3e 70 98 b8 3e 33 3c 9d 3e
       0.44378927 0.4343742 0.360538 0.3070999
0000e0 f1 51 7d 3e 57 ac ba 3e 7b d0 76 3e df a3 54 3e
       0.2473829 0.3645961 0.24102966 0.20765637
0000f0 3a d3 97 3e 31 a3 10 3f 8b 1a 97 3e c4 e8 5e 3e
       0.2965334 0.5649901 0.29512438 0.2176848
000100 1e 35 4f 3e e1 9b 5e 3e b8 fa a6 3e f9 d4 ad 3e
       0.20235106 0.2173915 0.32613158 0.33951548
000110 1d 2c b6 3e 44 4c ba 3e d7 27 f2 3e 51 46 36 3e
       0.3558053 0.3638631 0.4729602 0.17800261
000120 22 ca 8b 3e f8 3b 79 3e 85 9c 9c 3e fe 73 8c 3e
       0.27302653 0.24339283 0.30588165 0.27432245
000130 5a d1 9f 3e 18 95 8a 3e e4 78 b0 3e 32 9b 8e 3e
       0.3121441 0.27066875 0.34467232 0.2785278
000140 95 35 39 3e 5e c0 7b 3e 21 84 56 3e 09 ae 4c 3e
       0.18086846 0.24585101 0.2094884 0.19988264
000150 aa a9 9f 3e e4 c6 64 3e 8a 84 fc 3e f7 4a 32 3e
       0.3118413 0.22341496 0.4931987 0.1741141
000160 97 23 a5 3e 12 1d 99 3e d9 a9 87 3e 14 ac d8 3e
       0.32253715 0.2990499 0.2649677 0.42318785
000170 59 24 b7 3e 1b 10 7f 3e 9c a7 92 3e 00 19 99 3e
       0.3576992 0.24908487 0.286435 0.29901886
000180 b6 86 82 3e 59 04 77 3e 6e b4 a0 3e 33 9f e0 3e
       0.254934 0.24122752 0.31387657 0.4387146
