male_model.pkl (torch, 201269 bytes, 40 tensors)

weight f4 [10]
000000 a7 b1 67 3f f6 d5 67 3f 83 8c 68 3f cb 85 71 3f
       0.9050545 0.90560853 0.90839404 0.94344777
000010 ef 9b 66 3f 1f 74 6a 3f 33 81 65 3f 58 f4 6b 3f
       0.90081686 0.91583437 0.8965027 0.92169714
000020 07 e0 6a 3f c4 ad 69 3f
       0.9174809 0.9128077

bias f4 [10]
000000 0d d5 45 bd f3 30 8e bd d0 b5 a0 bd f3 61 31 bd
       -0.048298884 -0.0694293 -0.07847178 -0.043306302
000010 83 59 67 bd aa bc 53 bd 75 f7 91 bd 5f e8 45 bd
       -0.05648185 -0.051693596 -0.07127277 -0.04831731
000020 99 d6 8e bd fa 71 98 bd
       -0.06974525 -0.07443614

running_mean f4 [10]
000000 1d c7 9b 3c e0 b6 d4 bc f2 c7 4e bd 0e fb 58 3c
       0.019015843 -0.025966108 -0.05048365 0.01324345
000010 da 5a 0a 3d 46 fc 8e 3c a4 0b a8 bc 1a 52 b8 bb
       0.03377805 0.017454278 -0.020513363 -0.0056250216
000020 e7 8f 5e 3c 73 d8 f1 bc
       0.013584114 -0.029522156

running_var f4 [10]
000000 a9 c2 82 3f 04 ea 73 3f 27 00 63 3f 32 0b 83 3f
       1.0215656 0.95278955 0.8867211 1.0237792
000010 20 eb 85 3f 94 0f 83 3f 23 40 7d 3f de 1a 7e 3f
       1.046238 1.0239129 0.9892599 0.99259746
000020 cb eb 89 3f c4 83 6b 3f
       1.0775083 0.91997933

weight f4 [200, 10]
000000 22 61 c0 3b 6c 3e db bc 49 14 7d bd b0 25 79 3e
       0.005870954 -0.026763164 -0.061786924 0.24330783
000010 1b 17 9e 3c bb bb d3 bc 22 e9 6e 3e 70 f9 83 3d
       0.019298127 -0.025846353 0.2333112 0.06444061
000020 9e 25 3e 3e 3b 29 00 3e 6b 18 ec bd da bc 0e be
       0.18569037 0.12515728 -0.11528095 -0.13939229
000030 80 4b 10 3d 61 12 64 be b0 57 91 bb b7 91 02 be
       0.035228252 -0.22272636 -0.004435502 -0.12750898
000040 1a 38 fd 3d ef 91 7c 3c 62 cd 7d be 15 39 5e be
       0.12364216 0.015415653 -0.24785379 -0.21701463
000050 8d e9 f4 bb f1 c2 55 3d 44 d9 10 be 88 8d b8 bd
       -0.0074741305 0.052187864 -0.1414538 -0.0901137
000060 19 b3 00 be a8 7c 58 be fe 95 a1 be 51 78 53 be
       -0.1256832 -0.21141303 -0.31559747 -0.20651366
000070 c3 17 9b 3e 27 37 8a be c8 d0 2f 3e bc ae 8d be
       0.30291566 -0.26995203 0.17169487 -0.27672374
000080 a0 ec 13 bd 04 c3 9e 3d 73 56 43 3e e1 a1 63 be
       -0.036114335 0.0775204 0.19075947 -0.2222972
000090 7a a8 ad bd 13 53 9c bd 2b b8 84 be de 81 25 3d
       -0.084794 -0.07633033 -0.2592176 0.040407054
0000a0 4a df 03 3e c6 1b 91 be 37 b9 32 3c 10 8d 3b 3e
       0.12878147 -0.28341502 0.0109084165 0.1831553
0000b0 d9 6a ea bd f1 4e 67 be 6d 65 38 3c 98 60 b1 bd
       -0.11446161 -0.22588708 0.011254651 -0.08661002
0000c0 05 e0 08 3e 65 96 6c 3d ff fb bf bd 5c 84 2e 3e
       0.13366707 0.057760615 -0.09374236 0.17042679
0000d0 ac 63 16 3d 42 15 c5 3b 35 5f a3 3e 2a 19 b1 bd
       0.03671615 0.006014497 0.31908575 -0.08647378
0000e0 45 ba 0a be 70 e3 18 3e 61 3c 93 be a1 30 07 3e
       -0.13547619 0.1493051 -0.28757003 0.13202144
0000f0 cc c9 24 be 51 68 8f be c3 3a 88 bb ac 36 08 3d
       -0.16092604 -0.28009275 -0.0041573956 0.033255264
000100 55 58 5f be 17 da 7b 3d 02 24 ca ba 44 b1 26 3e
       -0.2181104 0.061487284 -0.0015422108 0.16278559
000110 9a f1 42 3e ba 8d 69 3e a8 03 2d be 12 48 08 3e
       0.19037476 0.2280797 -0.16895926 0.13308743
000120 98 fa fe bd 1f 12 af 3d 57 3b 2c 3c 2e fa df bd
       -0.12450141 0.08548378 0.010512195 -0.1093639
000130 97 75 ac 3d f8 d5 62 3e 21 b9 84 3d 13 99 16 be
       0.08420866 0.22151935 0.06480623 -0.1470683
000140 e3 e0 57 be 20 2f 33 3d 49 1b 38 3e 10 bf 8b 3e
       -0.21081881 0.043746114 0.17979158 0.27294207
000150 f0 9b 98 3e 70 a6 af 3d 42 c6 2b 3e ff ba e5 bd
       0.2980647 0.08576667 0.16774848 -0.11217307
000160 0f c1 4e 3e f5 0f e4 3d 16 50 6b 3e a3 d4 85 3e
       0.20190834 0.11135856 0.22979769 0.2613879
000170 a3 f9 66 3e 75 43 3a 3d be a5 68 be c0 34 72 3e
       0.22556166 0.04547449 -0.22719476 0.23652935
000180 fd c2 82 be 5e 8b 80 3e ac 1e 3b 3e 2f af 3d be
       -0.2553939 0.2510633 0.18273419 -0.18523858
000190 24 b7 7d 3e 4c 84 93 3e 96 91 78 3e 4b 68 19 3e
       0.24776894 0.28811872 0.24274287 0.14981191
0001a0 55 35 35 bc 6a 47 f7 3d 51 bc 57 3d cb 11 1c be
       -0.011060079 0.12074168 0.052669827 -0.15241162
0001b0 5b ce 22 bd 0e b8 8f 3e af 05 4d 3d db 5c a5 be
       -0.039747577 0.2807011 0.05005425 -0.32297406
0001c0 46 bd 09 3e 44 bf d5 bc b3 ea f7 bd 39 9e 58 3e
       0.13451108 -0.02609218 -0.12105312 0.21154107
0001d0 01 75 8e be 64 16 ca bd 5e 6d ea 3b b5 fb 03 be
       -0.27823642 -0.09867552 0.007154151 -0.12888987
0001e0 b8 95 99 be 25 8e 4b 3d 3a 98 f3 3d dc ab d7 3d
       -0.2999704 0.049696106 0.11894269 0.105308264
0001f0 df 19 25 3e e4 95 19 3e 5f 87 93 be 0d a8 a1 3e
       0.1612315 0.14998585 -0.28814217 0.31573525
000200 04 89 ad bd 10 46 9a be 13 a5 6c bd aa 91 6e 3e
       -0.08473399 -0.30131578 -0.057774615 0.23297754
000210 b7 62 cd bd 57 f9 ee bc d3 ac 78 3e 57 5c 33 3c
       -0.10028594 -0.029171629 0.24284677 0.0109473085
000220 85 79 f2 3d 79 77 42 be 97 1f 6a 3d c4 8a 84 be
       0.11839584 -0.18990888 0.057159033 -0.2588712
000230 9f ad 84 be c3 2d 04 be a5 26 79 bd 00 6a 1f 3e
       -0.25913712 -0.12908082 -0.06082787 0.1556778
000240 e5 84 82 3d 8d b4 4a be 92 14 07 be 00 28 30 3e
       0.06373004 -0.19795437 -0.1319144 0.17202759
000250 70 12 23 be 61 e8 8f bd 02 c5 50 3e 4f b0 22 3d
       -0.15925002 -0.07026745 0.20387653 0.039718922
000260 30 3b a7 3c 1c 5a 7f be a2 26 2f 3c f1 86 65 be
       0.020413965 -0.24936718 0.010690363 -0.22414757
000270 69 cf 7b 3e 86 b3 5f 3e fb 92 d5 bc 95 ef 7a bd
       0.2459084 0.21845827 -0.026071062 -0.06126364
000280 4a 6b fb bd 51 6f f3 bd 68 9a 70 b8 3e f6 47 be
       -0.12276323 -0.11886466 -5.736426e-05 -0.19527528
000290 9c 44 94 3e a6 2a 26 be 64 f8 99 be ea 70 7e 3e
       0.28958595 -0.16227207 -0.3007232 0.24847761
0002a0 ce 21 82 3e f0 8a 8c 3e eb b1 6f 3c 46 dd 6a be
       0.25416416 0.2744975 0.014629821 -0.22935972
0002b0 83 ff 93 be ef c1 9f be 21 82 2b be b4 f1 91 3b
       -0.28905877 -0.31202647 -0.16748859 0.004453862
0002c0 0c 76 42 3e 49 f6 49 bd 8e 8a 8f bd 5f 48 87 3e
       0.18990344 -0.04930714 -0.07008849 0.26422402
0002d0 5c 6a 94 be 76 04 0d 3d 47 d3 57 be b1 17 5b 3e
       -0.28987396 0.034428082 -0.2107669 0.21395756
0002e0 12 e3 8a be 8d 9d 98 3e c5 35 92 be d8 ac 54 3d
       -0.27126366 0.29807702 -0.28556648 0.05192265
0002f0 ae dd 25 3d a9 04 9a be 91 41 25 3d c8 ca 8c 3d
       0.040494613 -0.3008168 0.040345732 0.06874615
000300 bd 95 4b be 33 f3 8d be 65 16 8f 3e 1a 76 a6 3c
       -0.1988134 -0.2772461 0.27946773 0.020319987
000310 cd d8 83 3e 4d 04 42 be 3f ce af 3c 90 ca a0 3e
       0.25751343 -0.18946953 0.02146065 0.31404543
000320 06 42 91 3e 08 d9 b4 bd 18 91 22 be 96 18 a0 be
       0.28370684 -0.08830458 -0.15875661 -0.31268758
000330 b6 ef 18 3d f4 92 81 be 03 fd 8e be 9e 20 d4 3c
       0.03733798 -0.2530743 -0.27927408 0.02589446
000340 00 51 67 3d fd e8 27 be 17 b4 0a 3e 28 75 1d 3e
       0.056473732 -0.16397472 0.13545261 0.15376723
000350 f7 da 8a be 4e 85 30 3e 68 11 b8 3d 47 95 0c bc
       -0.27120182 0.17238352 0.08987695 -0.008580512
000360 21 43 4c be 99 d7 f0 3d 59 5b 88 3e 64 ff 9a bc
       -0.19947483 0.11759872 0.26632193 -0.018920608
000370 e5 60 71 bc 3f 7e 2b be a6 20 32 be ee 30 34 3d
       -0.014732574 -0.16747378 -0.17395267 0.043991975
000380 d8 d0 a6 3e 5a 32 57 be 85 19 9d bd 75 04 1a be
       0.3258121 -0.21015301 -0.07670883 -0.15040763
000390 1c fc 98 be 45 91 eb bd 5b ef 16 be 5b f4 aa bd
       -0.29879844 -0.11502317 -0.14739744 -0.08347388
0003a0 ea 1b 98 3e 49 8d 0f 3e 14 ef 48 be e0 e2 a4 3d
       0.29708797 0.1401874 -0.19622451 0.080510855
0003b0 97 13 84 3d 01 ff 92 bd 20 61 fe 3c 03 1d 8f bd
       0.06449049 -0.071775444 0.031052172 -0.069879554
0003c0 16 8d 7e be 41 80 38 be 9b 10 93 3e e4 ed 5f be
       -0.24858508 -0.18017675 0.28723606 -0.21868092
0003d0 71 f9 29 3d f1 5e 63 be b8 fc 7f be e2 d1 99 3e
       0.04149765 -0.22204186 -0.24998748 0.3004294
0003e0 d8 4e 16 bd 8d e9 ce 3d 1f ce f4 3d f7 0f ca bd
       -0.036696285 0.1010314 0.11953377 -0.09866326
0003f0 58 b2 21 3e 58 d6 0a be 61 e6 de 3c 9b aa ca 3d
       0.15790689 -0.13558328 0.027209463 0.09895822

weight f4 [200]
000000 e3 43 7c 3f 80 ba 7b 3f 7b c4 7b 3f 3b 4e 80 3f
       0.98541087 0.9833145 0.9834668 1.0023874
000010 98 86 7f 3f 6b f3 79 3f c9 bb 7e 3f 76 62 82 3f
       0.9981475 0.9763705 0.9950529 1.0186298
000020 a1 64 7f 3f de 6e 81 3f 4f 3e 7e 3f 1a 91 82 3f
       0.9976292 1.0111959 0.99313825 1.0200531
000030 5f 0f 79 3f c6 47 80 3f 15 8a 80 3f 6e 86 7a 3f
       0.9728908 1.0021904 1.0042139 0.97861373
000040 98 4c 78 3f 1a d3 81 3f b7 c6 79 3f 2b e4 7c 3f
       0.9699187 1.0142548 0.9756884 0.98785657
000050 14 3f 79 3f 4c d6 80 3f 8e 97 7b 3f b4 d0 7d 3f
       0.97361875 1.0065398 0.9827813 0.9914658
000060 3d 30 7d 3f 8f 79 80 3f 8c cb 7d 3f ed 0e 83 3f
       0.9890173 1.0037097 0.9913871 1.023893
000070 a8 73 80 3f 2a 8a 7c 3f fe 47 82 3f 7d 4f 7b 3f
       1.0035295 0.9864832 1.017822 0.98168164
000080 83 bc 82 3f 43 a5 7a 3f fc d9 7e 3f 4f 79 81 3f
       1.0213779 0.9790842 0.9955137 1.0115145
000090 e0 0f 7f 3f f5 0f 7d 3f b7 56 7b 3f f6 28 80 3f
       0.996336 0.98852473 0.9817919 1.00125
0000a0 1b c8 7a 3f d9 7b 7e 3f 31 c0 7e 3f 8e d2 7d 3f
       0.97961587 0.99407727 0.9951201 0.99149406
0000b0 69 98 7d 3f 54 32 7b 3f 83 e9 7d 3f 97 84 81 3f
       0.99060684 0.9812367 0.99184436 1.0118588
0000c0 99 b6 81 3f 85 5e 80 3f 48 c3 81 3f 5f ce 7b 3f
       1.0133849 1.0028845 1.013772 0.9836177
0000d0 1a 1c 7c 3f 0d 20 83 3f 1f a3 83 3f 3a d3 7c 3f
       0.9848038 1.0244156 1.0284156 0.98759806
0000e0 26 59 82 3f d2 93 82 3f 94 4b 77 3f ae f2 81 3f
       1.0183456 1.0201361 0.965997 1.0152185
0000f0 b5 1c 7e 3f ec 15 81 3f 05 4d 7b 3f 94 0f 7c 3f
       0.99262553 1.0084815 0.981644 0.9846127
000100 ec d1 78 3f 94 51 81 3f ed b0 78 3f fb fd 7c 3f
       0.97195315 1.0103021 0.9714497 0.98825043
000110 30 7e 80 3f 8e e4 7b 3f 80 bf 80 3f 4c 10 82 3f
       1.0038509 0.9839562 1.0058441 1.0161223
000120 41 cd 7e 3f 66 f6 7d 3f 26 02 81 3f d7 a7 82 3f
       0.9953194 0.992041 1.0078781 1.0207471
000130 bf e8 7d 3f 23 38 7a 3f 2e bf 81 3f b3 a2 7d 3f
       0.9918327 0.9774191 1.0136468 0.99076384
000140 f5 24 7d 3f c4 25 79 3f 50 ef 79 3f 42 f1 79 3f
       0.98884517 0.9732325 0.97630787 0.97633755
000150 29 07 80 3f 9a 58 7d 3f a5 af 81 3f e5 66 83 3f
       1.0002185 0.9896332 1.0131727 1.0265776
000160 b3 c8 7e 3f 5d 64 7c 3f 22 60 83 3f 88 43 82 3f
       0.9952499 0.9859064 1.0263712 1.0176859
000170 89 19 7f 3f c0 ad 7c 3f de c1 79 3f 59 a6 7e 3f
       0.9964834 0.9870262 0.9756144 0.99472576
000180 86 bf 7d 3f 52 46 7b 3f 56 99 82 3f 64 aa 79 3f
       0.99120367 0.98154175 1.0203044 0.9752562
000190 56 a0 7d 3f 19 dc 7a 3f 95 71 81 3f e0 7a 80 3f
       0.9907278 0.9799209 1.0112787 1.0037498
0001a0 ef a5 79 3f 19 3f 80 3f ed d2 83 3f 08 09 7b 3f
       0.9751882 1.0019256 1.0298744 0.98060656
0001b0 36 15 7b 3f 8f ab 7c 3f 8c e7 80 3f 41 e4 7d 3f
       0.9807924 0.9869928 1.0070662 0.9917641
0001c0 df bc 7e 3f 77 13 80 3f eb 30 7c 3f fe 53 80 3f
       0.99506944 1.000594 0.9851214 1.0025632
0001d0 c7 10 80 3f bc 89 81 3f 03 00 80 3f 1a f5 81 3f
       1.000512 1.0120158 1.0000004 1.0152924
0001e0 6f 47 7a 3f e4 d2 78 3f 48 37 82 3f 4a f3 7a 3f
       0.9776525 0.97196794 1.017312 0.9802748
0001f0 d4 d8 7c 3f f8 62 7f 3f 5b 1c 80 3f f1 f1 83 3f
       0.98768353 0.9976039 1.0008653 1.030821
000200 64 85 7e 3f 55 e7 7c 3f 2a 6f 7c 3f f4 a2 7b 3f
       0.9942229 0.98790485 0.9860712 0.9829552
000210 7e 16 80 3f f7 d6 7a 3f 78 1a 82 3f dd 40 7d 3f
       1.0006864 0.9798426 1.0164328 0.989271
000220 ce 9e 81 3f d3 59 7d 3f c8 bc 77 3f 6e cc 78 3f
       1.0126588 0.98965186 0.9677243 0.97186935
000230 f0 06 7a 3f f4 0c 80 3f 4f 3c 7d 3f 53 78 7f 3f
       0.97666836 1.0003953 0.9892015 0.99792975
000240 41 c9 7e 3f 8e b4 7a 3f 24 98 7a 3f b7 03 80 3f
       0.9952584 0.97931755 0.978884 1.0001134
000250 12 c1 7e 3f 0a 3e 7f 3f c5 f8 81 3f 03 36 7e 3f
       0.9951335 0.9970404 1.0154043 0.99301165
000260 63 08 81 3f ec dd 80 3f 48 d0 78 3f 95 e6 81 3f
       1.0080684 1.0067725 0.9719281 1.0148493
000270 71 13 84 3f 2d 7d 7e 3f 61 6d 7e 3f d7 54 80 3f
       1.0318433 0.99409753 0.9938565 1.0025891
000280 79 a5 77 3f 05 d8 7c 3f c7 b5 7a 3f ec 51 83 3f
       0.96736866 0.9876712 0.9793362 1.0259376
000290 8f 67 7e 3f a4 aa 7e 3f 5d 1a 7a 3f ee 9e 78 3f
       0.9937677 0.99479127 0.9769648 0.9711751
0002a0 14 4e 7e 3f c9 89 83 3f 07 4b 77 3f b9 50 7c 3f
       0.9933789 1.0276424 0.9659886 0.98560673
0002b0 f4 5d 7e 3f 75 04 7b 3f db cd 7e 3f f3 a1 7b 3f
       0.9936211 0.98053676 0.9953286 0.9829399
0002c0 3d 06 7e 3f f5 21 81 3f 52 24 7d 3f fc 43 7f 3f
       0.9922827 1.0088488 0.98883545 0.9971311
0002d0 fa b6 81 3f d0 32 80 3f 50 d5 7d 3f 7a 7e 80 3f
       1.0133965 1.0015507 0.99153614 1.0038598
0002e0 4b fd 7d 3f 42 f0 82 3f 8b ca 80 3f 06 0a 81 3f
       0.9921462 1.0229571 1.0061811 1.0081184
0002f0 96 a9 7b 3f 48 43 83 3f 68 4d 80 3f d3 4e 82 3f
       0.9830564 1.0254908 1.0023623 1.0180305
000300 4e a0 7b 3f 78 d5 84 3f d8 a4 81 3f 94 98 7a 3f
       0.9829148 1.0377645 1.0128431 0.97889066
000310 88 d1 7e 3f 3a 09 7c 3f 0e 26 82 3f 01 e7 7d 3f
       0.9953847 0.9845158 1.0167863 0.9918061

bias f4 [200]
000000 8e d6 51 3b da 4d 85 3d 69 f1 9d bc 7c bb 6a 3d
       0.0032018754 0.0650899 -0.019280152 0.057307705
000010 b1 38 a1 3d 91 d3 8f bd f4 98 a3 3d 10 c0 88 bd
       0.07872141 -0.07022775 0.07988158 -0.06677258
000020 05 90 f3 bc 48 3d a7 bd 4f 9e 81 bd 72 03 a7 3d
       -0.02973176 -0.08165985 -0.06329023 0.08154954
000030 51 53 1f bc fc 96 88 bd 5e 42 8a 3d 78 e2 25 bc
       -0.009724454 -0.06669423 0.0675094 -0.010124795
000040 9f 9d 60 3d 94 cc 96 3d 0e e2 56 bd 9e df cd bc
       0.05483782 0.07363239 -0.052461676 -0.025131043
000050 cf 08 79 3d 29 87 82 bd b7 b7 69 3d 38 ae 80 3d
       0.060799416 -0.06373436 0.05705997 0.062832296
000060 fe 46 84 3c 8a 75 65 3d f2 56 1b 3d c6 a0 7f 3d
       0.016147133 0.056020297 0.037924714 0.062409185
000070 c8 26 f6 bc ca 91 7a bd 7e 70 ac 3d 47 e3 52 3d
       -0.03004779 -0.06117419 0.08419894 0.05148628
000080 d8 7e a9 bd 70 77 75 bd 9e 0d 66 3d 80 ef 80 bd
       -0.08276147 -0.059928358 0.05616533 -0.06295681
000090 2b 0b 4c 3d 33 8c 10 3d e4 73 51 3d 16 5a 9d 3d
       0.049815338 0.035289954 0.051135913 0.07683198
0000a0 e8 22 46 bd 5a 3e 64 3c 74 56 6f 3d 7d 34 61 bd
       -0.048373133 0.013930881 0.058432057 -0.054981697
0000b0 42 4b 62 3d 63 69 39 bd b3 9d ec 3c 85 9f 9a bd
       0.055247553 -0.04526652 0.02888379 -0.07549957
0000c0 4f a7 a7 bd 95 02 24 3d cd 28 9e 3d b5 11 a0 bd
       -0.081862085 0.040041525 0.07722626 -0.07815877
0000d0 f3 71 3c 3d 89 95 ae bd 56 59 8a bd d6 c4 7a bd
       0.046007108 -0.08524615 -0.06755321 -0.061222874
0000e0 25 d0 ae bd c6 53 9e bd 71 db 24 3d b2 31 bb bc
       -0.08535794 -0.07730822 0.040248338 -0.022850845
0000f0 54 34 5e 3d 6e ea 8b 3d d8 dc 45 3d 62 a6 82 bd
       0.054249123 0.06831823 0.048306316 -0.06379391
000100 34 35 51 3d 17 b0 ab 3d 9b 5c f3 3c 25 f2 b6 3b
       0.05107613 0.08383196 0.029707244 0.005583065
000110 a2 9c 73 bd e0 e8 89 bc 8d 5f 50 3d b5 40 40 bd
       -0.05947555 -0.016834676 0.050872374 -0.04693671
000120 35 75 9e 3c 43 a7 7d 3d 25 7d 83 bd d6 19 bc bd
       0.019342998 0.06192709 -0.06420354 -0.09184615
000130 c8 0c 47 ba d9 d4 8c bd 1a a2 9f bd 6e 16 80 3c
       -0.0007593152 -0.06876535 -0.0779459 0.015635695
000140 d8 ea 0a 3d 14 92 05 3d 6d fc c3 3c f4 d0 c9 bb
       0.03391537 0.032610014 0.023924077 -0.0061589424
000150 ad 77 59 bd 74 d7 7f 3c 15 7a 8f bd 78 4f af bd
       -0.053092647 0.015615333 -0.07005707 -0.08560079
000160 1f dc d9 3c 30 06 92 ba ce c5 98 3d eb 6c 79 bd
       0.02659422 -0.001114076 0.07459603 -0.060894888
000170 00 77 24 bd 26 d2 73 bd 54 69 22 3d 93 7c 62 3d
       -0.04015255 -0.059526585 0.03965123 0.055294584
000180 72 fb 9b 3d 9c e5 c2 3c 33 8a 89 bd 90 7d 25 3d
       0.07616319 0.023791127 -0.067158125 0.04040295
000190 49 40 73 bd 9f ba 96 bc fa 6a 41 3d 9d 1d 39 bc
       -0.05938748 -0.018399535 0.04722116 -0.011298564
0001a0 5f ec 1b bd 38 0d 61 bd a4 bd 98 bd 44 71 2d bd
       -0.038067218 -0.054944247 -0.07458046 -0.042344347
0001b0 50 8e 1c 3d f9 56 04 3d 58 9b 7a bd 45 c3 1e bd
       0.038221657 0.032309506 -0.061183304 -0.038760442
0001c0 1e f5 8f bd 3b 42 fe 3c d8 fd 77 3d 0c 61 31 3d
       -0.07029174 0.03103744 0.06054482 0.04330544
0001d0 5b 7f 87 bd 34 ed a7 3d ca 42 38 3d e1 fc 7b bd
       -0.06616088 0.0819954 0.04498557 -0.06152046
0001e0 72 d3 a1 bd 0b 52 4b 3d 6a 99 8f bd 07 11 3f 3d
       -0.07901658 0.04963879 -0.07011683 0.046647098
0001f0 66 c1 39 bd 00 bc 91 3d 96 a3 50 3d 17 82 85 bd
       -0.045350455 0.07115936 0.050937258 -0.06518953
000200 84 d8 31 3d ac 1e 98 3d 5d f3 02 3b fa 81 c6 3a
       0.043419376 0.07427725 0.0019981482 0.0015144937
000210 70 4c 94 bd 27 a8 09 bd 9e 4d 4d bc 15 94 26 bd
       -0.07241142 -0.03360763 -0.012530712 -0.040668566
000220 e4 7f 93 bd b9 5c 77 3d 07 c0 88 3d 9e 05 de 3c
       -0.072021276 0.06039116 0.06677251 0.027102288
000230 71 f6 51 bd 5f ac 8f bd a5 ee 37 bc 26 7d 33 3d
       -0.051260415 -0.07015299 -0.011226331 0.043820523
000240 90 6c 82 3d 21 eb 22 3d de 43 50 bd b0 6e 48 3d
       0.06368363 0.039775018 -0.050845973 0.048933685
000250 b2 23 9a bd f3 9d 82 3d 90 65 a7 3d d9 06 2c bd
       -0.075263396 0.06377783 0.081736684 -0.041998718
000260 4c c1 89 3d 20 9f e5 3c 41 72 2a 3d f2 7a a1 bd
       0.067263216 0.028029978 0.041612867 -0.07884778
000270 5d d3 8d bd 9e 29 7a 3d ad ce 4c 3d b5 3c 88 3d
       -0.0692508 0.061074845 0.05000179 0.06652204
000280 e4 ab c3 bc fc ce 82 3d f6 29 5f bd f5 8b a4 3d
       -0.023885675 0.063871354 -0.054483376 0.08034507
000290 82 f1 07 bd 2b a3 60 bd 2c 57 c7 3c e9 3d 80 3d
       -0.033189304 -0.05484311 0.024333559 0.062618084
0002a0 d2 37 3a bd 30 a6 ae bd 7b 13 d1 bc 2a 00 d1 3c
       -0.04546339 -0.085277915 -0.025521984 0.025512774
0002b0 ca c4 c6 39 0b 15 6d 3d f1 1d 98 bd 9c 15 65 bd
       0.00037912122 0.057881396 -0.07427586 -0.05592881
0002c0 b1 db 81 bd ed bc ab 3d 81 32 34 3d b4 81 e3 bb
       -0.06340731 0.08385644 0.043993477 -0.006942952
0002d0 2a ad 83 bd 1e b6 07 3d 21 29 a1 3d bd e8 8f bd
       -0.06429513 0.033132665 0.07869173 -0.07026813
0002e0 ab 07 3a 3d 0c 6d 86 bd 47 87 83 3d aa 49 35 3d
       0.04541747 -0.06563768 0.064222865 0.044259705
0002f0 aa e2 89 bd 0f c4 ac bd 50 db 9c 3d 13 74 6d bd
       -0.06732686 -0.08435833 0.07659018 -0.057972025
000300 6c c6 7e bc 71 c8 8b bd ec bb 8a 3d e0 9f 9c 3c
       -0.015550237 -0.068253405 0.067741245 0.019119203
000310 90 33 03 3d 40 bf 05 bc 94 79 a7 bd ee 50 68 3c
       0.032031596 -0.008163273 -0.08177486 0.014179451

running_mean f4 [200]
000000 0e 98 f3 3d 2e 61 58 3e 4c 2d 81 3e 3d 93 39 3e
       0.118942365 0.21130821 0.2522987 0.18122573
000010 26 cb 2a 3e 19 62 34 3e df 09 32 3e b2 e7 06 3e
       0.16679057 0.17615546 0.17386578 0.13174322
000020 37 44 6f 3e c6 3f 6f 3e c7 a9 4a 3e 4d b8 45 3e
       0.23365866 0.23364171 0.19791327 0.19308586
000030 71 57 94 3e e9 d6 27 3e 9a f2 3c 3e 35 37 42 3e
       0.28972962 0.16390575 0.1845192 0.18966372
000040 d6 f2 73 3e 83 32 8b 3e 53 c6 8c 3e 82 cb 4a 3e
       0.23823103 0.27186975 0.2749506 0.19804195
000050 2a 7d 92 3e 73 f6 2f 3e 15 4b 41 3e 1b 39 02 3e
       0.28611118 0.17183857 0.18876298 0.12717097
000060 c7 fe 80 3e a8 94 48 3e ee bc 1d 3e da d6 48 3e
       0.2519438 0.19587958 0.15404102 0.1961321
000070 fd e4 0c 3e af 5b 6b 3e f5 36 54 3e 16 22 74 3e
       0.13759227 0.22984193 0.2072409 0.23841128
000080 f8 5d 2f 3e 4a 02 80 3e bd f8 64 3e a9 7c 1b 3e
       0.1712569 0.25001746 0.22360511 0.15184273
000090 89 6c 3e 3e 4c 36 5b 3e 78 14 63 3e 55 4c 5f 3e
       0.1859609 0.21407431 0.22175777 0.21806462
0000a0 22 39 90 3e 48 2a e3 3d 74 8a 55 3e b9 08 7b 3e
       0.2816859 0.11092049 0.20853597 0.24515046
0000b0 34 dd 14 3e 41 48 43 3e 84 da 4a 3e e6 2d 8a 3e
       0.14537507 0.19070531 0.1980992 0.26988143
0000c0 f5 30 56 3e be 88 6f 3e a0 26 fb 3d d0 cc 3c 3e
       0.20917113 0.23392007 0.122632265 0.18437505
0000d0 50 72 a8 3e b3 db 57 3e 90 43 66 3e aa 6b 7e 3e
       0.32899714 0.21079902 0.2248671 0.24845758
0000e0 8e 81 d9 3d 04 11 30 3e aa 0d 8b 3e f4 f3 28 3e
       0.10620414 0.17193991 0.27158862 0.1649931
0000f0 01 7a 98 3e 90 c0 7d 3e c0 ad 37 3e 72 33 0e 3e
       0.29780582 0.24780488 0.17937374 0.13886812
000100 e6 7a 55 3e 72 d6 86 3e 8f 43 52 3e 60 94 18 3e
       0.20847663 0.26335484 0.20533584 0.1490035
000110 0b 49 56 3e ec 3b 59 3e 13 04 58 3e dc fe 27 3e
       0.20926301 0.21214265 0.21095304 0.16405815
000120 02 02 49 3e a5 c0 76 3e ce 45 03 3e 3d 35 57 3e
       0.19629672 0.24096926 0.12819597 0.21016403
000130 09 f4 7c 3e 5c 72 23 3e 0d 1a 25 3e df a2 39 3e
       0.24702467 0.15961593 0.16123219 0.18128537
000140 d0 78 64 3e 40 5b 39 3e 44 03 1c 3e d0 a7 68 3e
       0.22311711 0.18101215 0.1523562 0.22720265
000150 a0 c3 57 3e 45 47 2f 3e bc 9e 5f 3e 97 81 49 3e
       0.21070719 0.17117031 0.21837896 0.19678341
000160 0b df 2c 3e e2 2c 43 3e c3 f1 57 3e 57 60 57 3e
       0.16881959 0.1906009 0.21088319 0.21032844
000170 e0 ac 2e 3e 78 ad 80 3e e8 55 4b 3e ec 02 6d 3e
       0.17058134 0.25132346 0.1985699 0.23145646
000180 32 20 89 3e dc be 4c 3e 64 a9 74 3e b3 c6 1d 3e
       0.26782376 0.19994682 0.23892742 0.15407829
000190 0e 10 53 3e 3e b2 d7 3d 48 02 53 3e 89 06 36 3e
       0.20611593 0.10532044 0.20606339 0.1777593
0001a0 e6 65 41 3e c1 0f 69 3e d2 f8 05 3e cb 44 3f 3e
       0.18886527 0.22759916 0.13083199 0.18678586
0001b0 d0 89 e3 3d fd 6f 48 3e 62 30 66 3e 44 7e 3d 3e
       0.1111027 0.1957397 0.22479394 0.18505198
0001c0 23 53 2a 3e b6 49 41 3e 5c dc e1 3d c6 48 5e 3e
       0.16633277 0.18875775 0.11028358 0.21707448
0001d0 90 79 fc 3d d9 8a 0e 3e 57 aa 7c 3e 93 4e 29 3e
       0.12327874 0.13920154 0.24674354 0.1653388
0001e0 ea 4f 3a 3e 4c 34 1b 3e b5 97 77 3e 73 c7 44 3e
       0.18194547 0.15156668 0.24178965 0.19216709
0001f0 77 f5 1e 3e ab 20 8b 3e 2e e0 86 3e 5f 9e 26 3e
       0.15523325 0.2717336 0.2634291 0.16271351
000200 b8 75 36 3e 05 92 44 3e 16 4d 10 3e f4 a1 30 3e
       0.17818344 0.19196327 0.14091906 0.1724928
000210 bb a7 24 3e a0 04 24 3e cb 63 6c 3e ee 6e 32 3e
       0.16079609 0.1601739 0.23084943 0.17425129
000220 0b 2e 13 3e 6e 94 86 3e 3e 52 46 3e 7b 12 4e 3e
       0.14373033 0.26285118 0.1936731 0.20124237
000230 49 47 1d 3e b2 48 4d 3e ea cc 80 3e 9d 1a 18 3e
       0.15359224 0.20047262 0.25156337 0.14853902
000240 72 3e 51 3e ce eb 3d 3e f9 ed 3c 3e 08 70 17 3e
       0.20433977 0.18546984 0.18450154 0.1478883
000250 8a 32 4c 3e 27 19 86 3e a7 0f 25 3e ea 32 4e 3e
       0.19941154 0.26191065 0.16119252 0.2013661
000260 67 c7 47 3e bc ed aa 3e 9c 77 3d 3e e4 38 3d 3e
       0.1950966 0.33384502 0.18502659 0.18478733
000270 76 f9 93 3d 19 1e 3b 3e 24 90 6c 3e eb b6 a1 3e
       0.07225315 0.182732 0.2310186 0.31584868
000280 43 22 44 3e 02 ee a8 3e 7c fa f4 3d f9 23 57 3e
       0.19153695 0.32994086 0.119618386 0.21009816
000290 14 ff 67 3e f9 71 2b 3e 7a dc 0d 3e 33 cc 6c 3e
       0.22655898 0.16742696 0.13853636 0.23124771
0002a0 50 35 44 3e 32 fe 1e 3e fd c2 44 3e e6 83 36 3e
       0.19160962 0.15526655 0.19215007 0.17823753
0002b0 81 dc 81 3e 94 4b 4c 3e d5 c5 29 3e df 63 53 3e
       0.25363544 0.19950706 0.16579373 0.20643567
0002c0 75 b4 32 3e e5 8a 5e 3e db 8c 2f 3e 78 2b 79 3e
       0.17451651 0.21732672 0.17143576 0.24332988
0002d0 5c 1b 31 3e f2 d3 16 3e 80 8b 37 3e 27 6c 21 3e
       0.17295593 0.14729288 0.17924309 0.15763913
0002e0 ed 68 21 3e cc ee 2a 3e df 00 9e 3e e1 e8 35 3e
       0.15762682 0.16692656 0.3086004 0.17764618
0002f0 ef ff 24 3e af d3 3a 3e b7 b9 6f 3e d0 6e 41 3e
       0.16113256 0.18244813 0.23410688 0.18889928
000300 53 69 3c 3e cc bb 13 3e 30 e9 51 3e e7 ec 72 3e
       0.18399553 0.14427108 0.2049911 0.23723184
000310 04 83 4f 3e 0f cc 44 3e cf 5b 29 3e 5f 28 3c 3e
       0.20264822 0.19218467 0.16538928 0.18374775

running_var f4 [200]
000000 a6 de 4a 3d 88 2f 35 3d 1f c5 19 3e e3 a4 4b 3d
       0.04952874 0.044234782 0.15016602 0.049717795
000010 bc e1 42 3d 94 de a2 3d a8 ac a5 3d e9 ea 2f 3d
       0.04757856 0.0795261 0.08089572 0.042948637
000020 71 e3 3e 3e 92 57 21 3e 35 9f 0a 3e d3 2b 92 3d
       0.1864145 0.15756062 0.13537295 0.07137265
000030 16 cf 50 3e 2c f3 6f 3d 3f 82 91 3d d2 b4 6b 3d
       0.20391497 0.058581516 0.071049206 0.05754549
000040 bf 42 31 3e a1 ce e5 3d f1 1a 16 3e ed e6 f2 3d
       0.17310618 0.11221052 0.14658715 0.11860452
000050 f7 31 dd 3d 25 e2 d3 3d cc 97 59 3d a4 fb 8a 3d
       0.10800546 0.10345868 0.05312328 0.06786278
000060 28 a4 19 3e 58 30 dc 3d 15 55 a8 3d c9 19 a6 3d
       0.15004027 0.10751408 0.08219353 0.08110387
000070 35 fe 9e 3d 1c 98 02 3e f7 b0 9a 3d a2 27 43 3e
       0.0776333 0.12753338 0.075532846 0.19058087
000080 ba dc 84 3d 57 94 5c 3e 38 6c aa 3d e3 e8 c1 3d
       0.06487413 0.21540962 0.08321422 0.09468248
000090 ee 44 f3 3d 66 28 2b 3e a6 07 09 3e cc 30 ad 3d
       0.11878382 0.1671463 0.13381824 0.08456573
0000a0 60 8b 11 3e 97 8e 5a 3d e8 b6 0e 3e a0 9f 54 3e
       0.14213324 0.05335864 0.1393696 0.20764017
0000b0 a2 36 3d 3d 3e 94 bd 3d 28 25 bf 3d 0d fb 08 3e
       0.04619468 0.092567906 0.09333259 0.13377018
0000c0 26 39 0d 3e 5d a4 fa 3d 87 b5 34 3d cb d9 aa 3d
       0.13791332 0.12238381 0.04411843 0.08342322
0000d0 84 04 05 3e c2 52 06 3e f6 a1 da 3d 43 f7 cd 3d
       0.12990004 0.13117507 0.10675423 0.10056927
0000e0 46 71 ea 3c 6c 26 c8 3d ca ed 58 3d 79 e5 97 3d
       0.028618466 0.097729534 0.05296115 0.07416815
0000f0 2e 78 f1 3d 89 af e5 3d 58 29 90 3d 81 0f 73 3d
       0.117905006 0.11215121 0.07039136 0.059340958
000100 86 68 00 3e 4f 44 e0 3d 16 82 d8 3d 40 3a d1 3d
       0.12539873 0.10950529 0.10571687 0.102161884
000110 42 5f 9a 3d e3 94 ce 3d d2 d1 02 3e 2e a2 64 3d
       0.075377 0.10086992 0.12775353 0.05581873
000120 5c dd 0e 3e 38 e4 03 3e 99 de 95 3d d4 08 03 3e
       0.1395163 0.12880027 0.07317848 0.12796336
000130 bd b4 3c 3e 3a 1e 74 3d 3c 43 22 3d d0 e7 27 3d
       0.18428321 0.05959914 0.0396149 0.040992558
000140 d4 10 e7 3d bd 5b 92 3d 2d f8 69 3d a7 9f a5 3d
       0.112825066 0.07146404 0.057121444 0.08087092
000150 b1 b3 00 3e 60 a4 48 3d f8 22 26 3e 60 9c c4 3d
       0.12568547 0.048984885 0.16224277 0.09600139
000160 bc 17 de 3d 78 5b 0f 3e 82 87 0a 3e ac 42 a3 3d
       0.10844371 0.13999736 0.13528255 0.07971701
000170 5e 80 12 3d bc 0e d3 3d ae 9c d9 3d 53 47 fa 3d
       0.03576695 0.10305545 0.106255874 0.12220635
000180 7a e4 2b 3e 20 99 cc 3d 1e d3 21 3e 84 a2 93 3d
       0.16786376 0.09990144 0.15803191 0.07208732
000190 6d f7 a1 3d 19 91 e0 3c ca d5 be 3d 4a c4 e2 3d
       0.07908521 0.027412938 0.09318121 0.110725954
0001a0 0b 17 86 3d 84 b2 0a 3e 4f f5 18 3d c4 39 8c 3d
       0.06547364 0.13544661 0.03734332 0.068469554
0001b0 97 d0 0a 3d b8 82 2e 3d 2f d0 3d 3e b5 71 b8 3d
       0.033890333 0.042605132 0.18536447 0.09006063
0001c0 c0 84 d3 3d 25 a4 dd 3d 0c e1 14 3d f4 a8 25 3e
       0.103280544 0.10822324 0.036347434 0.16177732
0001d0 fa 09 c8 3c c8 16 63 3d da 8e 1a 3e 70 96 49 3d
       0.02441882 0.055441648 0.15093556 0.049215734
0001e0 62 f9 73 3d a5 39 40 3d fa b4 53 3e 1e 9e 56 3d
       0.059564 0.046929974 0.20674506 0.052396886
0001f0 4c 60 a2 3d c6 cb ec 3d 75 41 be 3d a6 70 9f 3d
       0.079285234 0.11562304 0.09289829 0.07785158
000200 80 96 bd 3d cc 59 b2 3d 05 a4 3e 3d 75 14 9b 3d
       0.09257221 0.08708534 0.04654314 0.07572261
000210 53 f9 ac 3d 8b b4 47 3d 00 6f 28 3e ed 16 73 3d
       0.08445992 0.048756164 0.16448593 0.059348036
000220 8c 3a 67 3d 56 e1 52 3e f8 ff 41 3d bb d7 95 3d
       0.05645232 0.20593771 0.04736325 0.07316538
000230 58 d0 c2 3d d3 eb 9f 3d e8 fa 31 3e 07 ba 31 3d
       0.09512395 0.07808652 0.1738087 0.0433903
000240 48 5f 88 3d dc 52 80 3d f9 4b e0 3d 52 cd 7b 3d
       0.066587985 0.06265804 0.10951991 0.061475106
000250 38 34 0d 3e 0c e7 f2 3d 90 13 82 3d e0 60 e8 3d
       0.13789451 0.11860475 0.063513875 0.113466024
000260 91 36 aa 3d bd 6d f1 3d 3b f6 8f 3d 27 c0 e5 3d
       0.08311189 0.11788509 0.070293866 0.11218291
000270 e0 f3 33 3c 83 d6 f6 3d bd 0b ff 3d e7 7b 12 3e
       0.010983437 0.120526336 0.12453411 0.14305077
000280 f3 d9 0e 3e fe 37 0c 3e 59 40 9f 3d 2d 55 ae 3d
       0.13950329 0.13693234 0.07775945 0.0851234
000290 e7 89 24 3e f0 c8 3d 3d d6 6d 31 3d 00 ce 81 3d
       0.1606823 0.046334207 0.04331764 0.063381195
0002a0 e9 8a eb 3d d1 74 8d 3d 59 30 cf 3d af e1 c6 3d
       0.115011044 0.069070466 0.101166435 0.097110145
0002b0 ba b9 b6 3d 04 ff cc 3d 82 9d 66 3d fd 1b e5 3d
       0.08922143 0.10009578 0.056302555 0.11186979
0002c0 01 88 c4 3d 4e ff c3 3d 71 95 cd 3d d3 7f b9 3d
       0.09596253 0.0957018 0.10038269 0.09057584
0002d0 44 30 d5 3d 4e be 8b 3d 2b 3f 82 3d 84 3c cd 3c
       0.104095966 0.06823407 0.063597046 0.02505327
0002e0 8c ff 40 3d 5e bf 8a 3d 8f 4b dd 3d ba 59 b1 3d
       0.04711871 0.06774782 0.10805427 0.08659692
0002f0 17 e0 78 3d 4b 22 ae 3d b9 10 e0 3d 50 f4 f8 3d
       0.060760584 0.085026346 0.109406896 0.12155974
000300 f8 49 c3 3d 4a ea 76 3d 5c 8c 01 3e 9f 2b 9f 3d
       0.09535593 0.06028203 0.12651199 0.07771992
000310 e5 8d d6 3d 03 70 d3 3d 8a 13 bf 3d 28 7f 04 3e
       0.10476283 0.10324099 0.09329899 0.12939131

weight f4 [100, 200]
000000 0b 8b 66 3d 65 49 9c 3d 9b da 2b bc 66 8c 9c 3d
       0.056284945 0.076311864 -0.010489131 0.076439664
000010 23 3e 28 3d e3 55 8c bd 5f 46 ac bb cd bd 4a bc
       0.041074883 -0.06852319 -0.0052574123 -0.012374354
000020 13 05 98 bd 32 3e a0 bd 17 2f b6 3c f2 87 4a bd
       -0.07422843 -0.07824363 0.022239251 -0.049446054
000030 b3 c5 81 bd cf 97 03 bd 10 41 a9 bc 40 36 0b bd
       -0.06336536 -0.032127198 -0.020660907 -0.033987284
000040 e2 79 19 36 dd 14 ef bc b8 e1 81 3d 3a 41 00 bd
       2.2869722e-06 -0.029184753 0.063418806 -0.031312205
000050 1c 0f 1d bd 7e 83 d3 3c 42 c2 c9 3c 37 db d0 3c
       -0.038344488 0.025819536 0.024628762 0.025495155
000060 a9 8f 5c bb a8 91 81 bd d5 2d 54 3c 14 48 3b bd
       -0.0033654964 -0.0632661 0.01295038 -0.045723036
000070 3c 3e 40 bb 49 45 48 3d 8e 2a 80 3d 6e fb 80 3d
       -0.002933397 0.0488942 0.06258117 0.062979564
000080 bb a9 91 3b fd da 3b 3d 14 7c 48 bd ef 24 a0 bd
       0.0044452823 0.04586314 -0.048946455 -0.078195445
000090 1e 1f d0 bc 54 c0 0c 3c 1f 26 ed 3b 46 b1 ee bc
       -0.025405463 0.0085907765 0.0072372104 -0.029137265
0000a0 18 17 9c 3c 0a 36 a9 bc 3f 78 3e 3d ff 33 3f bb
       0.01905398 -0.02065565 0.046501394 -0.002917528
0000b0 0e 08 66 3d 9f b8 b1 bc 0b 3c 30 bd f4 71 1d 3b
       0.056160025 -0.02169448 -0.04302601 0.002402422
0000c0 02 51 5a bc 37 8d 5d bc 69 97 be 3d db 5b 81 bc
       -0.013324978 -0.013522438 0.09306223 -0.01579087
0000d0 94 a1 4d 3d d1 58 dc 3c 30 85 db 3c 99 4e b0 bc
       0.05020292 0.02689782 0.026796907 -0.021521853
0000e0 79 07 1f bd bd e8 21 bb 6d ae 5c 3b cd 60 9e 3c
       -0.038825486 -0.0024705373 0.0033673302 0.019333268
0000f0 db ef 6b 3d 3a 0c 07 3b a2 c9 c3 bb f7 80 66 3c
       0.05760179 0.0020606653 -0.0059749642 0.014068834
000100 9c 86 5b 3d 9d 38 b2 bc 87 e0 55 3d 8d 35 43 bd
       0.05359517 -0.021755511 0.05221608 -0.047658492
000110 72 81 94 bd 98 95 a0 bc d8 84 b1 3c 20 2f d9 bc
       -0.07251252 -0.019602582 0.02166979 -0.026511729
000120 ae 76 b9 bc 94 c0 1d bd 23 a1 00 3d 43 80 2a bc
       -0.022639599 -0.038513735 0.031403672 -0.010406557
000130 77 c8 13 3d 0b cd 5f bd 4e cb e7 3c 92 2b f0 3b
       0.03607985 -0.054638904 0.028295185 0.0073294127
000140 b4 49 16 3d 4d 7e e0 3c 23 b8 aa bb 4f b3 80 3d
       0.036691383 0.027403975 -0.005209939 0.062842004
000150 b7 67 4e bb 91 0b 97 3c f0 c6 6c 3d 0f ee 89 bd
       -0.0031494924 0.018438132 0.05780691 -0.06734859
000160 fe fe d2 3c 8d ad b7 bb 5f 48 0b 3b a1 9a 9a bd
       0.025756355 -0.0056054057 0.0021252853 -0.075490244
000170 b2 ac 84 3c b9 66 6f bc e8 9d 75 bd e3 f7 97 3d
       0.016195629 -0.014611893 -0.059965044 0.074203275
000180 f8 62 b0 3b 66 b1 c9 3c 4e ee b4 bd ab bc 7f bc
       0.0053828917 0.024620723 -0.088345155 -0.015608947
000190 ec db fa bb c2 ef 79 3d ae f3 28 3d 54 54 c5 bc
       -0.0076556113 0.061019666 0.041248016 -0.024088062
0001a0 a0 02 83 bd 89 94 91 3c de 8b 58 3b f3 28 06 3d
       -0.06396985 0.017771022 0.0033042352 0.032753896
0001b0 47 06 3c bc 8c 5a 7b bd 35 c9 92 bd 32 34 40 bc
       -0.011476106 -0.06136565 -0.071672834 -0.011731194
0001c0 2f e7 75 bc 31 b0 96 3c 73 d0 49 3c 1b 4e 07 bd
       -0.015008732 0.018394561 0.012317765 -0.03303347
0001d0 9b 58 79 bd ff 24 f6 3c 85 33 ca bc cb 62 a9 bd
       -0.060875516 0.030046938 -0.02468277 -0.082707964
0001e0 fa d7 f6 bc 97 45 be bb 2c 07 f3 bb b8 a4 b6 3c
       -0.030132283 -0.0058066356 -0.0074166264 0.02229534
0001f0 d7 31 4a bd c8 40 7f bb d5 9f 89 bc 16 d8 90 bc
       -0.049363937 -0.0038948525 -0.016799847 -0.017681163
000200 46 b6 27 bd 35 c1 52 3d 00 3d 23 bd 18 01 03 3d
       -0.040945314 0.051453788 -0.039853096 0.031983465
000210 20 ba 6e bd 20 8d bd 3c 51 cf 51 bd 93 a6 91 3c
       -0.05828297 0.023138583 -0.051223103 0.017779624
000220 67 0a 7a bd 2e b3 68 3d ed 8e f4 3b c2 ca 85 bc
       -0.061045077 0.056811504 0.007463327 -0.016332034
000230 fb cb 75 ba 80 13 1e bb aa 2c 13 3d 41 9c 41 3d
       -0.0009376404 -0.002412051 0.035931267 0.047268156
000240 ec 96 c8 3b fd 9c 53 3c d1 5b 0e 3d 06 d3 2f 3d
       0.006121507 0.012915847 0.03475553 0.042925857
000250 79 31 3c bc 04 25 43 3c 3c 16 2d 3b e6 01 bf bb
       -0.011486405 0.011910681 0.0026410958 -0.0058290837
000260 03 0b 2b 3d 17 e2 89 bc 44 e5 31 bd cd 22 60 3d
       0.04175855 -0.01683144 -0.043431535 0.05472069
000270 dc 1d 6b bd 39 44 4f bd 93 95 42 3d 6c 63 05 3d
       -0.057401523 -0.05060217 0.047505926 0.03256552
000280 e7 6a 36 bc 37 c8 c7 bc d3 0d 1a 3d f9 ef d9 3b
       -0.011133886 -0.024387462 0.03761084 0.0066509214
000290 59 5b b3 3c cb cc 4f bd 0e 29 c5 3c ff a8 98 bd
       0.021894144 -0.050732415 0.024067428 -0.074541084
0002a0 c0 99 9c bd 33 56 60 3d eb 29 1d bd b0 d1 52 bd
       -0.07646513 0.054769706 -0.038370054 -0.051469505
0002b0 ec c8 80 3d c5 0b 16 bc e7 c0 b5 3c d6 a5 2c bd
       0.06288323 -0.0091580795 0.02218671 -0.04215034
0002c0 ae bf b4 bb b1 4d a8 3b c0 f2 11 3d 14 5c b6 bb
       -0.005516014 0.0051362147 0.035631895 -0.005565176
0002d0 1d bc 31 3d 4b e5 bb bc 28 83 42 3d a3 57 4a bd
       0.04339229 -0.022936484 0.04748836 -0.049399983
0002e0 a1 f7 4b 3d 6b 3d 07 3d 29 79 f8 39 48 bc 16 bd
       0.049796704 0.033017557 0.00047392517 -0.036800653
0002f0 82 fe fe bc 9b 98 66 bd 6d b5 89 3d 7e eb 65 bd
       -0.031127218 -0.05629788 0.06724057 -0.056132786
000300 16 17 ad bd 64 6b a4 ba 2b de d3 bc 1a 77 87 bb
       -0.08451669 -0.0012544212 -0.025862774 -0.004134071
000310 4d 02 41 3d 13 be 49 3c 55 56 1a bd 96 ac ef 3c
       0.047121335 0.012313384 -0.03767999 0.0292571
000320 e3 9f 79 3b 3d 2d 8c 3b fc a7 83 bd db 83 bb 3c
       0.0038089685 0.0042778538 -0.06428525 0.022890022
000330 4d eb fb 3c 36 14 99 bd 52 dc 04 3c d7 75 8c bd
       0.030751849 -0.07474558 0.008109169 -0.06858414
000340 02 36 0a bd 8c 62 3d bd 6f a3 3f bd 02 fe 8d 3b
       -0.033742912 -0.04623656 -0.04678672 0.0043332586
000350 93 c2 34 3d cb 19 93 bd 7e c1 ba bc fd c3 49 bd
       0.044130873 -0.07182654 -0.022797342 -0.049259175
000360 55 92 82 3d 73 a3 1e bd b9 3f 24 3c ca 11 43 3c
       0.06375567 -0.038730096 0.010024958 0.011906097
000370 36 98 80 3d 8a d1 6c bd b6 0e 0c 3c 9a 17 eb bc
       0.06279032 -0.05781702 0.008548429 -0.028697778
000380 1d 1a 40 3d d2 0a b7 3c d1 2f 5f bb cd a9 1d bd
       0.046899904 0.022344027 -0.00340556 -0.038492013
000390 35 c0 4b 3d c4 77 ac bd dc 4f 0b 3d ba e8 4e bd
       0.04974385 -0.08421281 0.034011707 -0.050514914
0003a0 8c 2e 0a bd be 72 32 bd 3e 35 d3 bc 64 92 49 bd
       -0.033735797 -0.043566458 -0.025782224 -0.049211875
0003b0 ef 19 2f 3d ff 2e 2e bc 87 02 8f ba f0 4c 1c bc
       0.04274934 -0.010631322 -0.0010910787 -0.009539828
0003c0 1e fd 3f 3b 2c d6 0c 3d 7c 0c e7 3c 89 8a 9e bd
       0.0029295157 0.034383938 0.028204195 -0.07741267
0003d0 1d 08 38 bd f7 44 56 3d e9 f0 65 3d b4 d0 3b bd
       -0.044929612 0.052311864 0.056137953 -0.04585333
0003e0 52 44 92 bb 1d d6 ac bc 5f f2 0d bc 18 43 bb bc
       -0.004463711 -0.02109819 -0.008663743 -0.022859141
0003f0 e7 51 7d 3b 84 1b 5a 3d 5e 92 33 3d 9b 60 b5 3c
       0.0038653554 0.053248897 0.04384076 0.022140792

weight f4 [100]
000000 70 1e 85 3f e1 73 82 3f 4d c5 88 3f cc 98 87 3f
       1.0399914 1.0191613 1.0685211 1.0593505
000010 4d 94 86 3f 6d bc 85 3f 8c d2 81 3f 81 ad 87 3f
       1.0514008 1.0448128 1.0142379 1.0599824
000020 ce 40 86 3f 0a 58 83 3f 5d d6 87 3f 84 f6 84 3f
       1.0488527 1.0261242 1.0612293 1.0387731
000030 d5 e7 84 3f b6 77 87 3f 0c dc 87 3f b0 9c 87 3f
       1.038325 1.0583408 1.0614028 1.0594692
000040 73 8d 86 3f c7 28 87 3f 4a cf 7d 3f 64 44 86 3f
       1.0511917 1.0559319 0.99144423 1.0489621
000050 f9 ea 84 3f e2 b6 85 3f 45 ed 85 3f 10 44 88 3f
       1.0384208 1.0446436 1.0463034 1.0645771
000060 7a 4f 83 3f 19 f8 84 3f 2c 46 86 3f ba b0 86 3f
       1.0258629 1.0388213 1.0490165 1.0522683
000070 c6 79 86 3f 71 c2 7c 3f 60 53 88 3f 31 1d 88 3f
       1.0505912 0.98734194 1.0650444 1.0633909
000080 08 41 84 3f 90 50 87 3f 9e fa 84 3f 38 b1 87 3f
       1.0332346 1.0571461 1.0388982 1.0600958
000090 de 6b 87 3f 22 1a 86 3f 7e 5e 85 3f f7 8f 88 3f
       1.0579793 1.0476725 1.0419462 1.0668935
0000a0 9f 45 85 3f ab 6c 86 3f 0d 01 83 3f fc 4c 7c 3f
       1.0411872 1.0501913 1.0234696 0.9855497
0000b0 21 55 88 3f 20 32 88 3f 98 bf 80 3f 7b 37 87 3f
       1.0650979 1.0640297 1.005847 1.0563806
0000c0 f1 1b 86 3f c8 ca 88 3f 10 97 85 3f 8d cb 85 3f
       1.0477277 1.0686884 1.0436726 1.0452744
0000d0 2d 74 82 3f ec 51 88 3f aa 99 83 3f e6 3e 87 3f
       1.0191704 1.065 1.028127 1.056607
0000e0 df e2 83 3f 85 bd 89 3f 5e 7b 86 3f a1 a9 84 3f
       1.030361 1.0760962 1.0506399 1.0364267
0000f0 56 a8 86 3f df a1 86 3f 9f c3 87 3f d6 ac 87 3f
       1.0520122 1.0518149 1.0606574 1.059962
000100 1d 62 87 3f 0a d2 87 3f cb 29 88 3f f2 96 87 3f
       1.0576817 1.0610974 1.0637754 1.059294
000110 df eb 86 3f 46 20 87 3f 11 ba 81 3f f0 60 83 3f
       1.0540732 1.0556724 1.0134908 1.0263958
000120 ca 89 86 3f 63 70 86 3f c7 51 87 3f 4a 7e 83 3f
       1.05108 1.0503048 1.0571831 1.0272915
000130 20 99 85 3f 55 92 87 3f 68 2c 84 3f e4 f4 87 3f
       1.0437355 1.0591532 1.0326052 1.062161
000140 3d a9 85 3f 56 d9 86 3f d1 05 87 3f 68 3e 88 3f
       1.0442272 1.0535076 1.054865 1.0644045
000150 1c 99 85 3f ef f6 87 3f a4 ac 86 3f 35 60 86 3f
       1.043735 1.0622233 1.0521436 1.049811
000160 9e 15 86 3f 9a 9d 86 3f 05 cd 84 3f c2 45 7e 3f
       1.0475347 1.0516846 1.0375067 0.9932519
000170 f5 d4 86 3f 9c 24 86 3f 35 ab 87 3f 9f 07 88 3f
       1.0533739 1.0479922 1.0599123 1.0627326
000180 4b 38 88 3f a8 4d 81 3f 0f 20 86 3f 06 e5 86 3f
       1.0642179 1.0101824 1.0478534 1.0538642

bias f4 [100]
000000 59 43 11 be a3 83 04 be 4c ea 1b 3e 77 d1 0e 3e
       -0.14185847 -0.1294084 0.15226096 0.13947092
000010 00 aa 25 be c1 40 09 be 95 d0 05 be 9b 65 13 3e
       -0.16178131 -0.13403608 -0.13067849 0.14394228
000020 a9 a3 16 be e0 fd 06 3e cd 10 28 3e c9 f2 07 be
       -0.14710869 0.13182783 0.16412659 -0.13276209
000030 a2 f6 04 be f9 b4 0a 3e fc d8 18 3e 7b 34 0d 3e
       -0.12984708 0.13545598 0.14926523 0.13789551
000040 dc 61 08 be 20 77 0d 3e 2a 51 05 be 89 f4 1a be
       -0.1331858 0.13814974 -0.13019243 -0.15132345
000050 64 d9 05 be d6 3b 07 be f1 18 07 be a2 23 13 3e
       -0.13071209 -0.1320642 -0.13193108 0.14369062
000060 5d 51 07 be cd bc 17 3e 1e ea 05 be cd ef 1e be
       -0.13214631 0.14818116 -0.1307759 -0.15521164
000070 f5 9d 0a be 63 04 fd bd 24 82 13 3e 0d be 08 3e
       -0.13536818 -0.12354352 0.14405113 0.13353749
000080 9d 07 24 3e 15 66 07 3e 2f 51 21 3e ff 05 0f 3e
       0.16018529 0.13222535 0.15753625 0.13967131
000090 dd 1c 0a 3e 87 a5 0d be d2 db 32 be 1d 3c 16 3e
       0.13487573 -0.13832675 -0.17466667 0.14671369
0000a0 54 c0 09 be 9d 7d 08 be a4 e3 13 3e c0 79 f8 bd
       -0.13452274 -0.13329168 0.14442307 -0.12132597
0000b0 85 b0 23 3e 49 87 12 3e fa db 0c 3e 21 ab 09 3e
       0.15985306 0.1430942 0.1375579 0.13444187
0000c0 c9 fe 07 be 33 6a 24 3e 11 3e 1e be 49 52 08 be
       -0.13280787 0.16056137 -0.15453364 -0.1331264
0000d0 a2 32 33 be 3c 06 1e 3e 79 72 1a be 57 0d 08 3e
       -0.17499784 0.15432066 -0.1508273 0.13286339
0000e0 9c c3 23 3e bf fd 2d 3e 6f 15 22 be fd 75 17 be
       0.15992588 0.16991328 -0.15828489 -0.14791103
0000f0 68 4e 13 be ee e6 08 3e 83 82 11 3e 02 07 11 3e
       -0.14385378 0.13369343 0.14209943 0.1416283
000100 10 85 08 3e af 44 0d 3e e3 a6 1b 3e ee c5 09 3e
       0.1333201 0.13795732 0.15200381 0.1345441
000110 a7 bb 1f 3e 83 7a 09 3e 65 a9 09 be d6 9f 07 be
       0.15598927 0.13425641 -0.13443525 -0.13244566
000120 c9 17 12 3e 0c 50 1b be 5a fe 17 3e 93 21 08 be
       0.14266886 -0.15167254 0.14843121 -0.13294058
000130 4e 64 0c be 30 ae 09 3e 79 7c 07 be 63 68 17 3e
       -0.13710138 0.13445354 -0.13231076 0.14785914
000140 9e b8 0e be ed ce 1e be b9 01 34 3e 61 3e 15 3e
       -0.13937613 -0.15508623 0.17578782 0.14574577
000150 a9 89 0a be df 63 11 3e b8 8a 19 be 7d c8 1a be
       -0.13529076 0.14198254 -0.14994323 -0.15115543
000160 ef 72 1b be 48 47 07 be 1e 1d 12 3e 89 78 13 be
       -0.15180562 -0.13210785 0.1426892 -0.1440145
000170 ef 7a 12 be 5a 91 0e be d8 4b 0c 3e f9 4d 14 3e
       -0.14304708 -0.13922635 0.13700807 0.14482869
000180 4e 3a 10 3e be b5 1b be 24 3b 0d be 19 00 1b be
       0.14084741 -0.15206048 -0.13792092 -0.15136756

running_mean f4 [100]
000000 48 1d e3 3e 91 57 bf 3e 58 80 9b 3e 4a ab 58 3e
       0.44358277 0.37371495 0.30371356 0.21159092
000010 0a b1 f2 3e c1 b2 c7 3e 5a 41 d9 3e 8b 6b 97 3e
       0.47400695 0.39003566 0.42432672 0.29574236
000020 a8 61 cd 3e 70 b8 a3 3e 7c 35 bf 3e 90 8a da 3e
       0.40113568 0.31976652 0.37345493 0.4268384
000030 e6 ca f2 3e 75 9d 92 3e a0 8c 9d 3e 2b a8 87 3e
       0.47420424 0.28635755 0.3077135 0.2649549
000040 59 5d 05 3f 2b 27 7f 3e a7 8c b6 3e dd cc eb 3e
       0.5209556 0.24917285 0.35654184 0.46054736
000050 08 8b 09 3f 75 3f a3 3e c8 99 08 3f e5 5f 8b 3e
       0.5372777 0.3188435 0.5335965 0.272216
000060 f4 b5 dc 3e 9e 44 90 3e d7 95 da 3e 00 e6 e8 3e
       0.4310757 0.2817735 0.42692444 0.45487976
000070 2b 2b ea 3e a0 4d e7 3e bc 28 95 3e fb b1 9a 3e
       0.4573606 0.4517641 0.2913264 0.30213913
000080 a0 e9 b8 3e 2c d0 98 3e 3d ac c2 3e d7 db ad 3e
       0.36115742 0.29846323 0.38022032 0.33956787
000090 0e 91 7a 3e 32 0b f7 3e 73 d6 e0 3e b2 4a b6 3e
       0.24469396 0.4825073 0.43913612 0.35603863
0000a0 3c 68 dc 3e 34 9e e9 3e 30 5b 8a 3e 82 69 a3 3e
       0.43048275 0.45628512 0.27022696 0.31916434
0000b0 d4 27 88 3e 54 a1 9c 3e 93 1f 98 3e 85 9b 93 3e
       0.26592886 0.30591834 0.2971159 0.2882959
0000c0 81 12 d0 3e 63 0f a5 3e 17 86 fa 3e 3b 47 d5 3e
       0.40639117 0.32238302 0.48930427 0.41655907
0000d0 c6 f6 e0 3e b3 9e 9f 3e e1 91 c4 3e b4 1d a1 3e
       0.43938273 0.31175765 0.38392547 0.31467974
0000e0 fb 8a bf 3e 22 9d af 3e 9b 8f e4 3e 4d 6f f0 3e
       0.3741072 0.3429957 0.44640812 0.46959916
0000f0 4b 6c f9 3e de fe 78 3e 34 6f 67 3e 4e 25 4f 3e
       0.48715433 0.24315974 0.22601014 0.20229074
000100 14 ac 88 3e dd 6e 83 3e 2a cb 8e 3e 48 ce 9a 3e
       0.26693785 0.2567052 0.27889377 0.30235505
000110 f7 ab 87 3e c8 87 91 3e 92 eb d5 3e 10 43 b5 3e
       0.26498386 0.28423905 0.41781288 0.35402727
000120 68 3a ab 3e ed 25 c9 3e b7 e5 8b 3e 75 77 e5 3e
       0.33442998 0.39286748 0.27323696 0.448177
000130 f2 52 ef 3e 70 44 84 3e ed ec d0 3e 30 fc 9b 3e
       0.4674297 0.25833464 0.4080576 0.3046584
000140 0a ce af 3e aa 95 f4 3e 27 bc dc 3e 3e f8 94 3e
       0.34336883 0.47770435 0.431123 0.29095644
000150 b2 28 c1 3e 37 00 89 3e f9 53 e8 3e 67 ca d3 3e
       0.3772636 0.26757976 0.45376566 0.41365358
000160 36 ab dc 3e 00 c3 e1 3e 92 64 92 3e 86 3c f0 3e
       0.43099374 0.44094086 0.28592354 0.46921176
000170 25 e0 dc 3e 5d c0 e7 3e de 45 8e 3e ce ee 86 3e
       0.4313976 0.4526395 0.2778768 0.2635407
000180 b1 85 8c 3e 0b 7c db 3e 28 d7 d1 3e 3e e0 b1 3e
       0.27445748 0.42868075 0.40984464 0.34741396

running_var f4 [100]
000000 0a 2c 84 3e 55 63 49 3e 46 de b0 3e fa 75 29 3e
       0.2581485 0.19666798 0.3454458 0.1654891
000010 a6 9c 86 3e 16 12 56 3e 02 2e a7 3e 7b 92 9e 3e
       0.26291388 0.20905337 0.3265229 0.3097113
000020 f6 3e af 3e 6c 53 b2 3e 2f e4 fe 3e 6a 15 4b 3e
       0.34227723 0.3482927 0.49783465 0.19832388
000030 61 78 7c 3e 23 f8 88 3e 1e cf a0 3e 5f e5 87 3e
       0.24655296 0.26751813 0.31408018 0.26542184
000040 19 26 da 3e e5 16 6d 3e c6 4e 97 3e d6 cc 5c 3e
       0.4260719 0.23153265 0.29552287 0.21562514
000050 fe 98 a2 3e 12 47 2b 3e b8 dc 9e 3e 7b 89 79 3e
       0.3175735 0.1672633 0.3102777 0.24368851
000060 f4 77 44 3e f7 16 82 3e 7a 0c d0 3e 5b 03 6a 3e
       0.19186383 0.25408146 0.4063452 0.22852843
000070 66 b4 67 3e bc 61 6d 3e 4a 46 a2 3e bc 0b a2 3e
       0.2262741 0.23181814 0.3169425 0.31649578
000080 5d c0 00 3f 54 aa 92 3e 61 d0 00 3f 1e 34 bc 3e
       0.50293523 0.28645575 0.5031796 0.36758512
000090 c3 ef 66 3e 16 2f 70 3e dd 94 e4 3e 2e fa be 3e
       0.225524 0.23455462 0.44644824 0.37300247
0000a0 f0 c0 5b 3e 8a a3 7a 3e c7 47 85 3e b4 67 a1 3e
       0.21460319 0.24476448 0.26031324 0.31524432
0000b0 86 86 93 3e 0f 5e b1 3e 92 6f b4 3e f1 aa a5 3e
       0.2881357 0.34642074 0.3524137 0.3235698
0000c0 3d 76 94 3e 53 5d cf 3e 51 b1 f1 3e 25 9b 3e 3e
       0.2899646 0.40500888 0.47205594 0.1861387
0000d0 50 b8 dc 3e 98 d7 a6 3e 7c 32 50 3e d8 98 9d 3e
       0.4310937 0.3258636 0.20331758 0.30780673
0000e0 c0 ba ff 3e 35 1e d8 3e 1a cc 95 3e 3e 38 8f 3e
       0.49947166 0.42210546 0.2925728 0.27972597
0000f0 e9 ca 83 3e ef b0 54 3e ff 50 41 3e 45 48 26 3e
       0.25740746 0.2077062 0.18878554 0.16238506
000100 dc 0c 89 3e 0b 43 67 3e ec d6 8b 3e bc 1d 9c 3e
       0.26767623 0.22584169 0.2731241 0.30491436
000110 a8 69 8d 3e 92 12 90 3e 35 eb 22 3e f1 60 2a 3e
       0.27619672 0.28139168 0.15910037 0.16638543
000120 bc c5 b4 3e 63 29 7b 3e 56 47 91 3e 34 b3 7d 3e
       0.3530711 0.24527507 0.28374738 0.24775392
000130 04 5e ba 3e 79 17 81 3e b8 98 77 3e 14 d3 ab 3e
       0.36399853 0.2521322 0.24179351 0.33559477
000140 04 66 5f 3e 93 e9 8e 3e e9 e6 30 3f 8b 48 9f 3e
       0.2181626 0.27912578 0.6910234 0.31110033
000150 70 e7 1d 3e bb 9e 85 3e 35 31 a0 3e 02 0c b1 3e
       0.15420318 0.26097664 0.31287542 0.34579474
000160 82 05 a2 3e 10 f5 71 3e 75 88 94 3e 34 dc a1 3e
       0.31644827 0.2362864 0.29010358 0.31613314
000170 b4 bb 81 3e 1a 0d a3 3e 4d c9 8a 3e a9 a1 94 3e
       0.2533852 0.31845933 0.27106705 0.29029587
000180 ea ad 81 3e f0 70 d9 3e f1 0f 9e 3e 4f cb a8 3e
       0.25327998 0.42468977 0.30871537 0.32967612
