male_model_traits.pkl (torch, 153415 bytes, 16 tensors)

weight f4 [13]
00000000: c2d4 683f 71a1 6c3f 5871 693f b86c 683f
00000010: de6e 6a3f 147f 693f 67f1 6c3f 9100 713f
00000020: b85b 6b3f 4a59 693f 6d0d 653f ea22 6d3f
00000030: 64d1 6c3f
0.9094964 0.9243384 0.91188574 0.9079089 0.9157542 0.9120953 0.9255585 0.9414149
0.91936827 0.9115187 0.8947361 0.926314 0.92507005

bias f4 [13]
00000000: e78f a9bd 413a 86bd 69b5 8ebd 52be 56bd
00000010: df85 8cbd 5bb6 6abd cf4d 59bd ea77 4abd
00000020: 78c2 8bbd ef87 97bd c023 afbd e75b 8cbd
00000030: f172 8dbd
-0.082794 -0.0655408 -0.06968195 -0.052427597 -0.068614714 -0.057302814 -0.05305272 -0.049430765
-0.06824201 -0.07398974 -0.08551741 -0.068534665 -0.06906689

running_mean f4 [13]
00000000: 8882 ae3b 10e8 ce3c 5481 1e3c 8dd7 953c
00000010: 443e 4dbc 986f 90ba 9076 3c3a 4896 073d
00000020: 6986 d9bc d6fb 7dbd 0000 0000 569d fe3b
00000030: 4a32 d7bc
0.005325619 0.02525714 0.009674389 0.01829126 -0.012527052 -0.0011019586 0.0007189298 0.033102304
-0.02655335 -0.062007748 0.0 0.0077702207 -0.026269097

running_var f4 [13]
00000000: d147 803f 6445 823f 879d 823f 1a6d 853f
00000010: bac7 7b3f 9fdf 803f 70c2 7f3f ade8 883f
00000020: a676 613f 2fe2 143f 6988 032e ba82 803f
00000030: b203 613f
1.0021917 1.0177426 1.0204324 1.042392 0.98351634 1.0068244 0.99906063 1.0696007
0.8807167 0.5815763 2.9907108e-11 1.0039895 0.87896264

weight f4 [200, 13]
00000000: b3d1 69be 2fba fabd 93dc 71be fb61 543c
00000010: 5311 11be d7d8 5a3e daf4 ab3d b780 74be
00000020: b1b3 7e3e 47d1 33be 6ad3 2abe 461f 8abe
00000030: 0afd d5bd 9d68 9dbd 22d1 ddbd 95b2 a03c
00000040: f112 17be 988d 2dbe 8687 533e 72f0 093d
00000050: 77a6 5bbe 89bc e03d bde1 943b 685a 403e
00000060: 1a57 8e3e 2ec4 56bd f8d8 c73b 1859 a3bd
00000070: cad3 3b3e ba6b f0bc 8113 823e 58b5 4cbe
00000080: 77aa bc3d b6bb 43be 0e27 703e 8a14 a93d
00000090: aa1b 19bd f190 113d 9bca 58be 38f7 f53d
000000a0: efb6 d3bd a808 113e b9c0 0fbe 37f3 c1bd
000000b0: 224a bc3d 1cbf 5b3d 0296 0b3e cd41 f8bc
000000c0: b2e3 88be 730f 713e fa96 46bd e04f 4fbd
000000d0: 5d71 653e 1c53 21be 6a51 123e 9067 523d
000000e0: d3d3 01be 54e7 f63d 77ad 643e c0d4 9e3d
000000f0: e405 02be 98cd 1a3e dada 3f3d 6d46 5f3e
00000100: 36ec 2dbe 12d9 73be b573 83be deed 74bd
00000110: 2a56 02be a1a7 c53d 0ad4 163e bd6b c93d
00000120: 435d e63c fb6c 973d 5b18 0f3e 61a3 873e
00000130: 6a98 5dba f9ef 90bd 1618 723e 7716 3dbe
00000140: fe6f 233e 8bfd 493c 691e c23d 96a0 39bd
00000150: 028a 473e 11b5 bf3c f69c 033d 73d6 423d
00000160: f4d3 2abc d8f7 7b3e e938 853e 1120 583e
00000170: 001a 83be f33d 0d3e 1c02 87be 8a7a 823e
00000180: eedb 55be 7012 7f3e f27c 6cbc 91ba 10be
00000190: aafc 403e d730 923d f591 4abd b408 40bd
000001a0: d9ed 83be 8d22 113e 4195 73bd afd5 b9bd
000001b0: 7a2e fabd b9e4 e0b9 8f71 7ebd 65c7 16be
000001c0: afc8 8b3e 6e17 5f3e 9492 dc3d b798 433e
000001d0: 5e5d 833e ee61 1bbe ecef 88be 5510 41be
000001e0: b84e c4bd 4ade 2c3e 6b86 3ebe fa4f 8abe
000001f0: e32b 3ebe b16c 3d3e 5a24 1fbd 5030 8c3e
00000200: a8ec dcbd 67e4 f3bd a9d9 5a3e 788e 863d
00000210: 2605 2bbe d97a 4ebe 58c3 62be c7ba a3bc
00000220: 44ee 333e 3479 70bd 2796 4f3e ac06 8b3e
00000230: aa96 f93d d58a 0d3e 41e6 213e 5ba7 3abe
00000240: fddc 4fbe 42d7 86be b286 5f3e 043a 6d3e
00000250: 3618 903c c6f7 f53d fe52 003e 1376 0e3d
00000260: 6f10 0d3e 276c ebbd eca6 363e b35b bebd
00000270: 4dfa 803e 9473 87bd 2ee9 a83c 9fb4 77bb
00000280: cc37 58be 8008 17be 978c 6d3e 623c 61be
00000290: fa2f 3ebe 2a9f f2bd 9022 213e 064f 793e
000002a0: 7d65 5e3e 3eae 643e 63ab ca3d 6d6f 16be
000002b0: e9dd 463c fe05 f4bc dd09 c9bd 2b3e 603e
000002c0: 8337 0c3e a14e 183d b986 acbd ed3f 283d
000002d0: 4af6 cdbc 8738 87be 5393 5fbe e5b6 853e
000002e0: a147 8ebe 7b42 3a3d ebba 843e 7b54 8ebd
000002f0: f4a5 873e 86a8 873e f175 a3bd 42c6 10bd
00000300: 345b 643d eb91 debd a4e4 53be 203e cfbd
00000310: e333 4ebe 0ad2 373e 2360 8abd 7441 34be
00000320: 767d 253e d04e 7abe 6d7f 87be d45f a1bc
00000330: 6a94 6e3c da11 17be 4bb3 64bd 89b2 55bd
00000340: 9915 383e 7dfb 3f3e 2562 963d 2d8c b1bc
00000350: bf0f 2d3e a029 a23d 8c78 2639 b93c 043e
00000360: cae0 44be 9ea4 8dbe 69df 263e 73e8 dd3d
00000370: 2af1 db3d 66f9 333e 0421 a9bd f894 b53d
00000380: d615 a8bc 5ea7 003d dbd6 26be d0f2 713e
00000390: 65a7 1c3d 9712 d13d b60b e9bc d610 c1bd
000003a0: ecac 713d 2fec 923d 51a7 38be 4969 dd3d
000003b0: e9bc 24bc 766f 2f3d 2f3a 373e 1694 11be
000003c0: 65fe 89be 1346 50be 00ad fc3d 76df 2fbe
000003d0: 71fa d53c 1260 6abd 48ed ed3d 6a34 263e
000003e0: f601 763e 6644 053e 08f5 06be 514c 6e3e
000003f0: e5e9 91bd b6f5 733d 7895 1abe 282b 983c
-0.228339 -0.12242543 -0.23619299 0.0129628135 -0.14166765 0.2137178 0.08396311 -0.23877226
0.24873234 -0.17560302 -0.1668221 -0.26976985 -0.10448654 -0.07685969 -0.108309045 0.019616405
-0.1475332 -0.16948545 0.20657167 0.033676572 -0.2145022 0.1097346 0.0045435117 0.18784487
0.27800828 -0.052433185 0.0060988627 -0.07975978 0.1834251 -0.029348243 0.25405505 -0.19991052
0.09212201 -0.19114575 0.23452398 0.08255871 -0.037379898 0.035538618 -0.21171038 0.12010044
-0.10337626 0.14163458 -0.14038362 -0.09470218 0.09193827 0.053649053 0.13631442 -0.030304814
-0.26736218 0.2354105 -0.048483826 -0.050613284 0.22406526 -0.1575436 0.1428887 0.051368296
-0.12678461 0.12055841 0.22331797 0.077554226 -0.1269756 0.1511749 0.046839572 0.21804209
-0.16984639 -0.23813275 -0.25674215 -0.05979716 -0.12728181 0.09651113 0.14729324 0.098350026
0.028120643 0.07393833 0.13974135 0.26491836 -0.00084531924 -0.07077021 0.23642 -0.18465601
0.1596069 0.012328516 0.094784565 -0.045319162 0.1948624 0.023401769 0.03213211 0.047567796
-0.01042651 0.24606264 0.26019982 0.21105982 -0.25605774 0.13793163 -0.26368797 0.25484115
-0.20884678 0.24909377 -0.014434086 -0.1413367 0.18846384 0.07138222 -0.0494556 -0.0468833
-0.257674 0.14173336 -0.05946851 -0.0907396 -0.12215896 -0.0004289502 -0.062120017 -0.147245
0.27301547 0.21786281 0.10770145 0.19101225 0.2565717 -0.15174076 -0.26745546 -0.18853886
-0.09585327 0.16881672 -0.18605964 -0.27014142 -0.18571429 0.18498494 -0.038853027 0.2738061
-0.10787326 -0.11908799 0.21372093 0.065701425 -0.16701183 -0.2016405 -0.2214483 -0.019986523
0.1757136 -0.05870934 0.20272122 0.27153528 0.1218694 0.13822491 0.15810491 -0.18227904
-0.20299144 -0.26336104 0.21828726 0.23166662 0.01758967 0.1201015 0.12531659 0.034780573
0.137758 -0.11495238 0.17837113 -0.09294834 0.25190964 -0.06613842 0.020619001 -0.0037796868
-0.21115035 -0.14749336 0.23198162 -0.2199569 -0.18572989 -0.118467644 0.15735841 0.24346551
0.21718402 0.22332093 0.09895971 -0.14690943 0.012137868 -0.029788014 -0.098163344 0.21898715
0.13693051 0.03718436 -0.08424134 0.04107659 -0.025141854 -0.26410314 -0.21833543 0.261161
-0.27789024 0.045473557 0.25923857 -0.06949707 0.264938 0.2649576 -0.0798148 -0.035345323
0.05575104 -0.108676754 -0.20692688 -0.10119271 -0.2013698 0.17951217 -0.06756618 -0.17603093
0.16161141 -0.24444127 -0.26464406 -0.019699015 0.014561752 -0.14752904 -0.05583505 -0.052172218
0.17976989 0.18748279 0.07342938 -0.021673286 0.16900538 0.079180956 0.00015875901 0.12913789
-0.19226375 -0.27664655 0.16296162 0.10835352 0.10739358 0.17575607 -0.0825825 0.08866304
-0.020518225 0.031409614 -0.16292898 0.23627782 0.038245577 0.10208624 -0.028447967 -0.09427039
0.0590028 0.07173955 -0.18032576 0.10811097 -0.010054805 0.042830907 0.17893289 -0.14216647
-0.269519 -0.20339231 0.12337685 -0.17175087 0.026120396 -0.057220526 0.116175234 0.16230932
0.24024186 0.13014373 -0.1317941 0.232713 -0.0712469 0.0595605 -0.1509608 0.018575266

weight f4 [200]
00000000: bc19 7f3f e021 813f 27a6 803f a1cd 7f3f
00000010: 5863 7b3f 6c3c 7d3f 0394 7f3f bec8 7e3f
00000020: 3807 813f bcfa 7f3f 54dc 803f 791b 7c3f
00000030: b799 7f3f b4b1 803f 4a59 7d3f 1dd2 7c3f
00000040: e9f2 7e3f 5a5d 803f ff50 803f e184 7e3f
00000050: f6e7 813f 065c 7f3f 3a04 803f 50df 813f
00000060: 974c 803f 8e5f 7e3f a3d0 803f 182f 803f
00000070: 181d 7d3f da7e 7d3f 08bc 7d3f cc04 7e3f
00000080: fa3b 7d3f 4af2 803f 7b4c 7b3f a26f 7d3f
00000090: babf 7f3f b976 803f 68e5 7b3f 9f84 813f
000000a0: 9494 803f 20e7 813f 58c7 813f 94b6 7f3f
000000b0: b716 803f 4848 803f 7278 823f 5076 7f3f
000000c0: 9ff9 7b3f f690 813f 6389 813f f29c 803f
000000d0: 574f 803f 28f7 7c3f 8e98 813f ab0d 7f3f
000000e0: 903a 823f b808 813f 9a3f 803f c7f3 7e3f
000000f0: f6a6 7e3f 3c2d 803f 52a2 7e3f ee0c 7d3f
00000100: e405 813f b07b 7d3f 4524 803f e933 7b3f
00000110: a462 803f 2c85 7e3f 084a 803f 5b09 803f
00000120: 0c1b 813f 9e52 7f3f 8606 813f b64c 803f
00000130: 6e6f 803f 9524 813f 73fc 7c3f ea75 7d3f
00000140: 1f44 803f 783b 7f3f afe6 803f 1695 7f3f
00000150: c140 803f be5e 7c3f 817b 7c3f 1fa1 803f
00000160: d1a5 803f 5867 7f3f 69a7 803f fe0c 803f
00000170: 2b06 7f3f e9d0 813f b28a 813f ac55 7e3f
00000180: a895 803f 46d7 7d3f 1dfb 803f dccf 7d3f
00000190: c7f7 7f3f aa10 803f 5943 813f 7ffa 7e3f
000001a0: 6383 803f 614b 7f3f 8a00 813f 6c7d 803f
000001b0: 859d 803f 3750 813f 35f6 803f d314 813f
000001c0: 6051 813f d622 803f 3f11 803f 7b90 803f
000001d0: 33f0 7f3f c46f 7e3f dfae 7c3f eda2 7c3f
000001e0: 30bc 7e3f 5266 7e3f d745 803f b73b 7f3f
000001f0: 2b3a 803f 0ecc 803f a9d7 803f 764f 7e3f
00000200: dd78 803f 24a4 803f 3a84 813f ad8f 813f
00000210: e94e 7d3f 9f81 813f ad2e 7e3f ac08 813f
00000220: 02db 823f d930 803f 2ef2 803f 4179 803f
00000230: 7ede 7b3f 4543 833f b997 813f cff0 803f
00000240: 0183 7f3f c2fc 7d3f 9494 7e3f 0826 813f
00000250: 725f 803f 7bc1 803f c80e 803f 4055 7d3f
00000260: 8bdb 7f3f a3db 803f c83b 7c3f 97c5 803f
00000270: 8a32 813f bc23 803f cc9f 7d3f ff0a 813f
00000280: 34e8 7d3f 3647 813f 98fa 7b3f ee2f 803f
00000290: b02c 7e3f eebc 803f b53c 7f3f 1598 803f
000002a0: d609 7e3f ac08 803f e96e 813f 1ac9 7c3f
000002b0: e815 813f cb0f 803f 8885 7d3f e2f2 7e3f
000002c0: b87e 7f3f f2d9 7c3f 2449 7e3f dc78 7d3f
000002d0: 98e6 803f 01ca 803f bd73 7c3f 035c 803f
000002e0: ddb4 803f 48d5 7e3f 6b29 803f a999 813f
000002f0: b6f3 7d3f 62da 803f bba9 7d3f 48f0 7b3f
00000300: 929e 803f 7f76 7e3f 72d0 7f3f 173c 813f
00000310: 6cf6 7e3f 7ec1 813f dc24 813f beee 803f
0.9964864 1.0088463 1.0050706 0.9992314 0.9819846 0.9892032 0.9983522 0.9952506
1.0080328 0.99991965 1.0067239 0.9847942 0.99843925 1.0054231 0.9896437 0.9875811
0.995894 1.0028489 1.0024718 0.9942151 1.0148914 0.9974979 1.000129 1.0146275
1.0023373 0.99364555 1.0063671 1.0014372 0.9887252 0.99021685 0.9911504 0.9922607
0.9891964 1.0073941 0.98163575 0.98998463 0.99901927 1.0036231 0.9839692 1.0118598
1.0045342 1.0148659 1.013896 0.9988797 1.0006932 1.0022058 1.0193007 0.99789906
0.98427767 1.0122364 1.0120052 1.0047896 1.0024213 0.9881463 1.0124681 0.9963023
1.0174122 1.0080786 1.001941 0.99590725 0.9947351 1.0013804 0.9946643 0.98847854
1.0079923 0.9901686 1.0011069 0.98126084 1.0030103 0.99421954 1.0022593 1.0002855
1.0086379 0.9973544 1.0080116 1.002341 1.0034006 1.0089289 0.98822707 0.9900805
1.0020789 0.9970012 1.0070399 0.9983686 1.0019761 0.98582065 0.9862595 1.004917
1.0050603 0.99767065 1.005109 1.0003965 0.99618787 1.0141879 1.0120451 0.99349475
1.0045671 0.99156606 1.0076634 0.99145293 0.99987453 1.0005085 1.0098678 0.99600977
1.0040096 0.99724394 1.007829 1.0038276 1.0048071 1.0102605 1.0075136 1.008448
1.0102959 1.0010631 1.0005263 1.0044092 0.9997589 0.9938929 0.9870433 0.98686105
0.995059 0.9937488 1.0021313 0.9970049 1.0017751 1.0062273 1.0065814 0.9934
1.0036885 1.0050092 1.0118477 1.0121971 0.9894853 1.0117682 0.9928997 1.0080771
1.0223086 1.0014907 1.0073907 1.0037004 0.9838637 1.0254904 1.0124427 1.0073489
0.9980927 0.992138 0.9944546 1.0089731 1.0029128 1.0059046 1.0004511 0.98958206
0.9994437 1.0067028 0.9852872 1.00603 1.0093548 1.0010905 0.99071956 1.0081481
0.9918244 1.0099857 0.9842925 1.0014627 0.9928694 1.0057657 0.99702007 1.0046412
0.9923376 1.0002646 1.0111972 0.98744357 1.008481 1.000482 0.9903188 0.9958936
0.9980273 0.9877006 0.99330354 0.9901254 1.0070372 1.0061647 0.986141 1.002808
1.0055195 0.9954419 1.001264 1.0125018 0.992 1.0066645 0.99087113 0.98413515
1.0048392 0.9939956 0.9992744 1.0096463 0.9959476 1.0137174 1.0089374 1.0072858

bias f4 [200]
00000000: b88b 88bb 0e1b c2bc af02 a13b 3f71 a6bb
00000010: 9165 14bc 22b9 b3bc 5bfb 2a3c 7267 ce3b
00000020: 02d8 0dbb 5e0e 3f3b ffdc 9b3c 0da6 0ebc
00000030: 7df2 8d3a 53e8 edbb 9829 cd39 fa64 ddb6
00000040: fa84 9dbc 39e0 7dbb b31f 953c d289 373b
00000050: 5968 f73b 963f 8abc 234e babb 99f2 883c
00000060: 9f47 c6bc 331b f03b 6d5d cc3b 9d11 28bc
00000070: 9335 3d3c 7a4d 3b3b f1ad ac3b f7de 533c
00000080: a051 9f3b 11f7 243c 53c2 6dba 75d3 00bb
00000090: fc55 bb3c 46a2 3c3c 31cf 113c 6c6e 4b3b
000000a0: 663f 7fba 7753 55bc ae4e 263c 881a 68bc
000000b0: 5553 143b d51f 283b ba19 cd3b 3630 61bb
000000c0: 5228 09bb 8f3b d23a 77e7 f4bb bed5 293c
000000d0: d80e 033c f01b 3f3b 9727 08bc 3116 32bc
000000e0: da5f 0c3c e18f ba3a 3e9a 813c 5282 3b3b
000000f0: 0b5c 913c f3ce c33c 0c8b 04bc 4d2c a2ba
00000100: ae2f ad3b f3b2 98bb b1a8 45bb b9d4 9ebb
00000110: d812 5bbc d598 913a a3de bc3c a8b3 7fbc
00000120: ff83 babb 3626 5a3c dd0d 0a3c 0334 36bc
00000130: 6a87 963b f795 90bc 79a8 b7ba 0137 bc3c
00000140: 9db3 df3c a2dd a1bc d34f faba aa09 543c
00000150: d225 f33b aa83 183c 167d 5f3c d0e2 473c
00000160: ddcb aabb 68ca 853c 8557 d23b 436f 9a3c
00000170: f0c8 b1bc f9c1 253c ada4 f43c caf1 383c
00000180: 0143 453b f902 84bc 56fd db3c b9f5 093a
00000190: 0169 4f3b ac81 5a3b f876 04bc e3bb cdba
000001a0: 2541 f4bb b490 f83c 5346 80bc 7870 893b
000001b0: 34bf afba 3b4f 29bb 526a 0fbb c2a9 503c
000001c0: dadb 9bbc f11f 7f3a 0445 073c 25ca 83bc
000001d0: 4a13 0dbc c636 d93a 2025 e33b 2f0a 8e3c
000001e0: c933 bc3b 3438 5dbb 4667 a73c e2cb 87bc
000001f0: 48a3 d53a 1cd6 85bb 535d 14bb 1360 823c
00000200: 413f f0bb f595 68bc 56f1 9abb 3778 0f3c
00000210: cb85 bbbb 4bac eb3c 1546 b738 4ec8 da3a
00000220: 33c1 2eba 165f 183c c30c 233b 0523 92bc
00000230: 186d 4f3a 1796 153b 99f3 933c 3f99 45bc
00000240: d63f 343c e6c2 46bb bc72 29ba 8fcc 6e3b
00000250: d352 f8bb ee46 12bb 9943 ed3c b6a5 abbb
00000260: 8137 2cbb 6cbb 043c ed5d cd3b 434d 613c
00000270: 3450 16bb c1e6 02bc d5bc 87bb fbe8 e4bb
00000280: e9ae a13b d8ad 8a3c a0ec 1fbc eb20 82bc
00000290: a50d c93c ccc9 e737 4b2c 1aba 5aef abbb
000002a0: 85bc d6bb 2a74 3abc 13ff 05bb 517f 34bc
000002b0: cc1b a23c b322 36bc 1939 513b bc84 dcbb
000002c0: 4f4f d73b 6d1a 92b9 e8e8 c83b ec0f 4d3c
000002d0: acbc 243b fe87 673c 869c e8bb 33d0 6cbb
000002e0: e1c7 013d e902 1b3a 324d 1dbb 21a5 e7b9
000002f0: ce2b 353a 9f65 1e3c 24e3 bb3a 1676 3abc
00000300: ac8d cdbb 807e 25bc a3d0 37bb 6911 4ebc
00000310: 117d 9abc cd3c 77bc 2941 17bb bd8b fb3a
-0.0041670464 -0.023694541 0.00491365 -0.005079418 -0.009057418 -0.021938864 0.010435904 0.0062989527
-0.0021643643 0.002915285 0.019026278 -0.008706582 0.0010829713 -0.007260361 0.00039131637 -6.5980685e-06
-0.019228447 -0.0038738383 0.018203592 0.0028005731 0.007550281 -0.016876023 -0.005685584 0.016717242
-0.024204073 0.007327461 0.006236723 -0.010258106 0.011548418 0.0028580115 0.005269759 0.012931577
0.0048620254 0.010068671 -0.0009069789 -0.0019657288 0.022868149 0.011513298 0.008899496 0.0031041158
-0.0009736925 -0.013020388 0.010150595 -0.014166482 0.0022632678 0.002565374 0.0062591704 -0.0034361011
-0.0020928574 0.0016039478 -0.007473882 0.0103659015 0.0079991445 0.002916094 -0.00831022 -0.010869549
0.008567775 0.0014233553 0.015820619 0.0028611613 0.017744085 0.023902392 -0.008089792 -0.0012372822
0.005285225 -0.0046600043 -0.0030160362 -0.004847136 -0.013371192 0.001110817 0.02305538 -0.015606798
-0.0056920047 0.013314774 0.008426157 -0.011120799 0.0045937793 -0.017649634 -0.0014012001 0.022975447
0.027307326 -0.019759003 -0.0019097276 0.012941757 0.00742028 0.009308735 0.013640663 0.012200072
-0.0052122907 0.016331866 0.0064191245 0.018851882 -0.02170226 0.0101170475 0.02986368 0.011288116
0.0030099752 -0.016114699 0.026854198 0.0005262751 0.003164828 0.003334145 -0.008085005 -0.0015696253
-0.007454055 0.030342437 -0.015658533 0.0041943155 -0.0013408423 -0.0025834579 -0.002188344 0.012735786
-0.019025732 0.00097322377 0.008256201 -0.016087601 -0.008610556 0.001657211 0.006931916 0.01733884
0.005743478 -0.0033755424 0.020434987 -0.016576711 0.0016299272 -0.0040843617 -0.0022638633 0.015914952
-0.007331759 -0.014195909 -0.0047284765 0.008756689 -0.0057227365 0.02876868 8.739174e-05 0.0016691776
-0.0006666362 0.009300014 0.0024879433 -0.017838964 0.00079126796 0.0022825056 0.018060492 -0.0120604625
0.011001548 -0.003032857 -0.0006463935 0.0036437844 -0.007578233 -0.002232011 0.028962897 -0.00523826
-0.00262782 0.0081013255 0.0062673003 0.013751331 -0.0022935988 -0.007989586 -0.0041423836 -0.0069857812
0.004934181 0.016928598 -0.009761006 -0.015884837 0.024542639 2.7631315e-05 -0.0005881234 -0.005247039
-0.006553235 -0.011380235 -0.0020446226 -0.011016683 0.019788645 -0.011116671 0.0031924902 -0.0067296904
0.0065707336 -0.0002786698 0.00613128 0.012516003 0.0025136871 0.014131544 -0.007098737 -0.0036134839
0.03168476 0.00059132144 -0.002400231 -0.00044182784 0.00069111295 0.009667783 0.0014334661 -0.011380693
-0.006272992 -0.010100961 -0.002804794 -0.012577393 -0.018858464 -0.01509018 -0.002307961 0.0019191426

running_mean f4 [200]
00000000: 5c9f 813e d1b1 2f3e 37fc 1b3e c883 ea3d
00000010: e358 073e 478f 143e 09d5 e63d d63b 623e
00000020: 166e 443e 669d 553e a011 3b3e eec8 363e
00000030: 87f0 6e3e f94f 313e 9b60 773e e7bb 3c3e
00000040: 9416 0d3e ec78 ea3d 1679 323e 86c8 473e
00000050: 0a45 2d3e cbbe 603e 54c5 163e 5999 443e
00000060: bcd2 613e 251f 1c3e 58c3 e33d f75a 2f3e
00000070: 1bc1 d03d 8f83 833e 32a5 563e 3920 253e
00000080: aa05 633e 31e4 8b3e 07b4 263e 7799 0c3e
00000090: 5829 2c3e a6de 543e 10ce 483e c128 843e
000000a0: 5053 083e 9119 383e b7da 2b3e 9318 3c3e
000000b0: 5d70 503e 9eca 033e a410 923e 9c34 433e
000000c0: 8eae 1a3e c46d 1f3e 533b 113e 7887 2e3e
000000d0: 924f 143e 8fcb 623e a8fc 773e 465b f43d
000000e0: d646 633e c35e 383e be9b 643e e238 5a3e
000000f0: 4b9d 783e f43a 7d3e e562 db3d 80d4 093e
00000100: 307a ef3d 2dac 4e3e 1cd8 4d3e a1f7 323e
00000110: 801d 723e 924d 3b3e d593 433e 9b52 173e
00000120: 6f0a 253e cf39 663e adfc 453e 1907 573e
00000130: d8d3 ee3d a105 563e 5d05 4a3e 89e4 413e
00000140: 35da 6f3e 842e 643e d324 053e 5cc9 093e
00000150: e837 163e 55da 663e a0a2 193e 7bbd 413e
00000160: 2c1f 393e 14d7 6c3e 7a91 3e3e 6e76 1e3e
00000170: a860 363e fe00 493e f669 083e 8ac8 253e
00000180: 7c67 053e b053 7c3e 5761 363e 4ded 3a3e
00000190: b104 273e 6dd1 803e 6245 693e 020b 373e
000001a0: 942e 493e 9f45 763e 0d02 8b3e a1b2 723e
000001b0: f64e e43d 25ca 363e 766e 293e 92c9 3a3e
000001c0: 7473 873e a76c 153e 2ad1 043e c4c9 3e3e
000001d0: b901 2f3e 82dc 343e 18da 373e 42fa 333e
000001e0: 9c38 483e 5b2a 4d3e 1754 643d 9a0e 113e
000001f0: af38 e83d 3c0f 4e3e 73be 393e b3a5 123e
00000200: 1a57 0f3e d3d1 283e 8dd4 483e 4e33 8e3d
00000210: a832 843e b59c 513e c0d8 5d3e dec6 293e
00000220: 53f0 803e 4428 023e 3290 693e a05c 0b3e
00000230: 5eef 003e 214b 7c3e 6c26 d23d f49a 733e
00000240: 1c6a 2b3e 7049 843e bb41 553e 46fa 4a3e
00000250: b5f9 403e bfb8 103e 7e8e 173e cda2 2a3e
00000260: dcc7 763e 8fe3 4e3e 040a 3e3e 71d6 633e
00000270: bbe6 273e c2f5 a43e 0d50 4e3e d32d c43d
00000280: f3cc 1f3e 62ab 343e 17f2 db3d bc95 263e
00000290: 3447 7e3e 20d9 2d3e acc9 5c3e 35e5 223e
000002a0: c3b1 303e ca1d 543e 710d 493e 8c53 1b3e
000002b0: 508a 433e e747 4c3e b876 293e 65bf 1d3e
000002c0: 9e94 2d3e 9ce8 473e 666d 2e3e a2ad 383e
000002d0: 23b8 303e 8305 bf3d 91be 1a3e 2a3f 4b3e
000002e0: e45d 623e a1b7 893e e43e 843e 9c9a 483e
000002f0: 3892 753e 6ca9 513e be6d 283e e6c9 4e3e
00000300: 2504 333e fc44 513e 90ef 903e 5c9e 2d3e
00000310: dc79 273e 396d 833e 55ca 1f3e a4a0 153e
0.25316894 0.17157675 0.15232931 0.114509165 0.13217501 0.14507781 0.11271102 0.22093138
0.1918262 0.20860824 0.18268442 0.17850086 0.23333941 0.17315663 0.24157946 0.18431054
0.13778144 0.11448845 0.17429003 0.19510087 0.16920868 0.21947782 0.14723712 0.19199122
0.22053045 0.15246256 0.11121243 0.17124544 0.10193082 0.2568631 0.20961455 0.16125573
0.2217013 0.27322534 0.16279612 0.13730417 0.16812646 0.20788059 0.19609857 0.25812343
0.13313031 0.17978503 0.16782652 0.1836875 0.20355363 0.12870261 0.2852832 0.19063038
0.1510565 0.15569216 0.14182787 0.17043865 0.14483479 0.22147964 0.24217474 0.119314715
0.2219499 0.18004899 0.22325036 0.21310762 0.24278753 0.2472952 0.10712222 0.13459969
0.11693227 0.20182867 0.2010197 0.17477275 0.23644066 0.1829131 0.19099362 0.14777605
0.16117261 0.2248299 0.1933467 0.20998801 0.116615 0.20900585 0.19728608 0.18934835
0.23423083 0.2228337 0.13002329 0.13455719 0.14669764 0.22544225 0.15003443 0.18919937
0.18078297 0.23128921 0.18610182 0.15474865 0.17810309 0.19629285 0.13321671 0.16189781
0.13027757 0.24641299 0.1781057 0.18254586 0.16310383 0.2515978 0.22780374 0.17875293
0.19646674 0.24049996 0.27150002 0.23700954 0.11147873 0.1785055 0.16546044 0.18240955
0.2645527 0.14592229 0.12970415 0.18631655 0.17090501 0.17662242 0.1795429 0.17575935
0.19552845 0.20035689 0.055744257 0.14165726 0.113389365 0.20122999 0.18139057 0.14321022
0.1399807 0.16486292 0.19612332 0.06943379 0.25819898 0.20469935 0.21664715 0.16579768
0.25183353 0.12710673 0.22808912 0.13609552 0.12591311 0.24638034 0.10261235 0.23789579
0.16739696 0.25837278 0.20825855 0.19822034 0.18845256 0.14132975 0.1480045 0.16663666
0.24099678 0.20203994 0.18558508 0.22249772 0.1639661 0.32218748 0.20147724 0.09579053
0.15605526 0.17643502 0.10739534 0.16268057 0.2483185 0.16977358 0.21561307 0.15907748
0.1725531 0.20714489 0.19634034 0.1516859 0.19095731 0.19949304 0.16549194 0.15405042
0.16951224 0.19522327 0.1703392 0.18034986 0.17257743 0.09327223 0.15111758 0.19848314
0.22106129 0.2689791 0.25829232 0.19590229 0.2398156 0.20474786 0.16448113 0.20194206
0.1748205 0.20436472 0.28307772 0.1695494 0.1635508 0.25669268 0.15604527 0.14612061

running_var f4 [200]
00000000: b85c 003e 6bda 523d b3d7 b93d 54fb e33c
00000010: 928b 2a3d 4337 433d 0518 3c3d df41 cd3d
00000020: 9e93 e13d c5b7 ac3d fc43 953d e387 c63d
00000030: 3eaa 913d b13f 563d f455 ff3d a3cf 773d
00000040: b6f5 4d3d eae2 e93c 3af6 8a3d 3255 c93d
00000050: 6800 b33d ba82 b63d f008 733d e3a1 d73d
00000060: dcea dc3d 772c 493d 870b 693d 6610 b63d
00000070: f9df 463d 2505 f03d 53c2 b33d 52d7 823d
00000080: b17b d53d 469e 8a3d c265 763d ee72 433d
00000090: 1c01 c23d 2082 bc3d f830 f13d 9460 db3d
000000a0: 0130 033d f689 d23d 5ac3 b03d d016 823d
000000b0: ed35 ac3d 2b76 273d 4943 243e c118 073e
000000c0: 9818 ea3c 2999 a03d cc4b 903d 7ec3 5d3d
000000d0: dd53 833d 493f cc3d d13a d83d 1d3b 883d
000000e0: 4f77 0a3e 487c 6a3d 38c4 903d 6c03 e03d
000000f0: 7164 a83d b254 e73d fd17 0b3d ef0a 1d3d
00000100: 7e60 1b3d 734c 793d 7302 ac3d af79 5c3d
00000110: f3f1 b93d b58b d63d 2ea3 f03d dc9b 653d
00000120: ec17 703d b7ca 003e 19d6 693d 032a 853d
00000130: 857c 8b3d 06d6 ec3d 298f aa3d f56b a53d
00000140: 0154 c33d b5be 033e a0f1 c23d 5dc1 383d
00000150: ccf6 7f3d 99e4 b73d 368a a33d 8274 043e
00000160: e0c2 d53d f2cc 133e bc07 863d 5870 1a3d
00000170: 3fb6 dc3d 9c34 793d 98f6 6b3d 5b9f 283d
00000180: c0a0 333d 3b6f 4f3e b296 1a3d 5de8 ad3d
00000190: 297b 6c3d 357a 863d 93fa af3d c5bb 583d
000001a0: 27b6 863d e3c4 ae3d 0d2c d13d 111a e13d
000001b0: 163b 0a3d 4775 8d3d cc18 3e3d 0c72 743d
000001c0: 9db9 593e f34f a23d 872f ac3d ddea cc3d
000001d0: dc8b 973d 7ece 5d3d b732 813d fdb5 bb3d
000001e0: 2d72 463d b760 893d bc8f 423c 6edf 883d
000001f0: da49 313d 17b9 dc3d fcd5 ba3d 858f c03d
00000200: 8ac8 4d3d 38d8 6c3d cbe7 c53d 2d60 7c3c
00000210: e2fe 033e 68b9 ae3d c9de 993d 38cb 2c3d
00000220: be98 833d c31c 473d eb40 1a3e 3644 883d
00000230: 4696 a63d 840b f03d 5783 7b3d 7c83 543e
00000240: 62c6 6b3d 9e4c c23d c22d 8b3d f60c e53d
00000250: 9a4c ce3d 6673 8d3d fdb7 623d f335 fe3d
00000260: 320d 303e 3a6a d63d 035b 4e3d 08d0 a03d
00000270: b680 963d ecb8 3b3e 57f9 d13d 1ebb f63c
00000280: d7b8 9b3d fc3d b23d 89fe 553d ee38 ad3d
00000290: c4b5 df3d 390e 963d df7e c53d 33b5 913d
000002a0: d59f 803d 9eff 9a3d 8255 2d3d d5e1 503d
000002b0: 9ea1 9d3d fe1f 993d ab04 823d f5d1 9d3d
000002c0: 9dd1 9c3d bf72 513e 3b39 e53d d433 a23d
000002d0: 5819 963d fd15 273d 5eb0 353d a3a2 d03d
000002e0: de23 ae3d ee6f ae3d a7a5 0e3e 4d40 a03d
000002f0: 1e2a 983d 92c3 5c3d 0d84 913d a245 c73c
00000300: bc67 de3d 409d d63d 86c2 b93d 87eb b53d
00000310: 9f66 803d 1f91 263e ddf4 563d 9837 5f3d
0.1253537 0.05147783 0.090743445 0.027829804 0.04163701 0.047660124 0.045921344 0.100223295
0.11014484 0.08433489 0.072883576 0.09693887 0.07112549 0.052306835 0.12467566 0.060500752
0.050283156 0.028550584 0.06785245 0.09830703 0.08740312 0.08911653 0.059334695 0.10528924
0.10786983 0.04911467 0.05689576 0.088898465 0.04855344 0.11719731 0.08777299 0.06388725
0.10423983 0.067684695 0.060155638 0.047717027 0.09472868 0.09204507 0.11776918 0.1071178
0.032028202 0.1028022 0.0863101 0.063520074 0.08408723 0.040884178 0.16041292 0.13193037
0.02857618 0.07841713 0.07045707 0.054141514 0.0641248 0.09973008 0.10558093 0.066519
0.13522075 0.05724743 0.07068676 0.10938153 0.08222283 0.11295451 0.033958424 0.038340505
0.03793382 0.060863923 0.08398905 0.053826984 0.09079351 0.10475866 0.11749874 0.056056842
0.058616564 0.1257733 0.057088945 0.06502154 0.068108596 0.11564259 0.08328087 0.08077232
0.09537507 0.12865718 0.095187426 0.04510628 0.062491223 0.089791484 0.07985346 0.12935069
0.1043756 0.14433649 0.06544444 0.037704796 0.10776948 0.060841188 0.057608217 0.0411676
0.043854475 0.20257275 0.03774137 0.084915854 0.057734642 0.06566278 0.08592715 0.052913446
0.065777116 0.08533647 0.1021348 0.109913 0.033747755 0.069071345 0.046410367 0.059679076
0.21262212 0.07925405 0.084075026 0.10005734 0.07399723 0.054152004 0.06308501 0.09165571
0.04844873 0.067079 0.011875089 0.06683241 0.04328332 0.107774906 0.091228455 0.09402374
0.050240077 0.05782339 0.096633516 0.0154037895 0.12890199 0.08531457 0.07513196 0.042185992
0.06425618 0.048611414 0.15063827 0.06653635 0.08134131 0.117209464 0.061404552 0.20753282
0.05756224 0.0948727 0.06795837 0.11184113 0.10073204 0.06906776 0.055351246 0.12412634
0.17192534 0.1046948 0.050379764 0.07852179 0.073487684 0.18332261 0.10252636 0.030118521
0.07603615 0.08703229 0.052244697 0.08458124 0.10923341 0.073269315 0.09643339 0.07114639
0.062804855 0.07568286 0.042317875 0.05099662 0.07696842 0.07476805 0.063485466 0.07706062
0.07657168 0.20453928 0.111925565 0.07920042 0.07329053 0.040792454 0.04435765 0.101872705
0.08502935 0.08517443 0.13930379 0.078247644 0.07429908 0.053897448 0.07105265 0.024325196
0.108596295 0.10479212 0.090703055 0.08882814 0.062695734 0.16266297 0.052479614 0.054496378

weight f4 [100, 200]
00000000: 78e3 55bd 2255 a33c ac72 8d3c a984 bebc
00000010: 6dd6 c3ba 9c77 d6bc c2db c9ba 43a3 d73b
00000020: 3120 71bd d540 8e39 3e34 863d c445 343d
00000030: 7b7d 313d b08c 07bb ed8e 98bb c2b9 8e3c
00000040: 31b8 4dbd e9f8 293d 7eb2 823d abb6 963d
00000050: 9945 783d 8ea5 06bd 9be1 8a3b 163c 7dbc
00000060: c0e8 723d 4c5e 6c3b f750 d0bc dbda 0bbd
00000070: c3e6 87bd 13e7 8e3c e9f4 9dbc 1e55 3d3d
00000080: a3e0 99bc d1bc 553d 12c7 863d 7cf8 28bd
00000090: 9fa0 d63c 591c 783d 8fd7 0b3d 5d27 8fbc
000000a0: 6b40 14bd d8b4 5bbd f2d4 3b3c 72a9 f93b
000000b0: 0b8f 24bc 3398 a4bc 68bd 25bd 43ec fa3c
000000c0: 74de 413d b114 a23c 8ac7 a5bc 15ae 58bd
000000d0: fded 95bd b5f3 e53c 8a7a 3e3d 5907 69bd
000000e0: 263e 6e3d 6bd4 b13c 6c15 143c 584f a33a
000000f0: e4d7 53bd 16fc 5c3d 382a 2d3d 8992 063d
00000100: cbfc f2bc 06f9 763d ffcd cf3c 8833 d13c
00000110: 0075 8abd e4f3 383d 49fa 903c 8f4b c13b
00000120: 3e65 343d 2dda 2ebd bcbe 4e3c c5ac 6bbd
00000130: 358d 85bc 8692 30bd 5afa 6fbd 83f3 3d3c
00000140: 8a9b 313c ba86 f23c dc40 10bd f453 13bd
00000150: 34bc 9ebd 1732 423d 53fe 2d3c 9fb9 1a3d
00000160: 1334 61bb d88b edbc 6a2b 323d cd30 f33b
00000170: c3d4 013c 0fbf 2b3d 7bf9 933c 10e3 223d
00000180: cc4c 703d d7a4 29bc 633c ac3c 896c 8d3c
00000190: 4459 49bd 933a 1dbd da70 bf3b 7d0f c9bc
000001a0: f5bd 4d3d e718 293d f43e 1fbd 02ac 58bd
000001b0: b5b0 763d a23d 363d 5a20 823b 20bb 623d
000001c0: d330 2ebd 7c81 62bd 904e c4b9 9a60 48bd
000001d0: 04c2 1dbb 85b1 84bd 8a0f 673b 092d 5f3d
000001e0: 4841 84bc 4663 1abc 4069 bf3c 2952 7cbd
000001f0: bf3c 053c b031 663d dbe7 4dbd a082 57bb
00000200: b52a 84bc a0e1 debc 156a 3e3d 48b0 003d
00000210: 2982 34bd d0e2 acb9 60f2 133d df0f 70bd
00000220: 343b 3ebd c13f e3bc 6e18 32bd 0f01 3d3c
00000230: e225 b8bc 67a6 63bd dc8d 70bd 194b 86bd
00000240: f7f5 22bd d3f0 14bd 5035 6dbc f1c7 85bd
00000250: ae46 a6bc 0462 833d 0332 81bd 3ba6 0e3d
00000260: 497e 033b d6ba 753d 7e7e ffbb 8e77 673d
00000270: 819e efbc 920c f03c 6b5e eb3c a121 6ebd
00000280: c2f7 643d 0917 8ebd 2760 57bd 51b8 0fbc
00000290: c0ae a73d 8cb5 7c3c 5af8 df3c 55d5 36bc
000002a0: eef9 81bc 0181 20bd 6450 133d 05a1 74bd
000002b0: cc86 c1bb b69c 6f3c 262b 383c 3af6 8fbd
000002c0: d929 013d 25ed 7c3d 4eba cb3c d451 2b3d
000002d0: 150e 16bd 914d 713b 8eba 67bd d40c 5b3b
000002e0: a332 f43a b2b7 d13c 481a bfbc 6ec4 583c
000002f0: 9807 cdbc bd24 4f3d d157 b6bc 2910 43bb
00000300: 3155 173b 75b5 c0bd 71c1 e13c 6082 52bd
00000310: ab6f 723d 5c62 c83c 8d64 583c 23f0 173d
00000320: eeba 803d 539e f73c 8988 d1bb f0d9 3d3d
00000330: 6162 83bd 87fe 0e3d 509b d8bc df22 90bc
00000340: e34f 413d 8b05 0cbc 8c84 8c3d 2d0d 803d
00000350: 09dd 84bd 7441 993d 6c1c 40bc 5ca5 233a
00000360: fd73 14bd dc8d 42bd 9e4f 533d 0a54 ea3c
00000370: 18e4 073d ff04 21bd 334c 40bd c56f f5bc
00000380: bcde b5bb dbf2 393d 588e 49bd e078 29bd
00000390: 5fc3 e2bc 8116 483d bfd0 893d 100b 21bd
000003a0: 5280 4cbd b73f 1f3d 1486 8bbd 87e4 853b
000003b0: 42e7 4bbd 653e 19bd b872 75bd 46b5 50bd
000003c0: 1929 4abd f1cd c7bc 3518 8ebb 4f72 68bd
000003d0: cf33 073d f573 e1bc 5626 fe3a e74e 363b
000003e0: f6cf 3cbd ee7b 02bd bccf 10bc efd5 2abd
000003f0: 3fe8 06bc 8809 c53c 32cd 033d ac1c 79bd
-0.052218884 0.019938055 0.017266594 -0.023256617 -0.0014941223 -0.026180081 -0.0015400576 0.0065807416
-0.05886859 0.00027132654 0.06552933 0.044011846 0.043332558 -0.0020683222 -0.00465571 0.01742256
-0.050224487 0.041497145 0.06381701 0.0735906 0.06061325 -0.03287273 0.00423832 -0.01545622
0.059304 0.0036066948 -0.025429232 -0.034144264 -0.06635811 0.01744417 -0.019281821 0.046223752
-0.018783873 0.052182022 0.065809384 -0.0412526 0.026199637 0.06057391 0.03414112 -0.017474825
-0.036194246 -0.053639263 0.011464344 0.0076190764 -0.01004387 -0.020092105 -0.040463835 0.030630236
0.04733129 0.019785257 -0.02023675 -0.052900393 -0.07320783 0.02807031 0.04650358 -0.056891773
0.058164738 0.021707734 0.0090383105 0.0012459559 -0.05171956 0.053951345 0.04227659 0.03285459
-0.029661557 0.06029608 0.025366781 0.025537267 -0.06760597 0.045154467 0.01769747 0.0058989
0.044041865 -0.042688537 0.012618717 -0.057537813 -0.016302684 -0.043108486 -0.058588363 0.011593702
0.010840306 0.029605258 -0.035218105 -0.035968736 -0.07750741 0.04741105 0.010619718 0.03777468
-0.0034363314 -0.028997347 0.043498434 0.007421589 0.0079242615 0.041930255 0.018063297 0.039767325
0.05866699 -0.010354242 0.021024888 0.017263668 -0.049157396 -0.03838594 0.0058423104 -0.024543518
0.050229985 0.041283514 -0.038878396 -0.052898414 0.060227115 0.04449237 0.0039711418 0.055354238
-0.04252703 -0.055299267 -0.00037442567 -0.04892025 -0.002407194 -0.06479172 0.0035257065 0.05448631
-0.01614441 -0.009423083 0.023365617 -0.06160179 0.008132159 0.05619973 -0.050269943 -0.0032884255
-0.016133646 -0.027207196 0.046487886 0.031418115 -0.044069443 -0.00032975385 0.03611982 -0.058608886
-0.04644318 -0.027740361 -0.04348033 0.011535897 -0.022479001 -0.055578616 -0.058729038 -0.065572925
-0.03978535 -0.03636248 -0.014478043 -0.065322764 -0.020297375 0.06415179 -0.06308367 0.0348265
0.0020064285 0.059992634 -0.0077970615 0.0565105 -0.029250385 0.029302869 0.028731545 -0.05813754
0.055900343 -0.06937987 -0.052581932 -0.008771972 0.08187628 0.0154241435 0.027340103 -0.011159261
-0.015866246 -0.039185528 0.03596534 -0.059723873 -0.0059059616 0.014624765 0.011240756 -0.07029386
0.03153405 0.061749596 0.02486911 0.041826084 -0.036634523 0.0036819915 -0.056574397 0.0033424394
0.0018630814 0.025600288 -0.023327962 0.013230426 -0.025028035 0.050572146 -0.022258671 -0.002976427
0.002309155 -0.0940961 0.02755806 -0.051393867 0.059188526 0.024460964 0.013207567 0.037094247
0.06285654 0.030226862 -0.00639445 0.04635042 -0.06415249 0.034910705 -0.026441246 -0.017594753
0.047195327 -0.008546243 0.06861219 0.06252513 -0.064874716 0.07483187 -0.011725526 0.0006242597
-0.036243428 -0.04749857 0.0515896 0.028604526 0.03317651 -0.039311405 -0.04694767 -0.029960522
-0.0055502336 0.04539762 -0.049208015 -0.04137504 -0.02768105 0.048849586 0.06729268 -0.03931719
-0.049927063 0.038879123 -0.06812683 0.0040860805 -0.04978109 -0.03741302 -0.059923857 -0.050954126
-0.0493556 -0.024390193 -0.004336382 -0.05674964 0.033008393 -0.027521113 0.0019390087 0.0027818026
-0.046096765 -0.03185647 -0.00883859 -0.04170793 -0.008234083 0.024052396 0.03217811 -0.06081836

weight f4 [100]
00000000: 2a14 783f 8a45 7a3f d732 7f3f dbf9 783f
00000010: 0c56 7c3f 32d1 7b3f cd6d 793f aee1 7a3f
00000020: 0622 7a3f 7c1a 7c3f 60bc 7a3f b9ec 7b3f
00000030: b91f 7c3f 704b 7a3f 0dc6 793f f5f5 7b3f
00000040: 8d41 7b3f 9336 7b3f 748f 793f 4f79 7e3f
00000050: a393 7c3f aac1 773f 858c 793f 95fe 7b3f
00000060: d7e6 793f 9837 793f 7286 7a3f c0e4 7a3f
00000070: b2f0 7b3f 468d 7c3f 8dac 793f b7f7 793f
00000080: 1304 793f 9c24 793f db73 793f ee1a 7b3f
00000090: 02db 783f 41b0 7b3f c6bd 7a3f 2022 7b3f
000000a0: a324 7e3f e865 7b3f 36dc 7b3f eadb 7a3f
000000b0: ce81 7c3f db00 7b3f 6e78 7b3f 2152 7b3f
000000c0: f4ce 753f 6c87 7c3f 78d8 773f 56f9 783f
000000d0: 8347 7d3f 5c77 7b3f 0c7e 7b3f a305 7e3f
000000e0: 72c5 7c3f f925 7a3f db56 7c3f d080 793f
000000f0: 2587 7d3f d49d 7b3f 3e04 7a3f 4a25 793f
00000100: f6f6 7b3f a28c 783f 080b 793f 5330 7e3f
00000110: 8189 7b3f 778b 7a3f 2e7f 7b3f 4f25 793f
00000120: 7553 7b3f 65ca 7c3f 140b 7b3f 2056 7b3f
00000130: f721 7a3f f29b 7a3f 07ac 7b3f 4067 7a3f
00000140: 2c10 7c3f 8cce 7a3f 4888 783f 284d 7d3f
00000150: 00b8 7b3f ea5f 793f 944c 7b3f 596d 783f
00000160: c14d 7b3f 5935 783f 0732 7a3f 50d3 7d3f
00000170: a31f 7b3f 1660 743f aacb 793f 5bbc 7c3f
00000180: 0c1a 7c3f 4e5d 7c3f 402e 7b3f fd39 7f3f
0.9690577 0.9776236 0.9968695 0.9725625 0.985688 0.9836608 0.9743317 0.9800061
0.97708166 0.9847791 0.9794369 0.98408085 0.98485905 0.9777136 0.97567827 0.98422176
0.981469 0.9813015 0.9748452 0.9940385 0.98662776 0.9677988 0.9748004 0.98435336
0.9761786 0.97350454 0.978614 0.98005295 0.98414147 0.98653066 0.97528917 0.9764361
0.9727184 0.97321486 0.97442406 0.98087966 0.9720918 0.9831582 0.9794582 0.98098946
0.99274653 0.9820237 0.9838289 0.9799181 0.98635566 0.9804818 0.98230636 0.98172194
0.9601891 0.9864414 0.9681468 0.97255456 0.98937243 0.98229 0.9823921 0.9922735
0.9873878 0.9771419 0.9857003 0.9746218 0.9903434 0.982877 0.97662723 0.97322524
0.9842371 0.9708959 0.9728246 0.99292487 0.9825669 0.97869056 0.98240936 0.97322553
0.9817422 0.9874633 0.9806378 0.9817829 0.97708076 0.97894204 0.9830937 0.97813797
0.98462176 0.97971416 0.9708295 0.98945856 0.98327637 0.9741198 0.98163724 0.9704185
0.9816552 0.969564 0.97732586 0.9915056 0.9809515 0.95459116 0.9757639 0.9872491
0.98477244 0.9857987 0.98117447 0.9969786

bias f4 [100]
00000000: 96b8 0ebe 23ef 1b3e 3278 16be 0a23 f6bd
00000010: 2726 23be 1839 1ebe 23d3 1d3e 63ff 25be
00000020: f16f 1bbe c305 2b3e d762 22be c74f 093e
00000030: cd2c 033e cc25 03be 8c9e 1f3e 955d 053e
00000040: 5294 183e f69a 233e 9317 08be c0dc 0dbe
00000050: 9957 12be dd99 093e 66ce 263e f9a3 103e
00000060: ed28 12be 756f fb3d 29c4 003e 1e96 0d3e
00000070: 4b87 fbbd dc7b ff3d 2d9d 1e3e 93e4 0c3e
00000080: 3c58 fd3d ab3a 1c3e cf41 1b3e 40b3 1ebe
00000090: e8fd efbd 8d2a 13be 148d 0cbe b62a 193e
000000a0: 6e1b 283e 0836 253e d000 0f3e 5292 04be
000000b0: 9727 163e f0a9 1c3e 03f8 063e baed 16be
000000c0: 4736 273e 26d4 193e 75ce 08be c415 05be
000000d0: 74f8 f73d 8392 15be 60ae 01be f594 223e
000000e0: 05a2 06be eca2 10be e8c5 0dbe c70c 193e
000000f0: 7e5d 0bbe 4aad 0b3e 3bea 1b3e e6f7 06be
00000100: 920b 1e3e f1d9 13be 1a9e 26be d317 05be
00000110: 122b 163e adb7 073e e59d f1bd 355d 09be
00000120: 1587 1a3e 59cc 0e3e a1a0 003e 8c4f 28be
00000130: 7381 21be f623 0dbe 63d8 eb3d 46e0 173e
00000140: a51b 1ebe 1b15 013e 3f87 083e 48a6 0dbe
00000150: da0a 29be 7328 253e 0b7e 06be ff20 283e
00000160: 32a0 06be c6ca 10be adff 143e 419d 233e
00000170: 6bbf 20be dde7 0abe 9fb7 1ebe b456 153e
00000180: aff6 febd 0a0d 2d3e af80 1ebe 0d0e 153e
-0.13937601 0.15227942 -0.14694288 -0.12018402 -0.15932523 -0.15451467 0.15412574 -0.16210704
-0.15179421 0.16701417 -0.15858017 0.13409339 0.12810059 -0.12807387 0.15587825 0.1302398
0.1490033 0.15977082 -0.13290243 -0.1385374 -0.14291228 0.134376 0.16289672 0.1412505
-0.14273424 0.12277118 0.12574829 0.13826796 -0.122816645 0.12474796 0.15489645 0.13759069
0.12370345 0.15256755 0.15161823 -0.15498066 -0.11718351 -0.143717 -0.13725692 0.14957699
0.16416714 0.16133893 0.13965154 -0.12946442 0.1466354 0.15299201 0.13180546 -0.14739123
0.16329299 0.15022334 -0.13360007 -0.12996584 0.121079355 -0.14606671 -0.12664175 0.15877135
-0.13147743 -0.1412465 -0.13845026 0.1494628 -0.13609883 0.13640323 0.1522607 -0.13180503
0.15434101 -0.14438607 -0.16271248 -0.1299737 0.14664868 0.1325366 -0.11797694 -0.13414462
0.15090592 0.1394514 0.12561275 -0.16436595 -0.15772037 -0.1378325 0.11515882 0.14831647
-0.15440233 0.12605707 0.13332842 -0.13832963 -0.16508046 0.16128711 -0.13134019 0.16418837
-0.13147047 -0.14139852 0.14550658 0.15977956 -0.1569802 -0.13565011 -0.15499733 0.14583856
-0.12449395 0.16899505 -0.15478776 0.14556141

running_mean f4 [100]
00000000: 5c44 aa3e 51c2 883e 6b1f 8f3e 3c6c a13e
00000010: 55d8 843e d158 cf3e 9220 b23e 5210 873e
00000020: df2d a03e 8017 ab3e f61c af3e ed26 6e3e
00000030: 0328 9b3e b420 6d3e 4776 ab3e 15ca a03e
00000040: 6a25 a73e c8dd 7a3e 894e ba3e 1ee2 bd3e
00000050: c330 ac3e 3dcb ba3e b19c 863e ebda c23e
00000060: 6602 c93e 4789 843e 3b79 573e eb73 b73e
00000070: cfa1 b83e cff5 8b3e 40a9 843e eefd a33e
00000080: a537 673e be94 993e caa3 8f3e 4ae4 bc3e
00000090: ecd8 eb3e a489 bf3e b284 b83e fd91 8a3e
000000a0: c8a8 813e 6e9b b33e 7b69 ab3e 665a d73e
000000b0: ca39 a93e 57af 703e 1b1c 963e 90b1 703e
000000c0: a74e b73e 4d1b 723e d0ae a13e f45e b13e
000000d0: 9078 923e 9dd6 9b3e 4a3d bc3e 4b43 a13e
000000e0: 9b31 a33e 4469 673e e2c8 e23e ce61 ab3e
000000f0: 4247 813e 1be0 b53e 7fde 8d3e 86d4 bc3e
00000100: 72f5 8d3e 05b9 823e 0279 843e 744e b73e
00000110: baec af3e 39ba bd3e 63af 8a3e 146a 9f3e
00000120: f799 923e 585d c93e a2a2 aa3e 4262 8b3e
00000130: c8bb a53e 3121 fd3e 104b 8c3e 45ef 8c3e
00000140: 6d4e 913e 3893 983e 50b2 ae3e a3f4 b23e
00000150: a5cc 7d3e 97a3 b83e a95f 8e3e 78e5 ed3e
00000160: b58c a53e 5dcc 9f3e 2271 ba3e 43fc 953e
00000170: 9301 673e 0551 863e c420 a53e 385f a33e
00000180: 89ad da3e 5808 a43e c7bd 883e ab80 bb3e
0.3325528 0.26710752 0.27953658 0.3152789 0.25946298 0.4049745 0.34790474 0.2637964
0.31284997 0.33416367 0.34201783 0.23257037 0.30303964 0.23157007 0.33488676 0.31404176
0.32645732 0.24498665 0.36388043 0.37086576 0.33630952 0.36483184 0.2629142 0.38057646
0.39259642 0.25885984 0.2104234 0.35830626 0.3606095 0.27335975 0.25910378 0.3202967
0.2257982 0.29996294 0.2805465 0.3689292 0.46063936 0.374097 0.36038738 0.27064505
0.25324082 0.3507952 0.33478913 0.42061156 0.33051902 0.23504387 0.29318318 0.23505235
0.35802194 0.23643227 0.31578684 0.34642756 0.28607607 0.30437174 0.3676551 0.31496653
0.31873783 0.2259875 0.44293886 0.33473057 0.25249678 0.3552254 0.27708814 0.36880893
0.27726322 0.25531784 0.25873572 0.35802042 0.34360296 0.3705614 0.27086934 0.3113562
0.2863309 0.39329028 0.33327204 0.27223402 0.32369828 0.49439386 0.27401018 0.27526298
0.28380147 0.2979982 0.34120417 0.34952268 0.24785097 0.3606231 0.27807358 0.46464133
0.32333913 0.31210604 0.36414438 0.29294023 0.22559194 0.26233688 0.3225156 0.31908584
0.42710522 0.32037616 0.2670729 0.36621603

running_var f4 [100]
00000000: 50af 693e 1d00 853e 84a3 743e 480f 443e
00000010: ef41 ad3e b2f2 833e 6a73 943e cea8 e73d
00000020: 12d4 4e3e 316d 973e bacc b23e 2efc 723e
00000030: 4eea 663e 3956 a23e ba79 af3e 41ed ab3e
00000040: 2f43 993e f061 743e eee1 ba3e e8a4 903e
00000050: 2fcc 993e b6f5 bc3e aeba 143e 6089 803e
00000060: 8e3a 953e a6d4 5f3e 026a a23e f749 a23e
00000070: 6797 ec3e ecd7 363e e9b7 983e 8d77 5f3e
00000080: e338 8c3e 13db 213e 40bb 7c3e cc7e 913e
00000090: 47da 8c3e bfb6 af3e cff5 823e 8470 3d3e
000000a0: 75a6 5b3e f68c 583e 5e87 b23e 85c3 b03e
000000b0: e6cd a03e 9391 f83d 7413 2a3e 1cc2 693e
000000c0: 294b 663e ea14 263e d8c4 703e f3ca ca3e
000000d0: 4145 9b3e 31f8 863e 14de a63e a4b4 4b3e
000000e0: 4cfe 813e b9b6 553e 3f4b 153f 3aef 333e
000000f0: 0dc0 843e 4bca b83e aeac aa3e 178f a33e
00000100: c1c4 c33e e1a6 193e fcd2 213e 4114 bc3e
00000110: 09b7 c93e cbd7 4f3e 7357 693e 0645 8b3e
00000120: c0d4 723e ca45 913e af61 353e 49c4 903e
00000130: 6b79 ba3e fcc5 ca3e 5d31 4a3e 91a3 663e
00000140: 4ee3 813e 3320 773e ac1d 283e 3b5b bc3e
00000150: 39b9 2a3e aacc 793e 1e1c 893e fc62 c43e
00000160: 51d1 9f3e a7d8 1c3e 00d1 993e c436 b83e
00000170: 1527 413e f3de de3d efa0 613e 6958 443e
00000180: 98a1 e53e 1fd1 aa3e a217 813e 79cf 833e
0.22820783 0.2597665 0.23890501 0.19146454 0.33839366 0.257711 0.28994304 0.11311494
0.20198086 0.29575494 0.3492182 0.23729011 0.22550318 0.31706408 0.34272557 0.33579448
0.2993407 0.23865485 0.36500496 0.28250813 0.30038592 0.36906213 0.14524338 0.2510481
0.29146236 0.21858463 0.31721503 0.31697056 0.4620926 0.17855805 0.29827812 0.21822949
0.2738715 0.15806226 0.24680805 0.2841705 0.27510282 0.34319112 0.25578162 0.18499953
0.21450217 0.21147522 0.34868902 0.3452417 0.31407088 0.12137141 0.16608983 0.22827953
0.22489609 0.16218916 0.2351259 0.39607963 0.30326274 0.2636123 0.32591307 0.19893128
0.25389326 0.20870484 0.5831794 0.17571726 0.25927773 0.36091837 0.3333487 0.31945106
0.3823605 0.15005066 0.1580314 0.36734203 0.39397457 0.20297162 0.22787265 0.27201098
0.2371397 0.28373557 0.17713045 0.28274754 0.3642076 0.39604175 0.19745393 0.22523333
0.25368732 0.24133377 0.16417569 0.36788353 0.1667222 0.2439448 0.26779264 0.3835677
0.31214383 0.15317021 0.30042267 0.35979283 0.18862565 0.10882368 0.22034048 0.19174351
0.4484985 0.33362672 0.25213343 0.25744227

weight f4 [12, 100]
00000000: f5f0 7e3d b2d4 ccbb dd86 533c d1ef de3d
00000010: 3ef7 87bc abfd e63d 5672 02bd eab3 cb3d
00000020: 4c2a 153d d5a2 fbbc 9a68 1a3d e84a 94bd
00000030: cf1e dabd 77da 8a3c a7e1 9cbd 85a5 4f3d
00000040: 5ffc 3f3d 5cdd f5bd 3d16 c03d 2fdc 693d
00000050: 5d55 243d b243 cfbd c00c a8bc b33c 92bd
00000060: c066 09bd 9dc9 06be fc32 00be be73 14bd
00000070: a43e f1bb 16a2 d6bd a11c 5b3c 8ef7 05bc
00000080: 07a9 bcbd 82fd 6abc aaf9 c7bd f44c 4c3d
00000090: d6bc 9b3d 7449 313d e4eb ec3d 093b c3bd
000000a0: b285 62bd 42bd 71bd 58f6 d3bd c7c8 9a3c
000000b0: 7dc2 5f3d 58f6 793b 6d9c 2abd 45c5 cc3d
000000c0: 4ea3 bbbd b61b 94bc 9e99 723c f0a5 943d
000000d0: 841e e6bd ad56 f03d ea27 dd3d 536b 183d
000000e0: bd31 3c3d d47a 2abd 94ed d43d 603e 283d
000000f0: 08b7 513d 96f2 95bc 16c2 febd 37f8 7e3d
00000100: c155 3cbd 81ab fa3c 035e b03d c12b b83d
00000110: 9c15 0fbd 310b bf3c 023c 443d 5b94 b13d
00000120: 41d0 d0bd d9be d63c 342a 68bd 406d e8bb
00000130: f726 113d 6535 6fbd e055 debd 32b9 6b3d
00000140: 1b2d 64bc 51e0 9dbc 3a95 5bbd 10e3 a33d
00000150: 05f7 cb3d 99c1 f6bd 8c4a 093d ca19 0b3d
00000160: c6a3 b93d 1b26 4bbd 311b 9d3c f93f 693d
00000170: c3b0 8abd e9e7 593d 39bb a03d c4e2 eabd
00000180: 0979 cebc ab5f a7bd b72e 723d c846 80bd
00000190: c0ec 163d 379e 32bd 2aeb bf3c c406 a13d
000001a0: e419 a33d 0461 43bc c1eb 9cbd 0147 293d
000001b0: d63f 9bbb 8915 23bc 9a86 933c 9abe dabd
000001c0: b813 d5bd 9a15 af3d 5076 ffbd f715 2abd
000001d0: 9a9f ebbd ddeb f3bd 31f2 b03d a7b1 733d
000001e0: 87c0 1d3d a061 f3bc c402 aabd 0d35 d6bd
000001f0: 94a0 1d3d 7aa9 1abd 1b1b 9fbd 284a 75bd
00000200: 2f99 f33d 98a6 70bd 69c2 ecbd 8737 27bd
00000210: ed01 e33b 2342 84bd 3303 31bd ac0a e83d
00000220: 680f c03d c508 cc3c db1f 523d 2dab 023d
00000230: 9bf0 48bd 80f4 20bc 8999 febd 94af f33d
00000240: d96a d4bd 91fe bfbd 3a9f bdbd 7f12 1b3c
00000250: 65ca cd3c 586a 0ebd 9b1a c93c 0963 173d
00000260: 1d76 13bd e098 e93d a0f5 af3d 956c 8dbd
00000270: 38ce 86bc ed2f c43d 1af9 b13d e11b a7bd
00000280: 8fb9 afbc c92f 193d b6db 7cbc fb85 483d
00000290: e6ba 6e3c 4d8b 283d 2819 bb3d 1732 0c3d
000002a0: 8975 a5bd c919 79bd 4ee5 013e 7b64 c1bc
000002b0: d2a3 3739 dc92 a9bd 921a bebd 0cb5 bb3d
000002c0: 4798 bc3d 4cb3 f63d 618e 8dbc 045a 33bd
000002d0: 1ba1 933d 9cc9 a8bd 4102 50bd 1f18 213d
000002e0: 2e84 ac3d 1772 d33c 579b 9abb 24bc b23c
000002f0: c7a3 e13d e1d8 a83d 89ad 0ebd 6f1f 88bd
00000300: 26a6 bf3c 0acb f53d 4a54 c33d b4ee 8cbd
00000310: 3398 ed3d dabb b2bd a6e8 ac3d 745d 53bd
00000320: 4d2e bd3d 0ca6 723c 91cd c13a be9d 3a3d
00000330: 2a46 ea3d 2859 0d3e e736 63bd b93f 1f3d
00000340: f270 b2bc 63bb f4bd ccfa f03d 1d97 c4bb
00000350: 3403 f3bd 321b 033e 3aa4 cebc fe7f 2d3d
00000360: 1ea8 febc b482 f0bc 6a4c 073e 5754 ae3d
00000370: 7574 133e 1d03 99bd 092d a5bd 6d2a b9bd
00000380: 0a67 5d3b b5d2 a9bd 6159 f8bd c72f 84bc
00000390: a955 fd3d e4ec aa3c f69a fd3c 4740 45bd
000003a0: 2df4 f7bd 0165 bebc 3bef b4bd 898a b13d
000003b0: ebe6 803d a89b 063e de8b 57bc 6330 d5bd
000003c0: 0dc9 0abe e92a 973c 5894 c6bd 0bfa cc3c
000003d0: 34cc 04be 48aa a8bd 9ff3 a6bc 5772 b83d
000003e0: 4aee 33bc dbe2 82bd 7a04 6cbc 587e ea3d
000003f0: 5963 03be d32d b13d 4f67 ca3d 98cb 8dbc
0.062241513 -0.006250941 0.012910572 0.10885585 -0.016597386 0.11278852 -0.03184732 0.09946425
0.03641729 -0.030717293 0.037697412 -0.0724085 -0.106504075 0.016949875 -0.07660227 0.05069496
0.04687154 -0.120051116 0.093792416 0.05709475 0.04012047 -0.10120334 -0.020513892 -0.07140484
-0.033545256 -0.13162847 -0.12519449 -0.036243193 -0.0073622037 -0.10480134 0.013373525 -0.008176697
-0.09211927 -0.014342668 -0.097644165 0.049878076 0.07604377 0.04328294 0.1156843 -0.095327444
-0.055303283 -0.05901838 -0.10349721 0.018894566 0.054628838 0.0038141217 -0.041653086 0.09998564
-0.09162007 -0.01807962 0.014807133 0.072582126 -0.11236289 0.11735282 0.10798629 0.037211727
0.04594587 -0.041621044 0.10396877 0.04107511 0.051199943 -0.01830415 -0.12439363 0.062248435
-0.04598022 0.030599358 0.08611681 0.089927204 -0.034932718 0.023320766 0.04790879 0.08670875
-0.10195971 0.02621405 -0.056680873 -0.0070931017 0.03543755 -0.05840053 -0.10856223 0.057549663
-0.01392677 -0.019272001 -0.05360911 0.08002293 0.099592246 -0.120486446 0.03351836 0.03396014
0.090644404 -0.049596887 0.019178005 0.056945775 -0.06771996 0.053199682 0.0784821 -0.11469033
-0.025204198 -0.08172544 0.059126582 -0.062635005 0.036846876 -0.043607917 0.023427565 0.078626186
0.079639226 -0.011924986 -0.07662154 0.04132748 -0.0047378344 -0.009953865 0.018008519 -0.106808856
-0.10404152 0.08549042 -0.12473738 -0.041524854 -0.11505051 -0.11910222 0.08639944 0.059495594
0.038513687 -0.029709637 -0.08301309 -0.104593374 0.038483217 -0.03775928 -0.07768842 -0.059885174
0.11894452 -0.058752626 -0.11560518 -0.04082444 0.00692772 -0.06457927 -0.04321594 0.113301605
0.093779385 0.024906525 0.05129991 0.031901527 -0.049057584 -0.009823918 -0.12431628 0.11898723
-0.10371942 -0.093747266 -0.09258886 0.009464859 0.025120923 -0.034769386 0.02454882 0.03695968
-0.036001313 0.11406112 0.08591771 -0.06905476 -0.016455755 0.095794536 0.086900905 -0.08159614
-0.021450786 0.037399087 -0.015433243 0.0489559 0.014570927 0.041148473 0.091356575 0.034227457
-0.08079059 -0.060815606 0.12685129 -0.023607483 0.00017513268 -0.08279964 -0.09282412 0.09165391
0.09208732 0.12045917 -0.017279806 -0.043787017 0.07208463 -0.08241579 -0.0507834 0.039329644
0.08423649 0.025811238 -0.004718225 0.021818228 0.11017566 0.08244491 -0.034833465 -0.066466205
0.023394655 0.12001617 0.09537561 -0.068814665 0.11601295 -0.08727236 0.08442812 -0.051602796
0.09237347 0.0148100965 0.0014785995 0.04556059 0.11439164 0.13803542 -0.05547228 0.03887913
-0.021782372 -0.11949804 0.11766586 -0.0059994594 -0.11865845 0.12803343 -0.025224794 0.04235839
-0.031086024 -0.0293592 0.13212743 0.0851218 0.14399894 -0.07471297 -0.080652304 -0.09041295
0.003378334 -0.08292142 -0.12126423 -0.016136063 0.12369854 0.020864911 0.03095768 -0.048157003
-0.1210712 -0.023241522 -0.08834692 0.086690016 0.06294044 0.13145316 -0.0131559055 -0.1040962
-0.13553257 0.018453078 -0.09696263 0.025021574 -0.12968522 -0.082356036 -0.02037984 0.090061836
-0.0109821055 -0.063909255 -0.014405364 0.114498794 -0.12830867 0.086513184 0.09882986 -0.017308995

bias f4 [12]
00000000: ca85 103b d47a 53bc e396 8cbd 8e15 4abe
00000010: 8e0a 49be b1bf 00bb 0cfe 02be eb0e 51be
00000020: 6be5 7dbd 9136 bebd ba0a 2dbe 3343 38bb
0.00220524 -0.0129077025 -0.06864717 -0.19734785 -0.19632933 -0.0019645507 -0.12792224 -0.20415847
-0.06198637 -0.092877515 -0.16898623 -0.0028116226
